checkpoint_critic.pth (torch_old, 89701 bytes, 9 tensors)

fcs1.weight f4 [128, 33]
-0.20014971 0.17658955 -0.7563939 -0.01212274 -0.030738827 0.48872322 1.4798949 -0.06196173
0.066376895 -0.4588587 0.09496532 -0.057120003 0.047399867 0.46088037 0.011073417 1.0166825
-0.58537555 -0.90977675 -0.116936296 0.57935697 -0.048816536 -0.048153426 0.095813215 0.21493287
-0.004661994 0.31888098 -0.23912433 -0.22468068 -0.8299315 -0.07745276 0.22231351 -0.06518316
-1.5072063 0.3510008 0.30183488 0.21701932 -0.7327081 -1.0897068 2.0067837 -1.7146839
0.03597554 -0.45259157 0.15453158 -0.07099724 0.0075604627 -0.10094373 -1.040473 -0.22444804
-0.11848999 0.38904756 -0.24097499 0.5340119 -1.0140977 0.06534513 0.015081297 0.031413622
-0.09947201 -0.0812327 -0.17072971 0.9408867 0.64056194 -0.13435645 0.07968625 -0.5739094
0.052087314 -0.638784 0.077275805 -1.2362198 -0.11654433 3.491384 1.4620613 -0.060051348
-0.7555257 -0.29158494 -0.28573173 0.5236906 -0.12366051 -0.04648672 -0.010774867 -0.19784041
0.8416878 0.23187162 -0.8792099 0.08894717 -0.15785757 -0.010677721 0.10363581 -0.13835445
-0.009511288 0.012207721 0.19849065 -0.20026682 0.078480445 0.4478816 -0.24329111 -0.06767324
-0.44402036 -0.039008476 -0.9051321 0.13670431 -0.33317307 -0.25836375 0.64027506 -2.278014
-3.0504997 -0.13635223 0.09391631 0.54687595 -0.22136135 -0.041581653 -0.043026518 0.009714916
-0.10440227 0.12677552 0.44476455 -1.3032243 2.2565897 -0.35141468 0.37191337 0.003930715
0.038082264 0.08865031 -0.07903394 0.0676748 -0.001403383 0.36989713 0.05091925 -0.15387666
0.014617085 0.01885605 0.051151402 -2.6734843 -0.24574816 -0.92675906 0.24065754 1.2835618
-0.1843035 0.31981826 0.16596876 -0.17735346 -0.24607976 0.49509162 -0.071499206 -0.24157909
0.056265477 0.4829579 0.08011339 -0.053972185 0.82656723 -0.64173245 1.0511037 -0.53327763
0.09321577 -0.103757255 0.0787392 0.21926494 0.007312682 -0.30045915 0.08903119 1.4479032
-0.57760686 0.010922663 -1.3633084 -0.033658735 -2.240987 0.13953531 -0.5746178 0.1948928
1.6188769 -2.0439224 3.6445906 2.179874 -0.23261012 -0.16597772 -0.4340101 -0.054508753
-0.2076305 0.01375191 -0.1584815 0.35428092 -0.20482579 -1.4440991 0.7450648 1.2510201
-1.1201088 0.08712517 -0.0011608792 0.31506968 -0.023482481 -0.12815648 -0.21298483 -0.33564845
0.60369027 0.0036898477 0.02567704 -0.56012475 -0.058175884 0.23768224 -0.06524759 0.30384696
-0.28487447 0.16681778 0.7668255 2.2638276 2.5890489 0.051881358 0.19765863 -0.40143913
0.17918363 -0.054920055 0.11497056 0.45813596 -0.124027155 -0.03823009 1.3198677 -0.29691058
0.362771 0.07540274 -0.046968803 -0.013835486 -0.06824094 0.03852218 -0.085385434 0.11363089
-1.0254877 0.6438965 0.3764781 0.085126646 -0.7581062 -0.05809632 1.937765 -0.7860903
-0.06419818 0.20128469 -0.62314606 -0.52964157 0.35186294 -0.7003114 0.17501472 0.020674065
0.054153115 -0.321404 0.022852337 0.21227747 0.17257993 0.08809535 -0.10444559 -1.126396
0.0025875142 2.795713 -1.0686823 0.05250367 -0.10615494 0.036541138 -0.17830066 0.11243602
00000000: 0cf4 4cbe e4d3 343e 08a3 41bf 759e 46bc
00000010: fecf fbbc ee39 fa3e 326d bd3f 95cb 7dbd
00000020: 9cf0 873d 87ef eabe 2d7d c23d aaf6 69bd
00000030: 5d26 423d 83f8 eb3e 476d 353c a722 823f
00000040: 2cdb 15bf 21e7 68bf 4c7c efbd bd50 143f
00000050: d9f3 47bd 873c 45bd b839 c43d 5d17 5c3e
00000060: a4c3 98bb 5e44 a33e 02dd 74be b112 66be
00000070: 6476 54bf 8d9f 9ebd 27a6 633e c07e 85bd
00000080: 23ec c0bf 60b6 b33e 1a8a 9a3e 503a 5e3e
00000090: c292 3bbf 837b 8bbf 256f 0040 c37a dbbf
000000a0: 165b 133d 15ba e7be 873d 1e3e 0067 91bd
000000b0: c2bd f73b 96bb cebd 382e 85bf b5d5 65be
000000c0: e1aa f2bd 3e31 c73e 26c2 76be 01b5 083f
000000d0: f4cd 81bf abd3 853d 8b17 773c 92ab 003d
000000e0: fbb7 cbbd 545d a6bd c5d3 2ebe f3dd 703f
000000f0: defb 233f bd94 09be 8b32 a33d baeb 12bf
00000100: 8259 553d 5987 23bf c742 9e3d 733c 9ebf
00000110: cbae eebd d672 5f40 d324 bb3f 67f8 75bd
00000120: 226a 41bf 9f4a 95be 6e4b 92be 9610 063f
00000130: b941 fdbd dc68 3ebd 1189 30bc ad96 4abe
00000140: da78 573f c16f 6d3e e613 61bf ef29 b63d
00000150: 6aa5 21be 9cf1 2ebc 033f d43d caac 0dbe
00000160: 3cd5 1bbc e502 483c 2241 4b3e bf12 4dbe
00000170: 5bba a03d bd50 e53e 4e21 79be 4598 8abd
00000180: a356 e3be 5ac7 1fbd bdb6 67bf 37fc 0b3e
00000190: a995 aabe 4148 84be 11e9 233f fbca 11c0
000001a0: 633b 43c0 eb9f 0bbe 3257 c03d 1000 0c3f
000001b0: 8dac 62be 8651 2abd 933c 30bd 502b 1f3c
000001c0: dbd0 d5bd 71d1 013e 2eb8 e33e 0ed0 a6bf
000001d0: f76b 1040 a0ec b3be 6e6b be3e 3acd 803b
000001e0: 26fc 1b3d 4b8e b53d 8cdc a1bd 1699 8a3d
000001f0: b8f1 b7ba 2863 bd3e b490 503d d891 1dbe
00000200: 807c 6f3c 0178 9a3c 2284 513d 5e1a 2bc0
00000210: 68a5 7bbe 1540 6dbf ee6e 763e c14b a43f
00000220: 0fba 3cbe 38bf a33e b7f3 293e 259c 35be
00000230: 55fc 7bbe a67c fd3e 2d6e 92bd 8260 77be
00000240: a176 663d 4246 f73e 7d12 a43d f011 5dbd
00000250: e999 533f 9448 24bf 918a 863f e284 08bf
00000260: e9e7 be3d af7e d4bd 0542 a13d fd86 603e
00000270: 399f ef3b c8d5 99be fc55 b63d e454 b93f
00000280: 0bde 13bf f8f4 323c e480 aebf bedd 09bd
00000290: 556c 0fc0 58e2 0e3e 271a 13bf fa91 473e
000002a0: 5c37 cf3f a0cf 02c0 f940 6940 0e83 0b40
000002b0: 5931 6ebe 10f6 29be 9236 debe 9244 5fbd
000002c0: 179d 54be b14f 613c f948 22be 4f64 b53e
000002d0: dabd 51be 3dd8 b8bf 91bc 3e3f 6d21 a03f
000002e0: ba5f 8fbf ae6e b23d a428 98ba d050 a13e
000002f0: 555e c0bc 743b 03be b218 5abe 1dda abbe
00000300: 728b 1a3f 5fd1 713b a858 d23c 5664 0fbf
00000310: d649 6ebd f962 733e 87a0 85bd d491 9b3e
00000320: 11db 91be 48d2 2a3e ad4e 443f 8de2 1040
00000330: fab2 2540 8c81 543d 0667 4a3e 6e89 cdbe
00000340: ea7b 373e daf3 60bd af75 eb3d cc90 ea3e
00000350: f301 febd 2897 1cbd 6df1 a83f aa04 98be
00000360: 1fbd b93e c06c 9a3d 5c62 40bd 3cae 62bc
00000370: e8c1 8bbd 6fc9 1d3d 8fde aebd 50b7 e83d
00000380: 2e43 83bf 67d6 243f bdc1 c03e e156 ae3d
00000390: 3f13 42bf 68f6 6dbd af08 f83f 373d 49bf
000003a0: 567a 83bd 931d 4e3e 8086 1fbf 9796 07bf
000003b0: 6127 b43e 9c47 33bf 0f37 333e a85c a93c
000003c0: a8cf 5d3d 118f a4be d334 bb3c 445f 593e
000003d0: cbb8 303e 566b b43d 92e7 d5bd be2d 90bf
000003e0: 4993 293b f6ec 3240 95ca 88bf 170e 573d
000003f0: c367 d9bd 29ac 153d 7394 36be db44 e63d

fcs1.bias f4 [128]
0.21627474 -0.4202096 -0.26675713 0.08043637 -1.4885328 -0.54735816 -0.7942847 -0.15049265
-0.3213404 -0.4702946 -0.98611933 -0.44148856 -0.73526853 -0.40319777 -0.65046215 -0.5038465
0.1381209 0.37945747 -1.0819274 -0.25819093 0.2524932 0.29995656 -0.44734108 -0.74573094
-1.2448883 -0.078301676 -1.075479 -1.3251027 -0.41551223 -1.0510958 0.7130879 -1.2419238
-1.2265991 -0.75129396 0.18803836 0.5902393 -0.06349177 -1.2537153 -0.3470186 -0.31510463
-0.5762404 -0.28090572 0.1020043 -0.4281417 -0.17077203 0.049701065 -0.30533454 -1.031848
-0.6848262 -0.42510957 -0.07328172 0.16199493 -1.0788258 -0.1718078 -1.4410076 -0.27596155
-0.2332232 0.08034976 -1.4939938 0.07113206 -0.87307125 -0.95707047 0.29077357 -0.67450774
0.43665197 -0.4811837 -0.14990401 -0.067260504 0.33184123 -0.39264563 0.2854579 -0.86788416
-0.450334 -0.3100715 0.63290286 -0.21265514 -0.08364378 -0.1277006 -0.48584208 -0.3073038
0.32367218 -0.5867141 -0.41388336 0.37786826 0.07513708 -0.5966655 -0.19805956 -0.042618133
-0.6158446 -0.28033453 0.29978693 -0.46538252 -0.6338895 -0.23430984 -0.061779134 0.009753507
-0.38927686 0.25263813 -0.60837305 -0.45856237 -0.37257525 0.024598014 -0.6874842 -0.38978934
-0.23309518 -0.1500512 0.16298772 0.16756025 0.033711582 -0.80953634 -1.0169268 0.06133089
-0.3365215 0.33897647 -0.43166247 -0.65670806 -0.2272326 -0.6356171 -0.43008375 -0.9591301
-0.7246013 -0.17343487 -0.474902 -0.70408314 -0.8166234 0.5556454 -0.64243 -0.5984146
00000000: 2077 5d3e b625 d7be 6494 88be d3bb a43d
00000010: 3e88 bebf aa1f 0cbf 3e56 4bbf bf1a 1abe
00000020: bb86 a4be 74ca f0be 5172 7cbf ca0a e2be
00000030: 8f3a 3cbf f06f cebe b084 26bf 16fc 00bf
00000040: 916f 0d3e 4048 c23e 997c 8abf 9a31 84be
00000050: ca46 813e e893 993e e409 e5be 39e8 3ebf
00000060: 8058 9fbf a15c a0bd 4ca9 89bf f79c a9bf
00000070: 05be d4be 4f8a 86bf ee8c 363f 5cf7 9ebf
00000080: 3301 9dbf cd54 40bf 218d 403e ec19 173f
00000090: f907 82bd be79 a0bf 6cac b1be 6555 a1be
000000a0: 7e84 13bf e0d2 8fbe a1e7 d03d 6435 dbbe
000000b0: ddde 2ebe 5893 4b3d cf54 9cbe 9813 84bf
000000c0: c550 2fbf f6a7 d9be ba14 96bd 00e2 253e
000000d0: f716 8abf 62ee 2fbe f072 b8bf d54a 8dbe
000000e0: 10d2 6ebe 6a8e a43d 303b bfbf afad 913d
000000f0: 9981 5fbf 9202 75bf 46e0 943e 8aac 2cbf
00000100: d990 df3e b65d f6be 7080 19be e0bf 89bd
00000110: 18e7 a93e d908 c9be 8a27 923e a82d 5ebf
00000120: 2e92 e6be b1c1 9ebe ec05 223f 45c2 59be
00000130: 6e4d abbd f2c3 02be 4bc0 f8be ec56 9dbe
00000140: 5cb8 a53e e532 16bf 85e8 d3be f377 c13e
00000150: 78e1 993d 12bf 18bf 20d0 4abe 5a90 2ebd
00000160: fea7 1dbf 0288 8fbe ac7d 993e 9e46 eebe
00000170: 9546 22bf ebee 6fbe 1e0c 7dbd 2ccd 1f3c
00000180: 4c4f c7be c959 813e 56be 1bbf b0c8 eabe
00000190: 2fc2 bebe c681 c93c f7fe 2fbf 7892 c7be
000001a0: 81b0 6ebe 06a7 19be 41e6 263e ea94 2b3e
000001b0: 2815 0a3d c63d 4fbf a82a 82bf 1936 7b3d
000001c0: 8c4c acbe 538e ad3e dd02 ddbe 051e 28bf
000001d0: aaaf 68be cdb7 22bf f033 dcbe 8d89 75bf
000001e0: 797f 39bf e998 31be 5b26 f3be cb3e 34bf
000001f0: 3b0e 51bf c73e 0e3f 4b76 24bf b331 19bf

fc2.weight f4 [128, 132]
-0.36115867 -1.1266866 -0.023777101 -0.557559 -0.18719697 -0.18384908 -0.19643883 -1.3080662
0.35907832 -0.30720824 -0.50253385 0.20482104 0.0913211 1.5229255 -0.06705372 -0.43432397
-0.34489143 -0.853705 -0.596245 -0.075376496 0.048455596 -1.3619665 -0.08510817 0.08233994
-0.67388046 -0.16433945 0.20533085 0.04146379 -0.83237004 -0.7658295 0.47615167 -1.3991619
-0.03553425 0.2605869 -0.71717185 -0.1568221 0.026169399 -0.26272082 0.5240315 -0.6637132
-0.14462776 0.3908234 -0.11723221 0.04293487 -0.8932748 -0.05674656 -0.27719864 0.031679723
0.1430652 0.2414536 -0.35452664 0.35855204 -0.98431116 -0.52147835 -0.6777242 0.8705677
-0.11743344 0.3177951 -1.181625 0.016538775 -0.07443534 -1.0604684 0.14173338 0.49724108
0.056746192 -0.09114231 -0.11043719 0.6632251 0.22956108 -0.66206765 -0.7643784 -0.15209015
0.23937717 -0.6669347 0.38877904 -1.4485793 -0.28772458 -0.38571522 -0.007655361 -0.24791072
-0.08817333 -0.77093875 0.17240372 -0.47665864 -0.33104995 0.017478108 0.26770762 0.017304812
0.40711313 -1.098488 0.31291348 -0.8905061 -0.18079259 -0.5899639 -0.68316364 -0.25354975
-0.19931488 -0.7492635 0.08827219 -1.023577 0.2369123 -0.8578331 0.50666547 -0.21925002
0.115071535 0.042849317 -0.031382576 0.225914 0.26167822 -0.9389133 0.4245118 0.9078176
-0.027010774 0.4045524 0.44792637 0.01971712 -1.375884 -0.6610406 -0.01200015 -0.62632316
0.47566468 -1.3375727 0.06969312 -0.35326466 -1.1520683 0.77583385 -0.72790647 -0.5537686
0.13053504 0.034907486 -0.062130652 -0.0026866728 -0.29613438 0.3967834 -0.19653289 -0.4950016
0.289213 -0.57002515 0.22715181 0.08116459 -0.9230114 0.24534732 -0.50335974 0.34590256
-0.44472495 0.11324387 -0.116775714 -0.017659301 -0.3160395 -0.39827403 -0.30196273 0.24092846
0.051377628 0.5599509 -1.0446342 0.28505424 -0.4037381 -0.16737883 -0.32358605 -0.784305
-0.07342172 0.7617644 0.11679317 0.49901482 0.0015245912 0.11715015 -0.16806915 -0.738286
-0.4717635 0.39302093 -0.4111592 -0.14211173 -0.18157147 -1.0236802 0.8839512 -1.5167857
0.103199944 -0.05469217 0.1871945 -0.23645645 0.059100542 -0.11892609 0.2560522 0.07509984
0.1921141 -0.29714185 0.09929388 0.3935582 -1.1124188 0.22986536 0.16611794 -0.64978856
1.131659 -0.27532795 -0.24154349 -0.77001536 -0.52407914 -0.13279945 -0.0046533626 0.63671046
0.048091084 0.87753046 -0.2787792 0.4558314 -0.80096745 -0.5785808 0.0011215556 -0.33530784
-0.043778863 -0.10427036 -0.20136021 -0.08145941 -0.5297154 -0.23098944 0.5918387 -0.17123242
-0.023338474 0.4548293 0.17710356 0.19128771 -0.42648992 -0.1161671 0.5115597 0.3374779
-0.81094575 0.29729363 -0.017187007 0.44656116 -1.7462811 -0.13849199 -0.45676062 0.5871194
0.5026394 0.24499853 0.5864835 0.5336205 0.000779425 -1.0178488 0.35859552 0.030035408
-0.19354388 0.11987089 -0.040752467 0.02827778 0.7525896 -0.20528924 0.56648266 -0.18972972
-0.25307408 -0.19569875 -0.45713148 -0.753536 0.1535729 -0.22588713 0.35823303 -0.82517743
00000000: cae9 b8be 4437 90bf 32c8 c2bc 30bc 0ebf
00000010: 90b0 3fbe ef42 3cbe 4327 49be b76e a7bf
00000020: 1dd9 b73e 664a 9dbe 0fa6 00bf 9bbc 513e
00000030: 8f06 bb3d 39ef c23f 7653 89bd b65f debe
00000040: 9c95 b0be 698c 5abf 83a3 18bf fe5e 9abd
00000050: 6079 463d eb54 aebf 314d aebd d8a1 a83d
00000060: 6e83 2cbf 9a48 28be 4042 523e efd5 293d
00000070: 3416 55bf 670d 44bf 27ca f33e bd17 b3bf
00000080: 5d8c 11bd a56b 853e 9398 37bf f995 20be
00000090: 3561 d63c 5883 86be ee26 063f 1ce9 29bf
000000a0: 4d19 14be 011a c83e 7117 f0bd 79dc 2f3d
000000b0: a8ad 64bf 156f 68bd fbec 8dbe 99c2 013d
000000c0: af7f 123e 9d3f 773e 8484 b5be 2294 b73e
000000d0: d1fb 7bbf 9b7f 05bf 557f 2dbf 86dd 5e3f
000000e0: f280 f0bd 0ab6 a23e 7d3f 97bf 537c 873c
000000f0: 8e71 98bd 6ebd 87bf 8e22 113e 6296 fe3e
00000100: b26e 683d d2a8 babd e52c e2bd 1fc9 293f
00000110: 0f12 6b3e 447d 29bf 4eae 43bf 85bd 1bbe
00000120: 4a1f 753e 3cbc 2abf 0c0e c73e 0c6b b9bf
00000130: a350 93be 777c c5be d3d9 fabb 4fdc 7dbe
00000140: 3894 b4bd 3e5c 45bf 9a8a 303e 9a0c f4be
00000150: 617f a9be 402e 8f3c f910 893e d2c2 8d3c
00000160: 2271 d03e 419b 8cbf 3236 a03e 35f8 63bf
00000170: b121 39be e007 17bf d0e3 2ebf 46d1 81be
00000180: 3319 4cbe bccf 3fbf 0dc8 b43d 9204 83bf
00000190: 2399 723e f39a 5bbf d4b4 013f 1483 60be
000001a0: a0aa eb3d c482 2f3d 048b 00bd 0056 673e
000001b0: b0fa 853e 9f5c 70bf 9c59 d93e bc66 683f
000001c0: b345 ddbc 7e21 cf3e 9b56 e53e cc85 a13c
000001d0: f81c b0bf f539 29bf 479c 44bc b756 20bf
000001e0: 528a f33e 9535 abbf 44bb 8e3d 1bdf b4be
000001f0: f976 93bf 0c9d 463f 1458 3abf c7c3 0dbf
00000200: faaa 053e 27fb 0e3d b67c 7ebd e412 30bb
00000210: ed9e 97be 3227 cb3e eb3f 49be da70 fdbe
00000220: ba13 943e 2bed 11bf 7c9a 683e 9f39 a63d
00000230: 7a4a 6cbf 543c 7b3e 2fdc 00bf 241a b13e
00000240: fdb2 e3be 67ec e73d 1b28 efbd 3daa 90bc
00000250: eecf a1be 93ea cbbe dc9a 9abe f3b5 763e
00000260: 5971 523d f158 0f3f 93b6 85bf a1f2 913e
00000270: c3b6 cebe 5b65 2bbe 12ad a5be 36c8 48bf
00000280: 205e 96bd fe02 433f 4231 ef3d df7e ff3e
00000290: cbd4 c73a 6bec ef3d 521a 2cbe 5000 3dbf
000002a0: fc8a f1be 0a3a c93e 7583 d2be bd85 11be
000002b0: dfed 39be f407 83bf a04a 623f 0926 c2bf
000002c0: 7e5a d33d e604 60bd eaaf 3f3e a421 72be
000002d0: 6913 723d 868f f3bd 4619 833e f2cd 993d
000002e0: 8fb9 443e fa22 98be 975a cb3d 7680 c93e
000002f0: bd63 8ebf d361 6b3e d21a 2a3e 8b58 26bf
00000300: 34da 903f c9f7 8cbe 2d57 77be ba1f 45bf
00000310: 0d2a 06bf 94fc 07be 3c7b 98bb 75ff 223f
00000320: 28fb 443d d6a5 603f 26bc 8ebe bc62 e93e
00000330: 340c 4dbf df1d 14bf 2901 933a 78ad abbe
00000340: 7751 33bd b38b d5bd 5f31 4ebe 31d4 a6bd
00000350: 6e9b 07bf 7f88 6cbe be82 173f 8d57 2fbe
00000360: 5430 bfbc 63df e83e a35a 353e ede0 433e
00000370: e35c dabe 04e9 edbd 94f5 023f e7c9 ac3e
00000380: 249a 4fbf df36 983e c4cb 8cbc aaa3 e43e
00000390: 2486 dfbf d8d0 0dbe 87dc e9be 754d 163f
000003a0: faac 003f e5e0 7a3e c823 163f 5a9b 083f
000003b0: 5452 4c3a df48 82bf d599 b73e d10c f63c
000003c0: 5e30 46be df7e f53d 0fec 26bd cea6 e73c
000003d0: b6a9 403f 5837 52be 0205 113f 8248 42be
000003e0: ed92 81be 4165 48be 230d eabe bce7 40bf
000003f0: 3742 1d3e f54e 67be 526a b73e d43e 53bf

fc2.bias f4 [128]
-0.8177589 0.12643118 -0.6304764 -0.70682716 -0.2974213 -1.0950015 -0.3000304 -0.29417002
0.3613306 -0.58133346 -0.29336497 -0.5914073 -0.8076765 0.54470956 0.20159176 -0.60659343
-0.6293306 -0.55122644 -0.6195779 -0.5037265 -0.401154 -0.039844915 -0.33322787 -0.5087138
-0.8540734 -0.3511875 -0.69780886 -0.4146399 0.39242673 1.244994 -0.6151221 0.40179607
-0.6004516 -0.92195106 -0.602278 -0.7427722 -0.8365008 -0.10046625 -0.5421758 -0.5945973
-0.015529485 -0.77607554 -0.002829627 0.21759668 0.07387629 -0.46596846 0.13181482 -0.078995086
0.018908279 -0.33473256 -0.76472104 -0.9760097 -0.49741492 -0.6374932 -0.4392451 -0.14098576
-0.63338757 -0.5032016 -0.38723662 -0.3704958 -0.6136316 -0.62741417 -0.6192286 -0.7498125
-1.0134069 -0.038604766 -0.12880576 -0.8852936 -0.6010636 0.7055824 -0.8220773 0.108580105
-0.44878644 -0.39637563 0.37388474 0.56230384 -0.8745442 0.1454917 -0.5902217 -0.91667753
-0.011725665 -0.32119033 0.17018221 -0.10320486 -0.10749326 -0.29419085 -0.5487512 -1.129195
-0.7593782 0.00854592 -0.22771989 -0.3263175 -0.71804374 -0.048659142 -0.40790445 -0.5832906
-0.10797481 0.56525224 0.20829253 -0.6728285 -0.51044625 -0.23294206 -0.50858116 -0.7710221
0.5314652 -0.5449277 -0.26279935 -0.7297286 -0.15228811 -0.14547385 -0.5763029 -0.7649953
-0.5113572 -0.16583234 0.17586245 -0.5726231 0.34081078 0.17681305 -0.7884747 -0.45818904
-0.29053319 -0.48352873 -0.8059522 -0.0960999 -0.6634923 -0.66323215 -0.31796136 0.20965914
00000000: a658 51bf 2d77 013e e766 21bf a0f2 34bf
00000010: 9b47 98be 0229 8cbf 969d 99be 749d 96be
00000020: 5300 b93e 45d2 14bf ef33 96be 7866 17bf
00000030: e3c3 4ebf 1672 0b3f 126e 4e3e b549 1bbf
00000040: cf1b 21bf 2d1d 0dbf a89c 1ebf 38f4 00bf
00000050: 0f64 cdbe 6c34 23bd d89c aabe 113b 02bf
00000060: 8ea4 5abf d9ce b3be 9aa3 32bf ae4b d4be
00000070: 28ec c83e f75b 9f3f a478 1dbf 37b8 cd3e
00000080: 32b7 19bf fc04 6cbf e42e 1abf 5226 3ebf
00000090: eb24 56bf 40c1 cdbd 09cc 0abf 8737 18bf
000000a0: 626f 7ebc e3ac 46bf 4371 39bb aad1 5e3e
000000b0: 744c 973d 6b93 eebe 77fa 063e 2dc8 a1bd
000000c0: 89e5 9a3c 1162 abbe c2c4 43bf c6db 79bf
000000d0: 2bad febe c132 23bf bce4 e0be 925e 10be
000000e0: b025 22bf d2d1 00bf e143 c6be a0b1 bdbe
000000f0: f616 1dbf 379e 20bf c485 1ebf b6f3 3fbf
00000100: 51b7 81bf 0820 1ebd a8e5 03be 9aa2 62bf
00000110: 4edf 19bf 0ca1 343f a873 52bf 3f5f de3d
00000120: 56c7 e5be bff1 cabe d26d bf3e 25f3 0f3f
00000130: 21e2 5fbf c7fb 143e c518 17bf 61ab 6abf
00000140: 011d 40bc 0f73 a4be 3f44 2e3e 125d d3bd
00000150: 6d25 dcbd 2fa0 96be f57a 0cbf 7689 90bf
00000160: 9c66 42bf 3004 0c3c 672f 69be 1613 a7be
00000170: b7d1 37bf cf4e 47bd dad8 d0be 8852 15bf
00000180: e621 ddbd 5fb4 103f a34a 553e 7d3e 2cbf
00000190: 9bac 02bf 5d88 6ebe 6032 02bf b461 45bf
000001a0: 1a0e 083f 6280 0bbf a38d 86be 7ecf 3abf
000001b0: 6af1 1bbe 19f7 14be 9688 13bf bbd6 43bf
000001c0: 4ee8 02bf f4cf 29be 4915 343e 6d97 12bf
000001d0: c07e ae3e 7b0e 353e 7ad9 49bf c197 eabe
000001e0: c4c0 94be 1491 f7be e252 4ebf 06d0 c4bd
000001f0: a2da 29bf 95c9 29bf d5cb a2be e3b0 563e

fc3.weight f4 [1, 128]
-0.08247646 0.06408196 -0.14024884 -0.1860548 0.08973422 -0.19638044 0.13296543 0.11937467
0.08826573 -0.14292382 0.05931495 -0.05809967 -0.28011978 0.067792475 0.09923679 0.13513118
-0.03995242 -0.08178882 -0.18605334 -0.13788703 0.09342348 0.122848995 0.087171435 -0.108666345
0.18015745 0.090812035 0.15841688 0.09648495 0.063778654 0.1972737 -0.090268075 0.044873603
-0.08097996 -0.11800741 -0.05497729 -0.118543 -0.14062198 0.07015462 0.12087325 0.22764157
0.07559193 -0.04896512 0.08552955 0.09941741 0.058426045 -0.117868096 0.11015978 0.08813008
0.076690994 0.12660421 -0.12799247 -0.19373038 0.10545068 -0.06447725 0.101145856 0.06974225
0.12927552 0.09013665 -0.099488735 0.20661208 -0.2520372 -0.138052 -0.071754925 -0.1177399
-0.118544094 0.06386843 0.11458912 -0.20416433 -0.25333327 0.08168421 0.09562825 0.115933836
-0.0678018 -0.18412952 0.08686044 0.11405158 -0.12919256 0.070765026 -0.1555813 -0.18000703
0.06917592 -0.20955369 0.06632676 0.08440491 0.05603378 -0.163228 0.13552316 -0.075836316
0.16050056 0.08765021 -0.12314933 0.069949105 -0.048501708 0.09530068 0.040290818 -0.21293221
0.06908428 0.06078341 0.10340504 -0.08009783 -0.14578971 0.06429179 -0.13328625 -0.22828461
0.08687077 -0.120997116 0.066148356 0.12800081 0.09451653 0.13908373 -0.116605595 0.26171106
-0.12821506 0.085713245 0.088476926 -0.19143982 0.07551598 0.05904346 -0.23743674 -0.1482507
0.07338933 0.0807944 0.19878575 0.09479249 -0.19261342 -0.14799997 -0.2316869 0.06113014
00000000: 6be9 a8bd 673d 833d 649d 0fbe 2685 3ebe
00000010: 93c6 b73d f417 49be 1728 083e b57a f43d
00000020: aac4 b43d 9f5a 12be 3cf4 723d ebf9 6dbd
00000030: dc6b 8fbe c8d6 8a3d a83c cb3d d45f 0a3e
00000040: 26a5 23bd e680 a7bd c484 3ebe 4232 0dbe
00000050: cf54 bf3d 4198 fb3d f086 b23d 768c debd
00000060: 327b 383e a9fb b93d 0938 223e e799 c53d
00000070: 629e 823d 1e02 4a3e 78de b8bd 62cd 373d
00000080: d2d8 a5bd dead f1bd de2f 61bd acc6 f2bd
00000090: 35ff 0fbe 3aad 8f3d 658c f73d df1a 693e
000000a0: f1cf 9a3d a68f 48bd 1e2a af3d 5b9b cb3d
000000b0: 2650 6f3d d464 f1bd 739b e13d 8b7d b43d
000000c0: 2b10 9d3d 89a4 013e 7510 03be 4261 46be
000000d0: 87f6 d73d a60c 84bd 8f25 cf3d 06d5 8e3d
000000e0: cd60 043e 9099 b83d c0c0 cbbd 1e92 533e
000000f0: 050b 81be 815d 0dbe 3ff4 92bd 9e21 f1bd
00000100: 3fc7 f2bd 74cd 823d b3ad ea3d 7410 51be
00000110: e6b4 81be 0d4a a73d bed8 c33d b86e ed3d
00000120: acdb 8abd 738c 3cbe e3e3 b13d e093 e93d
00000130: 0e4b 04be 41ed 903d b450 1fbe c353 38be
00000140: 1bac 8d3d 3e95 56be 53d6 873d 7bdc ac3d
00000150: ad83 653d 3e25 27be 95c6 0a3e 1250 9bbd
00000160: 425a 243e f481 b33d b735 fcbd 7a41 8f3d
00000170: baa9 46bd 012d c33d fc07 253d e70a 5abe
00000180: 0f7c 8d3d 06f8 783d 06c6 d33d 550a a4bd
00000190: e649 15be 6aab 833d 317c 08be 71c3 69be
000001a0: 4de9 b13d 56cd f7bd ca78 873d a512 033e
000001b0: e291 c13d f76b 0e3e eace eebd fefe 853e
000001c0: cf4a 03be 6d8a af3d 6433 b53d cd08 44be
000001d0: 1fa8 9a3d 8ed7 713d 9e22 73be 08cf 17be
000001e0: 254d 963d 8977 a53d 7e8e 4b3e 9122 c23d
000001f0: 743c 45be 4e8d 17be 553f 6dbe 9963 7a3d

bn1.weight f4 [128]
0.3532746 0.3117887 0.31286696 0.34294263 0.33489037 0.24286814 0.3735586 0.26655656
0.31637084 0.27036154 0.25928038 0.25471422 0.2544543 -0.35241753 0.64318115 0.1944341
0.35076982 0.28628024 0.58931327 0.19850564 0.24199489 0.23011063 0.2450915 1.2497084
0.20604746 0.3417528 0.49278527 0.290956 0.25677684 0.21791793 0.29518798 0.51598954
0.121363305 0.28678894 0.25811854 0.6535811 0.4245811 0.21512727 0.40479502 0.3483987
0.29317555 0.95802665 0.30660012 1.1111 1.0601945 0.36172408 0.27301502 0.25383055
0.24276058 0.24845578 0.17378865 0.32505697 0.20711954 0.23561132 0.34741893 0.23181868
0.23905271 0.31399566 0.42878467 0.8707767 -0.19910303 0.26022908 0.18396512 0.15097812
0.19409524 0.41390473 0.20368361 0.8550423 0.16710392 0.1558306 0.24865897 1.2843713
0.23497537 0.3581439 0.2753684 0.21685694 0.49838024 0.20344691 0.30150792 0.24037434
0.29926714 0.25458646 0.35139823 0.4033215 0.32107747 0.29067394 0.110399835 1.0414525
0.24481393 0.35909393 0.28729263 0.54819435 0.9120506 0.2517504 0.32142535 0.22046956
0.28792572 0.32496008 0.2662786 1.1129298 0.21868595 0.6385719 0.30513978 0.19954072
0.475815 0.40974045 0.20804408 0.4165107 0.38233167 0.25524044 0.23047622 0.18069652
0.19610809 0.2313113 0.19534016 0.3931351 0.85525155 0.35445166 0.3776466 0.38482562
0.23238556 0.43390033 0.950589 0.28346395 0.1594017 0.41911197 0.20804156 0.34219798
00000000: 69e0 b43e c5a2 9f3e 1930 a03e 2d96 af3e
00000010: c076 ab3e 6db2 783e 1343 bf3e 1a7a 883e
00000020: 5cfb a13e d46c 8a3e 66c0 843e e769 823e
00000030: d647 823e 1270 b4be 85a7 243f bc19 473e
00000040: 1a98 b33e 5393 923e 3cdd 163f 1045 4b3e
00000050: 82cd 773e 1fa2 6b3e 44f9 7a3e 72f6 9f3f
00000060: 1bfe 523e 39fa ae3e 5a4e fc3e 2ff8 943e
00000070: 4178 833e e125 5f3e e122 973e e417 043f
00000080: 538d f83d 00d6 923e 1d28 843e 1751 273f
00000090: b262 d93e 534a 5c3e 4b41 cf3e 5061 b23e
000000a0: 1b1b 963e 3c41 753f b1fa 9c3e 8638 8e3f
000000b0: 74b4 873f e633 b93e a0c8 8b3e 14f6 813e
000000c0: 3b96 783e 316b 7e3e a7f5 313e de6d a63e
000000d0: 2517 543e 1844 713e e5e0 b13e e061 6d3e
000000e0: 3cca 743e 0ac4 a03e aa89 db3e 39eb 5e3f
000000f0: aae1 4bbe bf3c 853e 5a61 3c3e 029a 1a3e
00000100: e7c0 463e 52eb d33e 7092 503e 0de4 5a3f
00000110: 4a1d 2b3e 0f92 1f3e 75a0 7e3e 4766 a43f
00000120: 629d 703e a35e b73e 16fd 8c3e bf0f 5e3e
00000130: b22b ff3e 6354 503e 3f5f 9a3e b124 763e
00000140: 8b39 993e 2859 823e 78ea b33e 2880 ce3e
00000150: 4464 a43e 37d3 943e 4f19 e23d 514e 853f
00000160: 81b0 7a3e 29db b73e 0518 933e 7756 0c3f
00000170: 267c 693f 6ee5 803e dd91 a43e c6c2 613e
00000180: 006b 933e 2b61 a63e ab55 883e 7c74 8e3f
00000190: 36ef 5f3e 7379 233f 483b 9c3e 6754 4c3e
000001a0: 069e f33e 80c9 d13e 8209 553e e440 d53e
000001b0: fac0 c33e e0ae 823e f501 6c3e 8208 393e
000001c0: 8fd0 483e dfdc 6c3e 4007 483e 0149 c93e
000001d0: c4f1 5a3f b07a b53e e55a c13e dd07 c53e
000001e0: 7bf6 6d3e 2f28 de3e cd59 733f 3022 913e
000001f0: 333a 233e d895 d63e d908 553e 9334 af3e

bn1.bias f4 [128]
-0.10613821 0.07374504 0.13945702 0.03799606 0.1949449 0.24016762 0.0860609 0.060652874
0.094315186 0.092679 0.06528502 -0.012942275 0.05447711 -0.070583984 0.35631073 0.15858926
0.17037433 0.0007009278 0.31872442 0.08314002 0.13232918 0.03826223 0.08269942 0.5055741
0.106348746 0.032191843 0.22212908 0.06409418 0.06792043 0.06395283 0.012055282 0.074625134
0.04052554 0.12221845 -0.009898096 0.103995845 0.1642862 0.029576233 0.1208632 0.11288442
0.2156994 0.5574145 0.0027986707 0.18517306 0.36916313 0.3297433 0.068734206 0.109765716
0.013360677 -0.04404222 -0.08827292 0.13405572 0.017778523 0.07614758 0.07908281 -0.10131135
-0.07219677 0.085090704 0.20144187 0.20640115 -0.08528824 0.11297176 0.02046764 0.009030625
-0.001482104 0.16084175 0.2886783 0.38959715 0.019179318 -0.030192036 0.120416686 0.31363326
0.35692233 0.09963717 -0.044425435 0.057709474 0.13313042 -0.017211547 0.010405112 0.04520136
-0.023096358 0.17316177 0.037052922 0.068745315 0.031278975 0.03660884 -0.77751887 0.16891487
0.0005820742 0.12301952 -0.08477429 0.15979661 0.24890092 -0.08623475 0.08780087 0.042529702
-0.0029293313 -0.015163293 -0.0056248414 0.36703488 0.03261339 0.02256125 0.06637341 -0.01928458
0.24986227 0.09268194 0.0032848192 0.08975241 0.09702984 0.0771039 0.052456316 0.013744381
0.025398195 0.26993462 -0.008522301 0.14614324 0.266481 0.043211337 0.14879586 0.17868581
-0.079615176 0.16058566 0.027326478 0.20498155 0.044703808 0.108799785 0.054501668 0.09133425
00000000: fd5e d9bd a407 973d d2cd 0e3e c2a1 1b3d
00000010: a39f 473e 80ee 753e b240 b03d 266f 783d
00000020: 5228 c13d 7dce bd3d 27b4 853d d60b 54bc
00000030: 6423 5f3d 568e 90bd 5c6e b63e 3965 223e
00000040: 9c76 2e3e 78be 373a d92f a33e 5145 aa3d
00000050: 4d81 073e dbb8 1c3d 505e a93d 4e6d 013f
00000060: 5fcd d93d 98db 033d ce75 633e cf43 833d
00000070: de19 8b3d b4f9 823d 8483 453c 10d5 983d
00000080: 1cfe 253d ab4d fa3d a02b 22bc c6fb d43d
00000090: a43a 283e db49 f23c 2087 f73d f22f e73d
000000a0: 4ee0 5c3e b7b2 0e3f e769 373b 029e 3d3e
000000b0: f302 bd3e 1dd4 a83e 85c4 8c3d d9cc e03d
000000c0: bee6 5a3c 9d65 34bd 6fc8 b4bd e745 093e
000000d0: 44a4 913c 43f3 9b3d 2bf6 a13d 537c cfbd
000000e0: e6db 93bd 0944 ae3d c746 4e3e d35a 533e
000000f0: 9aab aebd bd5d e73d c1ab a73c 30f5 133c
00000100: 2843 c2ba b3b3 243e a4cd 933e 4779 c73e
00000110: f21d 9d3c 4a55 f7bc 069d f63d 8a94 a03e
00000120: 86be b63e 930e cc3d 72f7 35bd c560 6c3d
00000130: 5753 083e 3bff 8cbc 347a 2a3c 1025 393d
00000140: 9334 bdbc 5251 313e cec4 173d 58ca 8c3d
00000150: 621e 003d 27f3 153d 7a0b 47bf 05f8 2c3e
00000160: 5796 183a a8f1 fb3d 259e adbd b9a1 233e
00000170: e2df 7e3e d89b b0bd f1d0 b33d a033 2e3d
00000180: 06fa 3fbb 766f 78bc 9750 b8bb ffeb bb3e
00000190: 9e95 053d 5fd2 b83c c8ee 873d b2fa 9dbc
000001a0: e5db 7f3e 07d0 bd3d 1f46 573b 1dd0 b73d
000001b0: 95b7 c63d a6e8 9d3d 6fdc 563d 1d30 613c
000001c0: e00f d03c df34 8a3e 1fa1 0bbc 93a6 153e
000001d0: 3370 883e 5ffe 303d f15d 183e 6af9 363e
000001e0: 480d a3bd 9170 243e c7db df3c afe6 513e
000001f0: 571b 373d 6cd2 de3d 243d 5f3d 740d bb3d

bn1.running_mean f4 [128]
1.238277 0.42781186 2.660275 2.0288267 1.4345129 1.2588044 1.0144858 1.2377067
0.27973095 1.4665096 0.57399035 0.5016656 1.3510542 1.0813943 0.8703989 0.5036016
1.8278644 0.875047 0.5199647 0.4774717 1.2885413 0.8683636 0.77568173 0.57812953
1.1659099 0.9742319 0.5734051 0.39662057 0.38514894 0.33602843 1.0600448 0.44524863
0.25551918 0.19069445 1.8643699 1.5683866 0.31970286 0.19283137 0.5456899 0.7594712
0.7764684 0.9667124 2.4378297 0.89999676 1.0452741 4.6143913 0.59796757 0.7529665
0.32383046 0.3631373 1.0959342 1.8505998 0.4160385 2.0174592 0.3758549 0.8602154
0.45006254 1.55889 0.35215628 1.7864038 0.39518076 0.47346422 3.1641433 0.38583937
2.1099582 0.61904454 2.0371158 1.5754853 1.5966485 0.4683483 1.1929146 0.46857417
1.8785264 0.95262754 2.1806228 0.7328479 0.55274725 0.6493517 0.6916635 2.2894473
1.3233595 2.6204946 1.078632 0.8919685 1.0210401 1.4138076 0.34741256 1.2745326
0.46129212 1.2544309 1.4799529 0.7769113 0.60376436 0.82734203 0.27903557 1.4618529
1.1260062 1.0093275 0.69506484 1.0011175 0.5022208 1.3477981 0.366908 0.385686
1.0420951 0.4053046 3.2894568 0.93209517 1.0973297 0.344861 1.0465827 0.8199259
0.5453098 1.5607293 0.86595964 0.42233086 1.2118067 0.40018862 1.8318577 1.0964937
0.5646621 1.0103934 0.5864023 1.4354384 0.17692919 1.458796 0.9850827 0.65798247
00000000: dc7f 9e3f 280a db3e f241 2a40 4cd8 0140
00000010: 1e9e b73f 8120 a13f acda 813f 2c6d 9e3f
00000020: e538 8f3e 96b6 bb3f 08f1 123f 286d 003f
00000030: 58ef ac3f 216b 8a3f 76d2 5e3f 09ec 003f
00000040: 76f7 e93f 1503 603f 681c 053f 2c77 f43e
00000050: ecee a43f 144d 5e3f 1493 463f 4c00 143f
00000060: 893c 953f 4367 793f adca 123f da11 cb3e
00000070: 3e32 c53e eb0b ac3e 8caf 873f a1f7 e33e
00000080: 69d3 823e 6845 433e aca3 ee3f e4c0 c83f
00000090: 18b0 a33e 9675 453e 55b2 0b3f b46c 423f
000000a0: a2c6 463f 777a 773f 6705 1c40 3066 663f
000000b0: 8bcb 853f 18a9 9340 6714 193f 6ac2 403f
000000c0: 1bcd a53e 22ed b93e 9247 8c3f 74e0 ec3f
000000d0: 0003 d53e 0d1e 0140 0e70 c03e 1437 5c3f
000000e0: 996e e63e b589 c73f d44d b43e e1a8 e43f
000000f0: 2255 ca3e e769 f23e 5381 4a40 bd8c c53e
00000100: 8e09 0740 b479 1e3f 1b60 0240 81a9 c93f
00000110: fa5e cc3f 59cb ef3e 6db1 983f f4e8 ef3e
00000120: 8e73 f03f 66df 733f 538f 0b40 ec9b 3b3f
00000130: d880 0d3f ea3b 263f dc10 313f 4e86 1240
00000140: d863 a93f 2fb6 2740 9d10 8a3f 0c58 643f
00000150: 71b1 823f a6f7 b43f 0fe0 b13e e223 a33f
00000160: 7b2e ec3e 3191 a03f 196f bd3f a9e3 463f
00000170: 4d90 1a3f b0cc 533f c0dd 8e3e ff1d bb3f
00000180: f920 903f a531 813f c5ef 313f 9e24 803f
00000190: 8b91 003f a684 ac3f 5edb bb3e a378 c53e
000001a0: 5f63 853f 1684 cf3e 7686 5240 ca9d 6e3f
000001b0: 4d75 8c3f 9f91 b03e 6cf6 853f aae6 513f
000001c0: 6c99 0b3f fac5 c73f 88af 5d3f c03b d83e
000001d0: 7b1c 9b3f 86e5 cc3e 507a ea3f e859 8c3f
000001e0: b28d 103f 9254 813f 761e 163f 72bc b73f
000001f0: ed2c 353e d4b9 ba3f 612e 7c3f 8a71 283f

bn1.running_var f4 [128]
3.921564 1.685345 3.0174832 4.2080603 4.5759706 3.2745714 3.8130863 4.1843605
0.64091665 4.0922837 2.1660974 1.1947563 6.2802353 2.8068986 2.4417396 1.245099
5.9221163 2.59159 1.5959665 1.624114 3.9226992 2.824174 1.9253747 1.4735601
4.0493913 3.838531 1.7016913 1.2045097 0.9801158 0.89667827 2.7095025 1.1189536
0.7617447 0.592368 4.0699573 5.254836 1.3876442 0.6119978 2.0181506 2.0930288
2.2623541 2.954527 11.26172 2.4493964 2.9918594 4.0892606 1.7461299 2.1179197
1.1691822 1.2393483 3.8317873 5.473028 0.9675129 6.774227 0.9999544 2.6348333
1.048491 6.1442566 0.80313563 4.950102 1.1410635 1.1279454 14.528936 1.4456291
3.651221 2.028832 3.8803487 4.8058014 6.937153 1.0477254 4.272971 1.1047856
6.0370717 1.9510882 5.2123156 3.8473942 2.024998 1.3903683 2.2695718 5.8115845
3.0435112 12.368018 2.9772086 2.8184326 2.6442447 4.9414763 1.0167433 3.471341
1.8452698 2.1207592 3.9907494 2.2863054 1.4834687 2.2010045 0.83877844 3.175432
3.6584165 3.4321084 2.0258505 2.3737624 1.394059 3.7716477 1.051167 0.90953547
3.185576 1.1294011 5.8695908 3.0129466 2.9632483 0.99087876 3.8924534 2.3381639
1.7577133 3.5724685 3.3504765 1.6499367 3.3784544 0.8957494 4.340838 4.035512
2.2723987 2.852456 1.2014673 4.4578037 0.74822074 3.7642722 3.5039072 1.8517134
00000000: e8fa 7a40 63b9 d73f 721e 4140 6ea8 8640
00000010: 5a6e 9240 9492 5140 9b09 7440 48e6 8540
00000020: 1d13 243f fdf3 8240 57a1 0a40 c6ed 983f
00000030: b0f7 c840 3aa4 3340 7645 1c40 675f 9f3f
00000040: fa81 bd40 9cdc 2540 a148 cc3f f8e2 cf3f
00000050: 810d 7b40 44bf 3440 ae72 f63f 9e9d bc3f
00000060: 9d94 8140 7eaa 7540 05d1 d93f 602d 9a3f
00000070: dee8 7a3f b58c 653f 7d68 2d40 df39 8f3f
00000080: b301 433f 6ea5 173f 173d 8240 9e27 a840
00000090: 539e b13f e3ab 1c3f 6129 0140 2ff4 0540
000000a0: 69ca 1040 f816 3d40 0130 3441 e9c2 1c40
000000b0: a07a 3f40 39db 8240 2f81 df3f ff8b 0740
000000c0: c3a7 953f f7a2 9e3f 013c 7540 0c23 af40
000000d0: edae 773f 78c6 d840 03fd 7f3f 1ca1 2840
000000e0: f434 863f c09d c440 4c9a 4d3f 3c67 9e40
000000f0: 5e0e 923f 8460 903f 8676 6841 600a b93f
00000100: 9bad 6940 62d8 0140 a257 7840 20c9 9940
00000110: 28fd dd40 de1b 863f 2ebc 8840 9d69 8d3f
00000120: b12f c140 42bd f93f 4acb a640 b53b 7640
00000130: 9199 0140 97f7 b13f aa40 1140 80f8 b940
00000140: e3c8 4240 67e3 4541 968a 3e40 3361 3440
00000150: 4e3b 2940 9320 9e40 a524 823f 732a 5e40
00000160: cd31 ec3f 85ba 0740 7068 7f40 d452 1240
00000170: 4de2 bd3f 42dd 0c40 2fba 563f 473a 4b40
00000180: 7f23 6a40 aaa7 5b40 89a7 0140 b9eb 1740
00000190: 8670 b23f ad62 7140 a48c 863f 51d7 683f
000001a0: 7ae0 4b40 3790 903f b0d3 bb40 1ed4 4040
000001b0: dca5 3d40 3baa 7d3f f51d 7940 7aa4 1540
000001c0: c0fc e03f 53a3 6440 356e 5640 2031 d33f
000001d0: 9938 5840 d54f 653f 25e8 8a40 ea22 8140
000001e0: fb6e 1140 a48e 3640 aec9 993f 54a6 8e40
000001f0: 658b 3f3f d6e9 7040 0440 6040 f204 ed3f
