checkpoint_critic.pth (torch_old, 9985 bytes, 5 tensors)

fcs1.weight f4 [24, 33]
00000000: fff0 093e 6fb5 d3bb f779 9abb ad1f 8a3e
00000010: d1f7 5d3d 2743 823e 6b8d 363f 84b6 c7bd
00000020: 99d0 09bc 7df6 d53d c6ca 503d 2ff9 4a3b
00000030: bdf4 94bd af8d 273d f85c 1ebd cab1 f9bd
00000040: 12d7 59be b5bc 4dbf d696 03bf 89e1 f53e
00000050: 1042 44bb c00b 02be 253d 97be b29a 0bbd
00000060: e985 12bc 7a10 1c3d a4b4 8a3c c60f 89bc
00000070: 7d90 27bf 6dd2 42be ad76 163e c3e1 e4bd
00000080: b050 2340 8616 603d 8d7f 0c3e 0b35 073f
00000090: 8c16 9f3e 8ad5 88be c138 84bf 7360 563e
000000a0: 1f90 fbbd 6d24 83bd 23fd 22be 75d4 3bbd
000000b0: 31e3 973e 7edf 023b 9234 f0be 2805 f2bd
000000c0: eecf bfbd 08c0 eeba 4e40 59be 0169 36be
000000d0: 59d6 85be a561 6f3e bc84 cebd 9c57 c63e
000000e0: fc49 32be 18de 073e fb1d 7c3c 9e01 26be
000000f0: 5fa4 893e 850b b93b 781a b5bc 9f0a d8be
00000100: 0ac7 363e 1066 a63e 043a 6cbe 033b b4be
00000110: fcc3 fcbd a3d4 0c3d 91b3 213d 2ea2 2c3f
00000120: 2cf1 51be 97ec 723d 3025 303d 299a 533e
00000130: c612 54bc 8cd3 2bba 2667 5b3b a583 063d
00000140: 2e5e b0bb 92b2 a83d a3bb 0bbe e593 1ebc
00000150: 7141 cabb 2bf7 c13e 6453 8b3d fe17 0e3d
00000160: 4536 243e 8198 5cbc a068 553c 711e 283d
00000170: 8c35 c8be 468b dd3d 68e5 d13d 28a2 bb3d
00000180: 025c 94be 700f 243c 5a29 7140 ff99 51bd
00000190: 4e8d 933e adc2 883e 8c34 1ebf ba46 413f
000001a0: 3812 1abf c96e e2be ee7f 6cbb a7ce 5fbe
000001b0: 6214 62be 3d33 5abe 613c f2bd 9836 d63d
000001c0: c3b1 a8be 4c19 733d c75f c83d 6df5 453e
000001d0: 1b09 333f 422f 88be a88b 2bbf 4fa8 03bb
000001e0: 146b b53e 8574 6f3d e207 bfbe 8857 fe3d
000001f0: a74f 72be 9a4f 52be 6f3b 25bd 0b08 9d3d
00000200: 6c14 22bd 66d7 603c 7b8a 4abe b306 f5be
00000210: 5d19 e23d 3552 bbbe 6459 bb3d dd2d b23f
00000220: c18b bd3e fd8e e03e d8a6 2abf 93f5 e3be
00000230: b924 8d3d 3732 55bf eb1e bf3e 0347 0cbe
00000240: d2a2 2f3d d897 5d3e 6bc6 8c3e ea41 bd3e
00000250: 80ae 603e 9135 953d 4721 7c3e 4ea0 22bf
00000260: 0dc2 19be f3ef 2b3e 8fca d6be c8e7 393e
00000270: 3532 9cbd a393 e83d 5ac0 1cbb 93f9 d53e
00000280: ab5f 51be 6299 31be cd57 d7be 488e 8c3c
00000290: 9e07 0cbf eecb 063e 525a 09be 986b 063e
000002a0: 1f2b a7be 5873 073e 6d0e 06bf c141 07bf
000002b0: 647f e9bd 0759 0fbe f9d0 733b d6b4 843c
000002c0: a5bb 2ebe 7fbd 863c 66e4 373f 07e8 efbc
000002d0: fc30 143d 5cf5 2cbf 1e3c 063f ff26 d83e
000002e0: caa3 2cbf 31bd bcbd a797 2dbe 2e87 efbd
000002f0: 7664 963d d355 0cbe 36e6 3a3d a27e 313e
00000300: 0af7 c43d e0fb 573e 5013 b03d 4b5e 8ebe
00000310: 0adf 99bd 4203 aebf a35a e3bd e1d5 0cbd
00000320: 9cf8 eebd 385e d0be c2cc 59bf bfc7 333f
00000330: 0a70 c73e 1e02 85bd d541 e03e 8f2c 16be
00000340: 2f9f b43e 5b9f 403c 3ca6 4b3e ab05 23be
00000350: cf00 2c3e d146 5bbd d5e7 d1bd 3b82 84be
00000360: e905 3a3f ea04 803f b2aa 253c 2512 3bbe
00000370: a1aa 07be d2c4 9d3e 1d6a c1bd ce2e bc3e
00000380: 9c94 ea3d a3a8 253f d96c b8be 1b23 36be
00000390: a7e2 65bf 58b5 b33d d779 34be 61ab a6be
000003a0: 27c3 41bd 5731 203e 0876 023e cd61 71bf
000003b0: e443 08bf 7b41 85bd e1d8 6d3e 5ddd 03be
000003c0: c000 df3e 6bdb fb3d 6338 c23d a0b6 8e3d
000003d0: 5e4b e43d fbd6 913d 2cb7 223f 890b 063e
000003e0: 8e4c bdbe f32d 0bbf 3842 dbbe 3c87 0b3f
000003f0: ce88 08be 9a39 7c3e 9f89 71bd 0530 ab3c
0.13470839 -0.0064608376 -0.0047142464 0.26977292 0.054191414 0.25441858 0.71309537 -0.09751609
-0.00841155 0.104474045 0.05097463 0.003097128 -0.072732426 0.040906604 -0.03866288 -0.12192114
-0.21273449 -0.8036607 -0.5140203 0.48023632 -0.0029946603 -0.12699795 -0.29538837 -0.034083076
-0.0089430595 0.03810165 0.01693184 -0.016731154 -0.65454847 -0.19025584 0.14693709 -0.11175873
2.5517998 0.05470898 0.13720532 0.5281531 0.3107189 -0.26725417 -1.032982 0.2093523
-0.12283348 -0.06403432 -0.15916876 -0.04585691 0.2966552 0.0019969638 -0.46915108 -0.1181739
-0.09365831 -0.0018215189 -0.21215937 -0.17813493 -0.26140097 0.23377092 -0.10083911 0.38738716
-0.17411035 0.13268316 0.015388007 -0.16211554 0.26883218 0.005647125 -0.022107348 -0.42195603
0.17849365 0.32499743 -0.23069006 -0.35201272 -0.123420686 0.034382474 0.03947789 0.67434967
-0.20502156 0.05930766 0.043004215 0.20664276 -0.012943929 -0.0006554655 0.003347823 0.03284039
-0.005382321 0.082371846 -0.13645796 -0.0096788155 -0.006172352 0.37883887 0.06803015 0.03469085
0.16036327 -0.013464094 0.013025433 0.041044656 -0.39103353 0.1081758 0.10248834 0.09161788
-0.28976446 0.010013446 3.768149 -0.051172253 0.28818744 0.26711026 -0.6179893 0.75498545
-0.6018405 -0.44225147 -0.0036086994 -0.21856175 -0.22078088 -0.21308608 -0.118279226 0.10459632
-0.3294812 0.059350297 0.09783893 0.19331904 0.6993577 -0.26598555 -0.67009974 -0.0020089333
0.35433257 0.05846073 -0.37310702 0.12419039 -0.23663197 -0.20538178 -0.040339883 0.0766755
-0.039570257 0.01372323 -0.19779389 -0.47856674 0.11039994 -0.36586156 0.09147909 1.3920246
0.37020686 0.4385909 -0.66660833 -0.44523296 0.0689177 -0.83279747 0.37328276 -0.13698964
0.042879887 0.21639955 0.2749513 0.3696435 0.21941566 0.072856076 0.2462207 -0.63525856
-0.15015431 0.16790752 -0.41951415 0.18154824 -0.07626764 0.113562845 -0.0023918361 0.41791973
-0.2044665 -0.17343667 -0.42059174 0.017157689 -0.5469912 0.1316373 -0.1341336 0.13126981
-0.32650086 0.13227594 -0.5236576 -0.5283471 -0.11401251 -0.13998805 0.0037203415 0.01619951
-0.17063768 0.01644778 0.71832883 -0.029285444 0.036179528 -0.6756189 0.5243548 0.42217252
-0.6743742 -0.09215773 -0.16952382 -0.11695705 0.0734338 -0.13704614 0.045629703 0.17333463
0.096174315 0.21092176 0.085974336 -0.27806315 -0.075132445 -1.3594744 -0.11101272 -0.03438366
-0.11668512 -0.40696883 -0.8507806 0.70226663 0.38952667 -0.064945444 0.43800226 -0.14665435
0.35277697 0.011756743 0.19887632 -0.15920131 0.16797183 -0.053534333 -0.102492966 -0.25880608
0.7266527 1.00015 0.010111498 -0.1826864 -0.13248684 0.30814224 -0.094440676 0.3675446
0.11454126 0.64710444 -0.36020544 -0.17786829 -0.8979897 0.08774823 -0.17624603 -0.32552627
-0.047305252 0.15643822 0.12740338 -0.9428986 -0.5322859 -0.0650663 0.23227264 -0.12877412
0.4355526 0.1229771 0.09483411 0.06968427 0.11147188 0.071210824 0.6356075 0.13090338
-0.3697247 -0.5436699 -0.42823958 0.54503226 -0.13333437 0.24631348 -0.058969136 0.020896921

fcs1.bias f4 [24]
00000000: 9f62 713e 2512 8fbe e51b 29be 6d93 c8bd
00000010: 693a 22bf 76d6 a2be 6d22 3dbf c85e a2be
00000020: 0025 14bf c164 163d 1c53 b0be a9db 9b3e
00000030: d840 02bf 966b 8a3d 7296 14be 1990 17bf
00000040: 7932 11be 0af7 1c3f bcec c5be b1e3 99be
00000050: 4042 01be 8260 04bf 54cd f7be 907d b73d
0.23572777 -0.2794353 -0.16514547 -0.09793744 -0.63370377 -0.31804246 -0.73880655 -0.31712937
-0.5786896 0.03671718 -0.34438407 0.30441025 -0.50880194 0.06758802 -0.14510515 -0.5920425
-0.1417941 0.6131445 -0.38657176 -0.30056527 -0.12622929 -0.5170976 -0.4839884 0.08959496

fc2.weight f4 [48, 28]
00000000: 14e1 0fbf b10f 4fbe daa8 003e fe8b 15be
00000010: d055 60be 06ec 25be 993c b8bd b20b fdbc
00000020: b79f ac3d c7fc 54bd 4cba 92be d94f e4be
00000030: 0003 c33b 5b20 803e 27bd 0bbe e50d c4be
00000040: d43a 1cbf 450d 9abd baf0 07bf ca11 adbe
00000050: d714 70bf b76d c63c ddd8 77bc df9b 93be
00000060: 288b b93d 0c69 35be 7f30 ffbd ae96 da3d
00000070: da99 d9bd 5580 12be 5b07 a7bf 24d0 40be
00000080: 1626 c9be 89c2 92be 1c1f 043e e897 b6be
00000090: 6b90 5dbe 45fc d8be 2768 ac3c f9a7 56bd
000000a0: e98e aebe 33ef 453e caf3 ad3b 7a45 89be
000000b0: 57ea 04be 3fe2 32be 6bce 91be 1e5e 73be
000000c0: edd9 89bd e3ae d6be 5a48 0bbd fd9e 333d
000000d0: 1462 d23d 5907 10be d3ae 04bd 18e1 bdbd
000000e0: 907a d9bd e1d2 99be 22ab 433d 01aa 02bc
000000f0: 4ab9 c0bc c422 01be 3d94 26be 5b84 35be
00000100: d1ae 9b3d 64cc adbc 4ffa 06be f2ab fbbd
00000110: 1217 cabd ca7e d83b 655d 65bd be9a 20bd
00000120: 5899 36be 497b 2cbe 720d 66be d989 b53c
00000130: e96b c6bd 1bc6 44be 5951 5dbd e855 8c3d
00000140: 64c4 6cbd dc46 a9be 5835 353d d4d9 d3bd
00000150: 79df b0bb 6c68 5fbe 085b 79be 303b 99bc
00000160: 601e 843e 013c 92be 7424 013d a79f f53d
00000170: d00f 45bd 33ba 1bbe 600c 94bd 275c 87bd
00000180: 019a f1be 5fa2 febd 02eb 90bc e868 4ebe
00000190: 5e04 1ebc baea ab3e 1dda 253d 1c5a 83be
000001a0: 3922 0a3e e732 9cbf 18fb b13e 4421 2ebe
000001b0: 01cb 0cbc 9865 363d 4e7c e6bd 01cc 733e
000001c0: 4a2f e3ba 10c5 75be 60fa f6be de0d babd
000001d0: 3b23 89be db2f 4dbe 4365 5cbe 7744 82be
000001e0: 80bd 8cbe ad1e 04bc 0827 dcbe c927 b93d
000001f0: 11b1 f9bc 6ab9 1abe d4fb d9be 32fe 21be
00000200: 47a6 5cbe f551 223e ece0 89be 6f2a 66be
00000210: a6b6 643d ab12 51be 2cfb ccbc 73ac 8abd
00000220: 267e b03d 9c17 a1bd 9202 92bd 9c71 82bd
00000230: 8910 8cbd bf0d a0bd 217c 1dbe 65b7 a53c
00000240: 9f9c 523d 20e6 fdb9 2682 2dba b39d f3bd
00000250: add3 d1bd d12f 513c 6049 dfbd 45bc 93bd
00000260: 3cf2 bdbd e94d 8abd f33d 13be c9c2 09be
00000270: ba77 2dbe cb87 70bd d7c8 c5bc 0d66 3ebc
00000280: 7749 f73c 10c2 11bd 1a8e 3c3d b41a e4bd
00000290: d3a4 26be aa41 40be fe34 d2bd 37ef 07be
000002a0: 08f8 e3bc c7f0 3e3d d80a 96be 5ebc 69bb
000002b0: 8c21 25be a09f 9fbc af6d bd3d 0b72 a73d
000002c0: dd98 da3c 6bb4 66bd 02d6 2e3d 5190 07be
000002d0: 75c0 d4bd c8e7 6a3d dec2 113d 2a02 233d
000002e0: 6023 c33d f7a3 c13c 0745 50bc 18fa 2cbc
000002f0: 9132 d03d 22d7 5dbd acf0 a0bd a013 09bd
00000300: 2cb6 c2bc b847 393d aab1 b43d b786 88bd
00000310: c299 0ebe 0dcd d9bd 3a90 f43c 0370 25bd
00000320: 1671 2b3d c1a4 613d bd35 d1bd fb17 e3bd
00000330: 239e 21be 3eab 01bd dd1b 883a e1e8 fdbd
00000340: 1885 48be c5e3 cfbd 657e 08bd b31c 8c3c
00000350: a10f 21be 4f33 40be b0c7 21be d572 5c3d
00000360: 6b9a 5ebd f632 f7bd 4b19 c2bd 6eba 68be
00000370: 8b76 c1bd f445 4fbe 1f60 f7bd 0aae 0cbe
00000380: 5c55 2c3e 6552 1cbe d7b0 a8be a056 31bd
00000390: bce0 14bd b5c6 873e 2124 95bd 732b 6b3d
000003a0: 636e 34bd 2932 cfbd cf9b 023d dd25 5fbc
000003b0: 572a 9e3d ce9b 633d 63d9 8dbc 128b b03d
000003c0: d93a 633d 95da 4f3e 8a25 48bd e37a 2e3e
000003d0: f374 b7bc b6bb 41be 2d5d 81be 9186 d7bd
000003e0: c7db edbd 16ee 2c3d 6631 4dbd 303b 05be
000003f0: 8ded ad3d 50fe 003d d9c4 08bf ef49 9e3d
-0.56202817 -0.2022083 0.12564412 -0.14604184 -0.21907735 -0.16203317 -0.08995933 -0.030889366
0.08428901 -0.05199888 -0.28657758 -0.4459217 0.0059512854 0.25024685 -0.13646375 -0.3829185
-0.61027265 -0.07522062 -0.53101695 -0.33802634 -0.937818 0.024222238 -0.015127388 -0.28829858
0.09059745 -0.17715853 -0.12460422 0.10673271 -0.10625048 -0.14306767 -1.304912 -0.188294
-0.3928687 -0.28664044 0.12902492 -0.3566277 -0.21637122 -0.42379966 0.021045757 -0.052406285
-0.34093407 0.19329529 0.005308603 -0.2681082 -0.12980019 -0.17469119 -0.28477797 -0.23766372
-0.06731019 -0.41930303 -0.034004547 0.043852795 0.10272613 -0.14065303 -0.032393288 -0.09271449
-0.1061908 -0.300437 0.047770627 -0.007975102 -0.023525853 -0.12610918 -0.16267486 -0.17726271
0.07601703 -0.021215625 -0.13181423 -0.12288655 -0.098676816 0.0066069113 -0.05599727 -0.039210074
-0.17831933 -0.16843905 -0.22466066 0.022160457 -0.09688551 -0.19216196 -0.054032657 0.06852323
-0.05780448 -0.33061874 0.044240326 -0.10344282 -0.0053977338 -0.21817178 -0.24351132 -0.01870498
0.25804424 -0.28561404 0.031528905 0.11993342 -0.048110783 -0.15207748 -0.07228923 -0.066093735
-0.47187808 -0.124333136 -0.017690185 -0.20157206 -0.009644596 0.3357752 0.040491212 -0.25654685
0.13489617 -1.2203034 0.34761882 -0.17004877 -0.008593322 0.04453048 -0.11254178 0.2380829
-0.0017332819 -0.24000955 -0.48237896 -0.09084676 -0.2678469 -0.20037787 -0.21523003 -0.2544286
-0.27488327 -0.008063954 -0.42998528 0.090407915 -0.03047994 -0.15109792 -0.42574942 -0.15819624
-0.21547805 0.15851577 -0.26929414 -0.22477125 0.05583825 -0.20417278 -0.025022112 -0.06771173
0.08617811 -0.07865831 -0.071293965 -0.063693255 -0.06839091 -0.07815122 -0.15379383 0.02022905
0.051418897 -0.00048427377 -0.000661882 -0.11895313 -0.10245452 0.012767748 -0.10902667 -0.07213644
-0.09274718 -0.067531414 -0.143791 -0.13453211 -0.16940203 -0.058723252 -0.02414362 -0.0116210105
0.030186398 -0.035585463 0.046033956 -0.11137906 -0.16273813 -0.18775049 -0.10264014 -0.13274847
-0.027828231 0.046616342 -0.29305148 -0.0035665254 -0.16126078 -0.019485295 0.09249436 0.08176049
0.026684219 -0.056324404 0.042684563 -0.13238646 -0.10388271 0.05734995 0.03558623 0.039796986
0.095282316 0.023637755 -0.01271177 -0.010557674 0.10165895 -0.054160245 -0.078584045 -0.03346598
-0.023768507 0.045234412 0.08822949 -0.0666632 -0.13925841 -0.106348135 0.029853929 -0.040390026
0.041855894 0.055088762 -0.10215328 -0.11088558 -0.1578298 -0.03165745 0.001038428 -0.12397934
-0.19582021 -0.101508655 -0.033323664 0.017103529 -0.15728618 -0.18769573 -0.15798831 0.05382045
-0.054346483 -0.12070267 -0.094774805 -0.22727367 -0.094464384 -0.20241529 -0.120788805 -0.13738266
0.16829437 -0.15265806 -0.32947418 -0.043295503 -0.036347136 0.2651879 -0.07282282 0.057414483
-0.044050585 -0.10116989 0.031886872 -0.013619867 0.077229194 0.05556851 -0.017315572 0.086202756
0.055476043 0.20298226 -0.048863925 0.17039065 -0.022394633 -0.18919262 -0.252664 -0.105237134
-0.11614185 0.042219244 -0.05009594 -0.1301086 0.08492575 0.03149253 -0.53425366 0.077289455

fc2.bias f4 [48]
00000000: 0a9d 653e 8f01 db3b 631c 57be cd05 113c
00000010: 7d40 a3be c99a 4bbe 75b7 e13e c2c6 06be
00000020: f2be 1f3f 510a e53e 76db a4be 2e6b 31be
00000030: 92f3 2f3e 89a1 643f ae9b eabd e90d a4bc
00000040: 6d1a 823e ea48 88be 09f7 2ebe a71d 35be
00000050: 326f dcbd 49f4 19bf b3ef 1b3e c55b 25be
00000060: a3ba 013f 5c90 ab3e 3d7d 81bd 1e03 6e3e
00000070: ae84 d3be 6c7b 483f e1ed 03be 44cc 35bd
00000080: 807f 5abe 4d02 93bd 7e8c 173f 6293 04be
00000090: d4b0 95bd bbb8 85be c12f 4ebe ea44 1cbe
000000a0: bf64 b0bd df5c 82be 91da 3b3c d8d6 143c
000000b0: c70a 96be 6aef 893d 72ad 0e3f e9c8 00be
0.22423187 0.0066835354 -0.21006922 0.008851481 -0.31885138 -0.19883265 0.4408528 -0.13161758
0.62400734 0.44734433 -0.32198685 -0.17326042 0.17182758 0.89308983 -0.11455475 -0.020026164
0.25410786 -0.2661813 -0.17086424 -0.17687093 -0.10763396 -0.60138375 0.15228157 -0.16148289
0.5067541 0.33508575 -0.063227154 0.23243377 -0.41312164 0.78313327 -0.12883712 -0.044384256
-0.213377 -0.07178173 0.5919875 -0.12946847 -0.07309118 -0.261175 -0.20135404 -0.15260664
-0.08612966 -0.2546148 0.0114656845 0.009084426 -0.29305097 0.06735118 0.55733407 -0.12576641

fc3.weight f4 [1, 48]
00000000: 007e 8c3b 7a00 5fbb 231b 773b 5bcd ba3c
00000010: 7445 47bc be20 17bc 5890 4d3c 6524 eb3b
00000020: b3ac 6d3c 13ce 5c3e b900 9ebb c0cc 5dbc
00000030: 1df1 5c3e 73bf b23c 798e 1a3c 8559 8fbc
00000040: b2b9 e63d 0656 e5b8 a5f2 dc3a 2766 a1bb
00000050: 168d 233b 9837 453b 4efa c83c 84a2 b93c
00000060: 621e 303e d490 cc3d 8401 92bb 23e7 e33c
00000070: d855 f0ba 6d65 003d 2a52 053c e63b 893c
00000080: cf65 8abc c6e3 533d 6905 373d f5a5 ad3a
00000090: 2d6d 6bbd ec12 21bd 0bbe 78bb a928 a3bb
000000a0: fb0e 45bc 45a2 dd3c ff7c 2f3c 9716 67b8
000000b0: 95b1 84bc 7aa4 9f3a d40c fd3c 0998 be3c
0.0042874813 -0.0034027384 0.0037705384 0.022803 -0.012162555 -0.009224115 0.012546621 0.0071759694
0.014506507 0.21562986 -0.0048218635 -0.013537586 0.21576352 0.021819806 0.009433382 -0.01749874
0.11265887 -0.00010935594 0.0016856982 -0.0049255076 0.002495592 0.003009295 0.024533417 0.022660501
0.1719909 0.09988561 -0.004455747 0.027820176 -0.001833613 0.031346727 0.008137265 0.016752195
-0.01689425 0.051730894 0.044682894 0.0013248312 -0.057477165 -0.039324686 -0.0037955071 -0.0049792123
-0.012027497 0.027054915 0.010710954 -5.509573e-05 -0.016197959 0.0012179755 0.030889906 0.023265855
