checkpoint_critic.pth (torch_old, 548055 bytes, 9 tensors)

fc1.weight f4 [400, 33]
000000 dd 3d bb be 84 c1 1f 3e c6 eb 85 be 4f a6 93 3e
       -0.36570635 0.15601164 -0.26156443 0.2883782
000010 63 28 18 3e 7c 35 81 3d 5a 08 22 be 14 db 8b be
       0.14859156 0.063090295 -0.15823498 -0.2731558
000020 8f 80 0d 3c c2 d1 b4 bd 68 d7 2e bd 6c fa 7c 3e
       0.008636608 -0.08829071 -0.042685896 0.24704903
000030 5a 96 ad be b7 8d e4 be b6 cf 70 3d b4 cf 13 be
       -0.33903772 -0.4463937 0.05879184 -0.14434701
000040 09 45 df bd a9 6a 09 3f bf 7a 2a 3f fe 34 95 bf
       -0.10901839 0.53678375 0.66593546 -1.1656797
000050 f1 73 0e bd 6e 89 13 3d ff e8 27 be db d3 08 be
       -0.03477854 0.036019735 -0.16397475 -0.13362066
000060 f8 40 64 3d 32 d5 1a be c6 a9 df 3e 8c 87 08 3f
       0.05572602 -0.1512039 0.43684214 0.5333183
000070 fb 17 b3 3e ff 28 0b 3d 48 09 02 bf 00 a2 6f ba
       0.34979233 0.033974644 -0.5079541 -0.00091412663
000080 88 5b 57 bf 72 79 1a bc ce 53 5f 3e e5 4f 69 3d
       -0.8412404 -0.009428369 0.21809313 0.05696096
000090 1d 0a 38 3e 91 ea 2f be 7c b6 90 be ba 5b 9f bd
       0.17972608 -0.17179324 -0.28264225 -0.07781167
0000a0 0a 69 3b be 79 1e 13 3e 63 52 ba be 1f 22 15 be
       -0.18301788 0.14367093 -0.3639098 -0.14563797
0000b0 c7 2b d6 3b 51 b5 91 3e 82 c8 58 be 9b 86 ea bb
       0.0065359804 0.28458646 -0.21170238 -0.0071571595
0000c0 ea 7e 89 3d 85 3b 9d 3d c6 98 72 bf 03 6e 3f be
       0.0671366 0.07677368 -0.94764364 -0.1869431
0000d0 b0 5c 67 be 96 cf 37 bd 42 a1 0d be 82 e2 27 be
       -0.22593951 -0.044875704 -0.13831046 -0.16395
0000e0 cb 40 a5 be f6 72 6c 3b 4f a6 56 3e 34 51 a0 3e
       -0.32275996 0.0036079264 0.20961879 0.31311953
0000f0 fd ab 15 3f 7a 31 0f 3f 4a 52 d4 bc 61 ee 1e bf
       0.5846556 0.5593487 -0.025918145 -0.6208249
000100 80 fb 18 bd f9 6e 58 bf 0e 69 85 3e e1 87 b1 3d
       -0.037349224 -0.8454433 0.26056713 0.08668495
000110 4d 6e 1c 3e fa 7e 36 be ad 24 ea bd d5 c9 1d 3f
       0.15276451 -0.17821875 -0.114327766 0.61636096
000120 69 76 30 bf 01 4e f9 3c 4d fb 30 3f 32 1b 60 3e
       -0.6893068 0.030432703 0.69133455 0.21885374
000130 2a d1 0d 3e e6 55 38 3e bd 4a 3b bd f8 44 2a 3d
       0.13849321 0.18001518 -0.045725573 0.04156968
000140 a9 99 8b 3e 28 b9 18 3e d1 5a 1e 3e a3 fb 25 3e
       0.2726567 0.14914382 0.15464331 0.16209273
000150 58 e4 82 bf 72 97 84 bf 82 b8 a6 bd 52 05 c5 be
       -1.0225935 -1.0358717 -0.08140661 -0.38480622
000160 93 01 82 3e 98 6f b2 be e5 ab 01 3e 0e ba e3 bc
       0.25391826 -0.34850764 0.12663229 -0.027798679
000170 66 59 64 3c 22 cc f7 3e 73 a1 8e 3e 8b 9d 02 3d
       0.01393733 0.48397928 0.2785755 0.031888526
000180 58 ae dd be fe 02 06 bd 63 f2 2d 3f 12 c8 c5 bd
       -0.43297076 -0.032717697 0.6794798 -0.09657301
000190 16 03 55 3e 79 09 27 be ee 50 a1 bf 37 75 6f be
       0.20801958 -0.16312207 -1.2602823 -0.23384558
0001a0 40 d1 2d be ab ff 93 bc 36 3f 5d be 3b 93 35 bd
       -0.16974354 -0.018066248 -0.21606144 -0.044329863
0001b0 2d 13 53 3e 20 b8 90 3e 98 5f 06 3e 4a 34 2d be
       0.20612784 0.28265476 0.13122404 -0.16914478
0001c0 9f ac 77 be c3 15 8d 3e 48 8f 56 3e 5d 06 24 3f
       -0.24186943 0.27555665 0.20953095 0.6407221
0001d0 aa dd 97 3d bb aa 4c bd 9e 0c 27 3f 72 c3 34 be
       0.07415326 -0.04996751 0.6525363 -0.17652681
0001e0 a9 03 02 3e 22 67 0b 3e d1 18 89 bc a8 8e 78 3e
       0.12696709 0.13613561 -0.016735466 0.24273169
0001f0 be 6c b6 bd fa b9 1f be b8 e9 3b 3f 8c 71 70 3e
       -0.0890746 -0.15598288 0.734035 0.23480815
000200 13 16 ca bc 90 35 31 bf b3 23 9a bc 17 79 1c 3d
       -0.024668729 -0.69222355 -0.01881585 0.038201418
000210 47 1a ac bd 76 28 b4 3c 3c 17 d2 3e 1a 14 a6 3f
       -0.084034495 0.02199195 0.4103335 1.2974885
000220 01 b2 12 be 61 5a 17 3d 3a 9a ee 3e ce 1b 8e be
       -0.14325716 0.036951426 0.4660204 -0.27755588
000230 4a cf 8b 3c 9c 70 22 be dc 17 07 be 37 b0 5c bd
       0.017066617 -0.1586327 -0.13192695 -0.05387899
000240 3f 54 03 bd d2 97 2d 3e 35 29 c8 3c ce 5d ef bd
       -0.032062765 0.16952446 0.024433712 -0.11687814
000250 4c c6 b5 3c 8a b2 87 3f a1 b4 0e be b5 af a2 3e
       0.022189282 1.0601361 -0.13936092 0.3177468
000260 3d 97 50 bc 64 e7 ee 3d 53 91 0f bd 8e a2 82 be
       -0.0127313705 0.11665228 -0.0350507 -0.25514644
000270 35 a7 ac 3c de b4 cf bd 29 82 bc bd cc 27 21 3f
       0.021075824 -0.101419196 -0.092045136 0.6295135
000280 22 87 a8 3e 00 f2 cc 3a 1c b6 23 bf ed 26 35 3d
       0.32915598 0.0015636086 -0.6394975 0.044226576
000290 57 d8 42 3e a0 55 85 3d cb 1a 92 3e ab 5a e1 bd
       0.1902784 0.06510472 0.28536066 -0.11003622
0002a0 42 ff 3b bf 96 cb 88 3e 0f cd 3f 3f 6a 5a 0b be
       -0.7343637 0.26717824 0.7492227 -0.13608709
0002b0 0e 66 08 be c5 be e2 3c 55 76 88 3e af 61 99 be
       -0.13320181 0.027678857 0.2665278 -0.2995734
0002c0 6d 05 4b 3d a2 f5 e4 bc 23 0a d7 bd 19 e5 26 3e
       0.04956572 -0.027949158 -0.1049998 0.16298331
0002d0 0d a5 0a bb 39 c7 4a 3f d1 9f d1 be d0 fb df bf
       -0.0021155507 0.7921024 -0.40942243 -1.7498722
0002e0 de 87 5d 3e 02 5e a4 be 06 6b 67 3e 24 99 25 3e
       0.2163386 -0.32102972 0.2259942 0.161717
0002f0 94 0d 53 bd 85 c9 1c 3e c2 57 85 3d d9 a3 20 bd
       -0.05152662 0.15311249 0.06510879 -0.039218757
000300 7f 87 42 3f 15 07 33 3e af a6 0f 3d df ae 4d bf
       0.75988 0.1748317 0.03507107 -0.8034496
000310 7b 86 43 3d 2b 66 af 3d ca 19 b8 3d f9 38 ea 3c
       0.047735672 0.08564409 0.08989294 0.02859162
000320 a3 ab cc be 87 f8 72 3e 0f 20 f4 3e e1 1a 77 3e
       -0.39974698 0.23727618 0.4768071 0.24131347
000330 27 02 3c be 1d 26 2d be a1 24 2e bc 9d 4b 5f be
       -0.18360196 -0.1690907 -0.01062885 -0.21806188
000340 21 92 05 3d cf 59 6e 3c ba af ae bd 27 7f 97 3d
       0.032610063 0.014547779 -0.08529611 0.07397299
000350 d0 e5 58 3d 99 31 09 3e f0 c4 00 3f ce d5 51 be
       0.05295354 0.13397826 0.503005 -0.20491716
000360 16 a3 da bd ed 39 4a 3f b1 05 b6 3d 0e 4a f8 bc
       -0.106756374 0.7899464 0.08887804 -0.03030875
000370 ac d6 4e bd 30 a7 ce ba e7 9e 38 3d 8a da cd 3c
       -0.050497696 -0.0015766378 0.045073416 0.025128622
000380 65 f1 42 be e1 f4 df 3e b8 eb 7d 3d aa c4 ed 3c
       -0.19037397 0.43741515 0.061992377 0.02902444
000390 f9 10 dc be 3d fb 09 bd c7 ed 7f 40 93 71 2c 3f
       -0.429817 -0.033686865 3.9988878 0.673608
0003a0 ef f8 b9 3c ad 5f 27 3d d2 f3 3b bf 28 34 e2 be
       0.022701709 0.040862728 -0.73418915 -0.44180417
0003b0 04 67 b5 3e 37 24 c2 be c7 2f ad be 68 23 51 3e
       0.35430157 -0.37918255 -0.33825514 0.20423663
0003c0 f3 d9 f1 bd 1b e2 11 be f3 9b 65 3d 64 d1 47 3e
       -0.11809149 -0.14246409 0.056056928 0.1951347
0003d0 e0 20 93 be 78 79 2a 3e 6e d5 8c 3e 9c e6 ee bd
       -0.2873602 0.16647899 0.27506584 -0.11665079
0003e0 84 b8 a9 3e b2 ec ba 3d bb 00 40 be 58 11 bf 3e
       0.33148587 0.09127177 -0.18750279 0.3731792
0003f0 c4 bd 04 3e 60 7f 82 bd 0a cd 82 be fb 90 3d 3d
       0.12963015 -0.06371951 -0.25547057 0.046280842

fc1.bias f4 [400]
000000 09 5d 21 bf bc 00 2c bf b6 ea 8e be 0c a2 2e bf
       -0.63032585 -0.6718862 -0.27913445 -0.68216014
000010 d5 29 51 bf 06 c2 6f bf 5e cd 12 bf af 64 19 bf
       -0.81704456 -0.9365543 -0.57344615 -0.59919256
000020 2e da bf be a2 a7 0d bf 86 cb 1d bf be 2a f5 be
       -0.37471145 -0.5533391 -0.6163868 -0.47884172
000030 e0 54 bb be b9 0c 43 bf 33 56 4e bf 54 93 3a bf
       -0.36588192 -0.7619129 -0.8060028 -0.72881055
000040 2e 0a e0 be 0f d2 37 bf 9c 1e 05 bf b0 c4 fc be
       -0.43757766 -0.718049 -0.5199983 -0.4936881
000050 1f 79 9b bf 73 45 e8 be 82 f4 03 bf 51 a7 43 bf
       -1.2146338 -0.45365486 -0.51544964 -0.7642718
000060 40 1f b2 be ed c8 e8 be c8 2f c7 be cd 57 98 be
       -0.34789467 -0.45465794 -0.38903642 -0.29754487
000070 52 a5 b9 be 10 59 31 bf 8e 8f 6b be 4d 81 af be
       -0.36258942 -0.69276524 -0.2300398 -0.34278336
000080 4c 64 9a bd 0f 79 3c bf 82 04 d5 be 71 83 2d bf
       -0.07538661 -0.7362222 -0.41605002 -0.6777869
000090 55 32 18 bf df a0 b4 be 14 14 ce be 2a 1c e2 be
       -0.594518 -0.35278985 -0.40249693 -0.44162112
0000a0 1b b7 8f 3e cb 6b 90 be 7c e6 ba be d5 a6 df be
       0.28069386 -0.2820724 -0.3650397 -0.4368197
0000b0 6b c6 3c bf f8 df b8 be 8d a6 37 bf 38 9c 30 bf
       -0.7374026 -0.36108375 -0.7173851 -0.6898837
0000c0 35 f1 48 be a9 41 34 bf 95 32 e7 be a8 cc 98 be
       -0.19623263 -0.7041269 -0.4515578 -0.2984364
0000d0 81 5e 9c bd d2 5b 0e bf 85 f0 12 bf 32 93 e3 be
       -0.07635213 -0.55608857 -0.57398254 -0.4444824
0000e0 10 61 c3 be e7 86 6b be f3 f4 a3 be 41 bf b0 be
       -0.3815999 -0.2300068 -0.3202282 -0.34520915
0000f0 d6 03 75 bf e0 84 bf be e2 8d 9c be 43 ff 0e bf
       -0.9570898 -0.37406063 -0.30576998 -0.5585825
000100 4e 2c 13 bf bb 50 32 bf d7 cd 10 bf de 7b 1a bf
       -0.5748948 -0.69654435 -0.56564087 -0.60345256
000110 fd 28 02 be 84 8a 0d be 74 37 f0 be 74 37 f6 be
       -0.12710948 -0.13822371 -0.46917307 -0.48089182
000120 3e ab 31 be 9e 15 ff be 4f 5a b4 be bf 8d 33 bf
       -0.1735048 -0.4982118 -0.3522515 -0.7013816
000130 cd 37 2f bf ea 8e 94 bf dc 9e d4 be c3 bd 31 be
       -0.6844452 -1.1606114 -0.4152745 -0.17357545
000140 e7 62 69 be 73 0d b3 be a5 f9 92 3d 15 e0 3b bf
       -0.22791635 -0.34971198 0.07176522 -0.733888
000150 b4 f4 16 bf be b7 ff be 97 17 46 bf d6 7c 50 bf
       -0.5896714 -0.49944872 -0.77379745 -0.81440485
000160 e1 27 03 bf c0 67 d9 3d 01 6f 51 bf 5b 56 57 bf
       -0.51232725 0.10615492 -0.81810004 -0.84116143
000170 2b 54 93 be 18 c7 63 bd b4 19 c5 be 80 87 a8 bf
       -0.28775153 -0.055609792 -0.38496172 -1.3166351
000180 45 55 6b 3e bd 94 29 be f9 f9 32 bf db fc 14 bf
       0.22981746 -0.16560645 -0.6991268 -0.58198327
000190 a0 6a 0a bf b5 3b 09 bf a3 bb 1d bf 87 ec 61 be
       -0.54068947 -0.5360673 -0.61614436 -0.22062884
0001a0 ff 0e 01 be 63 7a ff bd 02 86 8e be 23 11 d2 be
       -0.12603377 -0.12474515 -0.27836615 -0.410287
0001b0 51 5e 18 bf 8f 78 b1 be a5 18 30 bf d1 60 25 bf
       -0.59518915 -0.3466229 -0.68787605 -0.64600855
0001c0 e3 93 2c bf 44 dc c6 be 77 b2 c9 be aa 08 ad be
       -0.6741316 -0.38839924 -0.3939397 -0.33795673
0001d0 13 32 39 bd b8 9b 45 bf 3b 67 3d bf 1d 75 60 bf
       -0.04521377 -0.7719073 -0.7398564 -0.876787
0001e0 f6 cb 4e bf 15 1f eb be 85 e8 9d bf fa 8b b8 be
       -0.8077997 -0.4592215 -1.2336584 -0.36044294
0001f0 d5 34 77 bf 41 ab 1f bf dc 77 b3 be a7 d0 50 bf
       -0.9656499 -0.6237069 -0.35052383 -0.8156838
000200 e2 4b 3e bf e7 e7 10 bf e7 c1 06 bf d9 bf 8a be
       -0.7433454 -0.56603855 -0.5263962 -0.27099493
000210 62 58 63 be b0 6c 1b be 15 a1 0f bf ec ba 07 bf
       -0.22201684 -0.1517818 -0.56105167 -0.53019595
000220 0d 22 f4 be 4e 05 97 bd ea eb d8 bd b8 f2 02 bf
       -0.4768223 -0.07374059 -0.10591872 -0.5115161
000230 c0 70 2f 3c 8f 8b 49 bf d1 e7 b4 be ab 33 9c be
       0.010708034 -0.78728575 -0.35333112 -0.3050817
000240 dc 85 2a bf 94 9d 0c bf 71 9d c1 be 32 15 0c bf
       -0.66610503 -0.54927945 -0.3781543 -0.5471984
000250 e1 90 43 bf 6d 94 02 bf d0 f8 46 bf d3 be 02 bf
       -0.7639294 -0.5100773 -0.7772341 -0.51072425
000260 af e6 e4 be a5 cf 12 bf 3c 2b ce be 80 bc 0e bf
       -0.44707248 -0.5734809 -0.4026736 -0.5575638
000270 5a 65 00 bf 42 aa 63 bf ee 08 f5 be 87 cf 46 bf
       -0.5015465 -0.8893167 -0.47858375 -0.7766041
000280 d1 17 ac be 1b a9 10 be 22 e9 ca be 26 30 b3 be
       -0.3361192 -0.14127009 -0.3963099 -0.34997672
000290 3f 03 87 be 63 b1 91 bf 66 10 bd bd b7 b3 4e be
       -0.26369664 -1.1382259 -0.092316434 -0.20185743
0002a0 59 d3 20 bf de 67 16 bf c2 49 63 be b6 be 4b bf
       -0.6282249 -0.5875224 -0.22196105 -0.79587877
0002b0 36 8e 1e bf be 75 ff be e5 6a 5b bf 5f b6 dc be
       -0.61935747 -0.49894518 -0.85709983 -0.43107888
0002c0 1d ff 23 bf 5b c7 a3 bc 25 25 b4 be d2 f2 01 bf
       -0.64061147 -0.019992521 -0.3518459 -0.5076114
0002d0 20 5a 3b be 27 82 c7 be 22 9b eb be 81 6f 3c bf
       -0.18296099 -0.38966486 -0.46016794 -0.7360764
0002e0 a6 3f c9 be a4 ac fb be fc 62 4f bf 7a 60 05 bf
       -0.39306372 -0.49155152 -0.81010413 -0.52100337
0002f0 d7 bc 1d bf 2f 34 80 be 5e c0 2b be ba cf 2f bf
       -0.6161627 -0.25039813 -0.16772601 -0.6867634
000300 7b d5 0b bf 89 5a 0e be 86 d2 2b bf 9d c8 73 bf
       -0.5462262 -0.13901724 -0.6711811 -0.95227987
000310 b4 74 58 bf b9 96 96 be a0 fa 9f be af 0f 8e be
       -0.84553075 -0.29411867 -0.312459 -0.2774634
000320 5d 93 ef be 28 2f b1 bf 92 ca 46 bf 7d 37 d6 be
       -0.46792117 -1.3842516 -0.7765285 -0.4183921
000330 67 a5 34 bf ef 15 87 be 1b 38 2e bf 69 12 f9 be
       -0.70564884 -0.26383922 -0.6805436 -0.48646858
000340 e8 cb ca be 19 26 80 bc 96 06 b9 be 88 9d 7a bf
       -0.39608693 -0.015643166 -0.36137837 -0.97896624
000350 c8 bb b3 be f8 95 39 bf 72 e4 2b bf 62 af 35 bf
       -0.35104203 -0.7249446 -0.67145455 -0.7097074
000360 a0 31 23 bf 93 98 d3 be 40 42 b4 be 56 d3 5d bf
       -0.63747597 -0.41327342 -0.35206795 -0.866506
000370 26 9a 33 bf 78 42 2d bf dd cf 2f bf 2b fc 3d bf
       -0.70157087 -0.6767955 -0.6867655 -0.742129
000380 37 1e 8d bd 86 1d c1 be 1f 64 8b bd a1 db 87 be
       -0.06890529 -0.37717837 -0.06806206 -0.2653475
000390 33 d3 3a be b4 4a 59 bf 14 c9 ba be 84 2a 00 bf
       -0.18244629 -0.8487961 -0.36481535 -0.50064874
0003a0 27 8b d1 be d1 b5 1a bf eb c0 2a bf 77 99 da be
       -0.40926477 -0.6043368 -0.6670062 -0.4269521
0003b0 fd 72 19 bf 19 47 2a bf 43 e1 23 bf 1c 7e 73 bf
       -0.59941083 -0.66514736 -0.640156 -0.951143
0003c0 25 48 d9 be 1e a9 e3 be 56 47 98 be 9a 8f 88 be
       -0.42437854 -0.44464964 -0.29741925 -0.2667206
0003d0 1d 48 49 bf 9c 9a cc be 6f 56 cd be 77 39 83 be
       -0.7862566 -0.39961708 -0.40105006 -0.2562978
0003e0 1f e6 df be 6b 40 0e bf 1c 31 9e be 7d 5b ed be
       -0.43730256 -0.55567044 -0.30896842 -0.46358863
0003f0 9c 69 2c bf cf 40 e2 be 73 4d b3 be 53 3a 38 bf
       -0.6734865 -0.4419007 -0.35020027 -0.71963996

fc2.weight f4 [300, 404]
000000 41 e2 1c bd 59 e6 3e bc d0 3a 0e bd a5 c1 58 3c
       -0.03830171 -0.011651599 -0.034724057 0.013229762
000010 7a 30 29 bc 1d 93 a9 39 70 31 5c 3c 06 2b 18 bc
       -0.010326499 0.000323438 0.013439521 -0.009287601
000020 61 23 22 3b 84 9a 6d bd e5 2e b8 bd 32 9f 5b bd
       0.0024740326 -0.058008686 -0.089933194 -0.053618617
000030 20 96 05 bd a5 62 c3 bd c7 e4 2e bd 4d cf 41 bd
       -0.032613873 -0.09540299 -0.042698648 -0.047316838
000040 c4 ac c7 bc 4b b2 d8 bc ca cb b4 3c 44 29 dc bc
       -0.024374373 -0.026452204 0.02206983 -0.026875146
000050 16 6e 82 bd 80 bf 52 3d ec 8d 7a 3b c6 e2 97 bc
       -0.063686535 0.05145216 0.0038231565 -0.018540751
000060 85 fd de bd ac 67 53 3c 30 5c 83 bd ca 1f 76 bd
       -0.10888199 0.012903135 -0.06414068 -0.06008891
000070 ff 9b 18 bd cc 77 9f bd 2a dc 56 3d 3c 63 3a b8
       -0.037258144 -0.07786521 0.05245606 -4.4438275e-05
000080 ce 5e 9a bd 42 51 7a 3d 7a 67 e4 bb 42 e6 25 3d
       -0.07537614 0.06111265 -0.006970343 0.040502794
000090 ed 3a 6d 3d 51 fb 11 3d 6e 62 67 3c db ba c6 bd
       0.057917524 0.035640065 0.014122589 -0.097036086
0000a0 d4 f7 ca bb d1 d1 6e 3c 25 17 97 bd 4a 12 53 bd
       -0.006194094 0.014576391 -0.07377461 -0.051531114
0000b0 5f 59 90 3d a6 07 05 bd c0 7d 06 be 35 90 e3 bb
       0.07048296 -0.032477997 -0.13133907 -0.006944681
0000c0 c8 a1 77 bd 4d 86 7c 3c 04 f2 27 3c c7 b9 75 bd
       -0.06045702 0.015412879 0.010250572 -0.059991624
0000d0 c8 53 ca bc 7b ea da 3c 7e 89 4e 3c 06 bf 49 bc
       -0.024698153 0.026723137 0.012606023 -0.01231361
0000e0 9b 9b 8b bd 51 46 2e bd 96 f0 06 be 72 b9 3a 3c
       -0.06816789 -0.042547528 -0.13177714 0.011396753
0000f0 27 20 6d bd bf 5a 1a 3d 99 6d 52 bd d0 80 83 bd
       -0.05789199 0.0376842 -0.05137405 -0.064210534
000100 21 ff 84 bd e5 01 32 bd 47 7e 9f 3c a9 f0 6c bd
       -0.064939745 -0.043458838 0.019469393 -0.0578467
000110 d9 73 31 bd 65 ce c0 bc a6 5b ea bc 80 be 7a bc
       -0.04332337 -0.023535917 -0.028608155 -0.015304208
000120 c1 ef 34 be 87 f2 83 bc 7b 8c 8f bd ee 29 a4 bb
       -0.17669584 -0.016106857 -0.070092164 -0.005009881
000130 97 d3 d7 3c 22 03 e0 bc ef 45 7a bb 83 f0 5e 3c
       0.026346011 -0.027345244 -0.0038188656 0.013607147
000140 59 60 1d bc e5 9c 92 bd 61 f0 69 bd 1e f1 49 bd
       -0.009605491 -0.071588315 -0.05711401 -0.049302213
000150 fa 60 65 bd 22 2b c7 bd 8a 5f 4b 3d cd c1 1d bc
       -0.056000687 -0.09725024 0.04965166 -0.009628725
000160 a3 7f 9f bc 8e 0d 04 bc d9 8b dd 3c f5 c6 0e bd
       -0.019470042 -0.008059872 0.027044224 -0.03485771
000170 50 e2 18 be 9a ae 19 bc f5 a1 33 be d0 16 1e 3d
       -0.14930081 -0.009380007 -0.1754225 0.038595974
000180 d0 a3 f6 bd 23 58 b8 bd 89 28 99 bd 78 b8 1f 3d
       -0.120429635 -0.09001186 -0.074784346 0.038994282
000190 2d e4 dd bd 90 c2 91 bb 43 e6 aa bd af c3 c9 bc
       -0.10834537 -0.0044482425 -0.083447 -0.024629442
0001a0 6d 76 da bc cf f4 c2 bd 29 85 a0 bd 49 0a 62 bd
       -0.026667798 -0.0951935 -0.07837898 -0.05518559
0001b0 9a f8 ea bd 0c bf 83 bd c4 2d b0 3d 29 f1 4a bd
       -0.11473198 -0.06432924 0.08602479 -0.049546394
0001c0 98 be ca bc 33 e7 5f bd 85 b2 a5 ba 7f 30 9d bd
       -0.024749085 -0.054663848 -0.0012641704 -0.076752655
0001d0 20 f7 34 bd 8d 0a 62 3c 59 d1 1e bd 5c b4 0c 3d
       -0.04418099 0.013796461 -0.03877387 0.03435169
0001e0 3c 84 3f bc 19 0d a7 bd ce 1a 84 3c 6e e9 ad 3c
       -0.011689242 -0.08156795 0.016126063 0.021229472
0001f0 29 e5 f0 3c 60 9a 19 bd 8f f5 14 bd a9 8d 32 bd
       0.029406147 -0.03750074 -0.036366995 -0.04359213
000200 71 8f f4 3c c4 d0 b6 bc 63 2d 65 3c 31 3d 1f 3b
       0.029853554 -0.022316344 0.013987872 0.0024297948
000210 b6 d7 a9 bc 73 e4 0a 3d 97 17 77 bb ca 2d 52 bd
       -0.020732742 0.033909272 -0.003770327 -0.0513132
000220 de 7f 0c 3d 79 49 91 ba c2 91 b0 bd 17 a6 64 3c
       0.03430163 -0.0011084519 -0.08621551 0.0139556145
000230 5b f9 2c 3c 62 28 7e 3c 72 78 f2 3b b9 5c 14 bd
       0.010557498 0.015512558 0.007399612 -0.03622124
000240 ed ec fc bc a5 3c 98 3c e9 6c 9c bd 0e ff a4 bc
       -0.030874694 0.018583605 -0.076379605 -0.02014115
000250 15 dc a1 3c 32 14 8d bd 23 72 6d bd 21 72 e9 3c
       0.019758264 -0.068886176 -0.057970177 0.028496804
000260 98 95 d1 3c 62 1b 2e 3c 42 40 4b 3c d3 79 02 bd
       0.025584027 0.010626646 0.012405457 -0.031854462
000270 a9 9d 1b bd 82 df 62 bd 8f db 55 bc c3 a2 11 bc
       -0.037992153 -0.055388935 -0.013052835 -0.008888903
000280 b0 c7 9d bd b4 c7 96 bd 29 3d 7e bd da ee 3e bc
       -0.07704103 -0.07362309 -0.062070046 -0.011653626
000290 ee d5 6d bc 2f 8f e5 3a 72 e9 87 bc 99 cb e3 bd
       -0.014516337 0.0017513986 -0.016590808 -0.111228175
0002a0 43 33 00 bd 66 d8 89 bb 3c 70 08 be 94 c9 e0 bc
       -0.031298887 -0.004206705 -0.13324064 -0.02743987
0002b0 59 ec 6a bc 1f 36 59 bd be fd e0 3c 0f 95 c1 bc
       -0.014338576 -0.05303013 0.027464744 -0.023630647
0002c0 64 dc 3f 3c 90 0c 74 bc a5 f7 47 bd 50 ae 29 3c
       0.01171026 -0.014895573 -0.048820157 0.010356501
0002d0 d7 9d e2 bc 6f bf 2c bd fe b0 4e bd b5 84 8c 3c
       -0.027663155 -0.042174753 -0.05046176 0.017153123
0002e0 e4 94 7d 3b 6a d0 16 bd 07 44 17 3d 48 0d 86 bd
       0.0038693482 -0.036819853 0.03693011 -0.06545502
0002f0 45 ac 89 bd b5 31 6c bd 5a 55 9c bc be 54 e8 bc
       -0.06722311 -0.05766459 -0.019083668 -0.02836072
000300 ca f5 4d bd ea d0 06 3d 4e 75 79 bc 24 97 49 bc
       -0.05028323 0.03291408 -0.0152257215 -0.012304101
000310 da 9b 04 3c 96 7c 06 be f5 08 e8 bc 35 46 b2 bd
       0.0080937985 -0.13133463 -0.028324584 -0.08704797
000320 27 17 3d bd 33 79 08 bd 6e 9b ff bc 48 ff bc bd
       -0.046164658 -0.03331871 -0.031202044 -0.092283785
000330 ff cf c1 3c ca 3c 8c bd 68 24 15 3d a1 32 42 bd
       0.02365875 -0.06847532 0.036411673 -0.047411565
000340 5f 0c a9 bd 7b 58 1b bd 1b 35 25 bd 58 42 41 bb
       -0.08254313 -0.03792618 -0.04033385 -0.0029489007
000350 c4 be 3b 3b a9 b5 44 bc 39 cb ec bc 46 39 92 bd
       0.002864764 -0.012006202 -0.028905498 -0.0713983
000360 a6 e1 b7 bd 4d 0a f6 bc 30 63 05 bd 0b 3e 16 bd
       -0.08978586 -0.030034209 -0.032565296 -0.036680263
000370 25 4e 9d bd 22 e1 64 3b 32 1e 8d bd 76 ea 2e bd
       -0.076809205 0.0034924229 -0.06890525 -0.042704068
000380 0d 22 15 bb 16 a7 a5 3b 38 1a e5 bd 2c 47 ed 3c
       -0.0022755892 0.0050553186 -0.111866415 0.028964601
000390 b4 ed b0 bd 3d c1 32 bd 55 88 eb bc 58 d6 29 bd
       -0.08639088 -0.043641318 -0.028751532 -0.04146418
0003a0 ae 64 2c bd 67 f0 30 be 14 01 73 bd 42 c5 66 3a
       -0.042088203 -0.17279206 -0.0593272 0.00088031974
0003b0 67 83 86 bd db 29 ad bc 6c df 9a bd ec 4d 0f bd
       -0.06568032 -0.021138122 -0.075621456 -0.03498642
0003c0 85 61 52 3c 8c 6c 82 3d 6d f8 42 bd 8d ba 22 bd
       0.012840633 0.0636836 -0.0476002 -0.03972869
0003d0 2b 73 19 bc 13 9b 00 bd 24 89 17 bc 66 b8 85 bd
       -0.009365837 -0.03139789 -0.0092490055 -0.06529312
0003e0 e8 14 96 bd d1 c5 9d bd 70 65 bd bd 42 54 7f bd
       -0.07328206 -0.07703746 -0.09247863 -0.062336214
0003f0 6f a6 1f bd d5 a4 ac bd 62 2e 7c bd d7 79 50 3b
       -0.038977083 -0.08429877 -0.06156767 0.0031810903

fc2.bias f4 [300]
000000 3a 4a bc bd cb ae 4f bd 97 c8 d6 bd 3a ea d1 bd
       -0.09193845 -0.050703805 -0.10487478 -0.10249753
000010 11 51 0d bc 61 59 90 bd 74 b3 bf bc da e5 cc bd
       -0.008625285 -0.07048298 -0.023401 -0.10004778
000020 9c d7 4c bd 39 03 c6 bd 56 15 13 bd 79 9f e0 bc
       -0.05001031 -0.096685834 -0.03590902 -0.027419792
000030 6a 85 40 bd d1 dc 38 bd 11 23 c0 bd eb d4 07 bd
       -0.047002234 -0.045132462 -0.093816884 -0.03316204
000040 9f b5 09 bd 0f 10 f8 bd 36 cd d0 bd e9 f4 3f bd
       -0.033620473 -0.12112438 -0.10195391 -0.046864424
000050 57 e3 39 bd 7e 37 ce 3d a8 a8 8c bd 2e a8 df bd
       -0.045382824 0.10069178 -0.06868106 -0.109207496
000060 48 fe cc 3b ed 41 fa bd 94 88 ef bd 49 57 4f bd
       0.0062558986 -0.122196056 -0.11695972 -0.05062035
000070 05 67 04 bd 43 d4 35 bd 46 5f 0a bd b0 0d 64 bd
       -0.03232481 -0.04439188 -0.033782266 -0.055677116
000080 67 19 dd bd dc 88 9e bd 2b ad 80 bd cf 66 9f bd
       -0.10795861 -0.077409476 -0.06283029 -0.07783281
000090 e4 a4 ea bc c4 38 a8 bd 73 f1 8a bd ec 83 f6 3c
       -0.02864308 -0.08213952 -0.06784334 0.030092202
0000a0 c1 f4 08 be 88 45 61 bd 10 15 d7 bc 6b 81 3d bd
       -0.13374616 -0.05499795 -0.02625516 -0.046266
0000b0 41 28 d1 bd cb d7 11 be a2 d5 0b be 39 1e 13 3d
       -0.10212756 -0.14242475 -0.13655713 0.035917494
0000c0 a8 d7 e8 3e 24 7e a9 bd 30 2e 7b bd 5c 42 85 bd
       0.45477033 -0.082760125 -0.061323345 -0.06506798
0000d0 7f 2d fb bc 9b 01 ce bc da d5 66 bd 74 07 07 bd
       -0.030661343 -0.02514725 -0.05635629 -0.032966092
0000e0 89 35 a2 bd 79 dd cc bd d0 cf 8a 3e c8 b9 fd 3e
       -0.07920367 -0.1000318 0.27111673 0.49555802
0000f0 84 f5 da 3a 7f 1c 96 bb c1 b2 ab bd d8 71 64 bd
       0.001670525 -0.0045810337 -0.08383704 -0.055772632
000100 6a 3a 45 bd f4 56 fd bc 01 84 56 bd 79 d0 e4 bd
       -0.04815141 -0.030925252 -0.052371982 -0.111725755
000110 06 de f4 bd 12 7b 55 bd 87 24 ab bd fb 4b 9e bd
       -0.1195641 -0.052119322 -0.083565764 -0.07729336
000120 07 88 9a bd a2 63 d6 bb 11 b5 f4 bd d7 31 db bd
       -0.075454764 -0.006542639 -0.11948598 -0.107028656
000130 4c ab 9a bd a3 a0 d0 bd e8 de 03 3f 6d 40 49 bc
       -0.075522035 -0.10186889 0.51512 -0.012283427
000140 6a 97 a7 bc ed bd 07 bd fe 00 90 bd 96 b0 a8 3c
       -0.020457942 -0.03314011 -0.07031439 0.020592015
000150 d6 4b 9e bd cb d9 14 be 20 1b e7 bd 72 82 a0 bc
       -0.07729308 -0.14536206 -0.112844706 -0.019593451
000160 f6 83 5d bc f1 35 e8 bd d2 10 3f bd 7a c7 86 bd
       -0.0135202315 -0.113384135 -0.0466469 -0.06581016
000170 12 63 74 bd 49 a5 d9 bd 9a 6f 90 bd aa d7 dc bc
       -0.059664793 -0.10627229 -0.07052536 -0.026958305
000180 7c 20 a7 bc e1 b4 9f 3d b9 b1 d9 bd 3a 81 59 bd
       -0.020401232 0.07798172 -0.10629601 -0.053101756
000190 6c ad 80 bd 2e b6 a8 bd d9 83 4b bd 8c 27 7d bd
       -0.062830776 -0.08237873 -0.049686287 -0.061805293
0001a0 b5 4c 7b bd 5f 2d 61 bd 6a 32 c8 bc 39 5d de bd
       -0.06135245 -0.05497491 -0.024438102 -0.108576246
0001b0 b1 e4 83 bd 4e c2 7a bd ca da 01 bd ab 11 a0 bc
       -0.06440104 -0.06122046 -0.031702794 -0.019539675
0001c0 16 39 d0 bd 80 6f 10 bd a9 17 8c bd fe e1 54 bd
       -0.10167138 -0.035262585 -0.0684045 -0.051973335
0001d0 3a 6f 03 be 0b 77 dc bc 42 a9 d2 bc 14 2c 66 bd
       -0.12835398 -0.026912233 -0.025715474 -0.05619438
0001e0 4d af a3 bd a4 e4 00 be 08 a3 86 3b a2 58 21 bd
       -0.0799242 -0.1258722 0.0041087903 -0.039391167
0001f0 c7 d4 e1 bd bf dc c5 3b 2d e3 fb bd 00 a8 95 bd
       -0.11026912 0.006038278 -0.1229919 -0.07307434
000200 c6 9f 86 3b df e8 a1 bd 98 f7 fa bd 5b de 1a bc
       0.004108402 -0.07905745 -0.12254256 -0.009452428
000210 8f ae 87 3e b8 bf 88 bd 05 86 0e be 8c 16 95 bd
       0.26500365 -0.066771924 -0.13918312 -0.07279691
000220 1e 30 e1 bd 4c c4 10 be 72 32 a0 bd 0f 64 1f bd
       -0.10995506 -0.14137381 -0.07822122 -0.038913783
000230 fc 12 6d bd 9d 8e 3f bd d9 3a dd bd 7c 2f 0d bd
       -0.057879433 -0.046766866 -0.1080224 -0.034469113
000240 e9 b7 0d bd b8 8d 78 bd 30 d3 d3 bd 21 6d b9 bd
       -0.03459922 -0.06068203 -0.10343015 -0.09054018
000250 f0 da e5 bd f1 f1 ca bd ee 24 e4 bd 37 6f eb bc
       -0.112234 -0.09909428 -0.11139856 -0.028739555
000260 5a 2d 7c bd f4 64 c9 bd 05 30 8d bd 4d ae 98 bd
       -0.061566688 -0.098337084 -0.068939246 -0.0745512
000270 0b fe 9f bd f7 f5 73 bd 4f d6 b5 bd ce 38 ee 3e
       -0.07812127 -0.059560742 -0.08878767 0.46527714
000280 1e bf b8 bd 14 c1 fe bd 15 16 19 bd 5c e0 d1 bd
       -0.09020828 -0.124391705 -0.037374575 -0.10247871
000290 78 05 a4 bd ba f4 43 bd ff b6 c8 bd e7 77 30 bd
       -0.080088556 -0.04784081 -0.09800529 -0.043083098
0002a0 51 48 6b bd f1 48 af bd e3 ac 32 3e cf b1 2f bd
       -0.057442013 -0.08558834 0.17448764 -0.04289418
0002b0 7d 0a 7f bc fc e8 d9 bd 2a 24 e5 3d 65 ef 8c bd
       -0.015566465 -0.10640141 0.11188538 -0.068815984
0002c0 33 a3 b9 bd 01 b4 25 bd ab f0 56 bd 53 d2 73 bd
       -0.09064331 -0.04045487 -0.052475613 -0.059526753
0002d0 0a 7c d2 bd a3 54 8e 3d 41 c8 bc bd 30 e2 ae bd
       -0.10277565 0.06949737 -0.09217883 -0.085392356
0002e0 c5 7e 21 be c1 fa 90 bd 66 0a 84 bd d9 44 93 bd
       -0.15771015 -0.070790775 -0.06447296 -0.07190866
0002f0 cc 96 82 bd 4d 92 ca bd ba 7e 49 bc ef 12 da bc
       -0.063764185 -0.09891186 -0.01229828 -0.026620356
000300 c7 78 a7 3e 73 23 66 bd 19 f3 8a bd 06 bf 50 bd
       0.32709333 -0.05618615 -0.067846484 -0.050963424
000310 2d f7 13 3d 1f e4 5e bd 91 24 06 3f c3 4f 8e bd
       0.036124397 -0.054416772 0.52399546 -0.06948807
000320 78 ae b8 3e 18 3c 05 bd 10 1b 13 bd fb 37 5e bd
       0.3607061 -0.032528013 -0.03591448 -0.054252606
000330 a1 db ac bd 2a 33 b6 bd 05 92 4c bd 40 9b b0 bc
       -0.084403284 -0.088964775 -0.049943943 -0.021558404
000340 55 43 85 bd 68 44 91 bd f4 eb d2 bd ec 6e e7 bc
       -0.06506983 -0.070931256 -0.10298911 -0.028251134
000350 3e 2c af bc be 7a 88 bd f6 be d3 bd 4e 87 b1 bd
       -0.021383401 -0.06664036 -0.10339157 -0.086683854
000360 59 09 85 bd 19 07 da bd a8 d6 ac bd 08 d7 0b bd
       -0.064959235 -0.10645885 -0.0843938 -0.034140617
000370 a1 2a 74 bd 88 33 2f be aa a4 6b bd 21 01 bd bd
       -0.059610967 -0.17109501 -0.057530083 -0.09228731
000380 c2 c9 f6 bc 13 65 7a bd 6c cc b9 bc ad 92 0e 3f
       -0.030125502 -0.061131548 -0.022680484 0.5569256
000390 c0 42 cb bd e3 dd d3 bd 72 16 98 bd f1 8d 77 bc
       -0.09924841 -0.10345056 -0.07426156 -0.015109525
0003a0 bf c1 a8 bb 4f cb a1 bd 82 79 3a bd 48 4a a8 bd
       -0.0051500495 -0.07900106 -0.045526035 -0.08217293
0003b0 0b 99 07 be 4e 44 a4 bc 5f 19 89 bd d5 7c c7 bd
       -0.13241975 -0.020052101 -0.06694292 -0.09740607
0003c0 c8 ff fc bd 69 11 e1 bd 3e 64 99 bc 56 ed dd bd
       -0.12353474 -0.10989649 -0.018724557 -0.10836284
0003d0 2d 51 e2 bd ba b3 a6 bd e7 dc cd bd 87 2b 8d bd
       -0.11050639 -0.08139749 -0.100518994 -0.06893068
0003e0 3f ed 85 bd e7 ea 78 bc ff a1 ff bd 08 ae a5 bd
       -0.06539392 -0.015192724 -0.1248207 -0.080898345
0003f0 fb 43 2e bd c2 bf 1d bb a7 b6 9f bd ad 0a 39 bd
       -0.0425453 -0.0024070595 -0.0779851 -0.045176197

fc3.weight f4 [1, 300]
000000 33 ca 85 3c e7 40 14 bc 34 a8 88 bc ed db 07 bd
       0.016331768 -0.009048677 -0.016681768 -0.033168722
000010 82 4b 0d bd 7c 1d 0c 3c 6c b3 83 bc 39 18 0e 3b
       -0.034495838 0.0085519515 -0.016076766 0.0021681918
000020 42 b9 aa bc d0 37 0a bc 4a 14 8d bc 59 c2 df 39
       -0.020840291 -0.008436158 -0.017221589 0.00042678675
000030 6c d4 b9 3a ea 57 b3 bc 2e c3 ab 3b 10 12 ed 3b
       0.0014177687 -0.021892507 0.005241773 0.0072348192
000040 5d 41 4b bc ce eb 2b bc f0 ba 83 bb 78 44 a0 38
       -0.012405721 -0.010493232 -0.0040200874 7.642148e-05
000050 eb 07 af bb f4 b5 cd 3c e0 cc 83 3c e9 62 bf bc
       -0.00534152 0.025111176 0.016088903 -0.023362594
000060 7c bc 61 bd d1 81 17 bc 5f 47 08 ba 2d b5 88 bc
       -0.055111393 -0.009247259 -0.00051986234 -0.016687954
000070 e2 27 aa 3b a3 c6 64 3b d3 b5 bc bc 4b 46 28 bb
       0.0051927427 0.0034908436 -0.02303592 -0.0025676663
000080 2c 77 2f bc ac fd 8b 3b 00 6e f5 bc 2a da 5b bc
       -0.010709565 0.0042721834 -0.029959679 -0.013418714
000090 36 d9 b9 3b 64 55 0e bc 4b 14 e8 bc e9 b9 23 3d
       0.0056716455 -0.008687351 -0.028329989 0.03997222
0000a0 17 05 61 b9 63 dc 5d bc e1 2c a1 bc 81 4a 2c bc
       -0.00021459568 -0.013541314 -0.01967472 -0.01051581
0000b0 1b 13 a9 3c f0 8c b2 3c 11 c4 59 3c 17 38 df 3d
       0.020638993 0.02179572 0.013291375 0.1089937
0000c0 df ae 14 3d 8a 77 47 3c fb ad a4 bc cb d6 a4 bc
       0.036299583 0.012174496 -0.020102492 -0.020121953
0000d0 39 70 d7 3c ac 6f a7 3c da d8 62 bc a2 19 0d ba
       0.02629863 0.020438991 -0.013845647 -0.0005382543
0000e0 34 80 62 3c d7 b2 97 3c f4 f8 0d 3d b1 f6 14 3d
       0.013824511 0.018517895 0.03466125 0.036368076
0000f0 f0 01 71 3d 1d 3a 9a 3c 60 d6 0f 3b be 90 3d bc
       0.05883974 0.018826539 0.0021947846 -0.011570154
000100 86 48 44 bc 4f f3 83 bc 9b b1 5d bc d7 99 87 3c
       -0.011980182 -0.01610723 -0.013531114 0.016552849
000110 93 f6 4d 3c ce 45 88 bc c2 19 27 3b 94 da 97 3c
       0.012570995 -0.016634848 0.002549753 0.018536843
000120 b4 60 c4 3c 31 51 27 bc 24 40 69 ba 95 27 ff 3b
       0.023971893 -0.010212229 -0.00088978023 0.007786701
000130 d9 b8 a8 bc c4 b3 f7 ba 43 2f 28 3d 06 9c 49 bd
       -0.020595955 -0.0018898179 0.041060697 -0.04922106
000140 b3 c0 92 bc 0e 9d 8a bc a6 cb d9 bc 1a d6 c9 3c
       -0.017914152 -0.016920593 -0.026586365 0.024638224
000150 2c fd c6 3c 60 db 00 3d 92 10 f9 bb 31 8b ca 3b
       0.024290644 0.031459212 -0.0076008523 0.0061811437
000160 3e 8f 72 bc be 8d 07 bc 90 00 53 3c aa 82 01 3a
       -0.014804659 -0.00827354 0.012878552 0.000494043
000170 3b a2 87 3c 77 e4 0e 3c 39 40 e3 b9 76 85 1b bd
       0.01655685 0.008721462 -0.00043344664 -0.037969075
000180 58 d7 24 ba b0 aa 24 3d 1c 75 bc 3c 35 a3 9f bb
       -0.0006288192 0.040201843 0.02300506 -0.0048717507
000190 22 ac 25 3c ac 12 ca 3a 16 0a ae 3c 5a eb d8 bb
       0.01011184 0.0015416942 0.021245044 -0.006619853
0001a0 2d dc 4c bc 66 1b 95 3b 5d 84 7b 3a 7d d1 f1 3b
       -0.012503666 0.0045503853 0.0009594614 0.0073797093
0001b0 36 ec 14 bb d1 33 73 3a b5 13 0f bd c3 7c 76 bb
       -0.00227238 0.00092774356 -0.034930903 -0.0037610985
0001c0 1a 06 ee bc 60 17 be 3d 3f b8 9f 3c 5a 64 8d bb
       -0.029055644 0.09281802 0.019497035 -0.0043149414
0001d0 de 9f 08 3d 60 fa 7a 3c bc ff b4 bc f4 21 63 3c
       0.033355586 0.015318483 -0.0220946 0.0138630755
0001e0 74 4a 94 3c 43 e4 de bc 43 40 4f 3a af 96 0a 3b
       0.018101908 -0.027208453 0.0007905999 0.0021146943
0001f0 b8 8e 1c bc 78 0e a9 3b 7c db 53 bc d1 f3 f6 ba
       -0.009555511 0.0051591955 -0.012930747 -0.0018840973
000200 a1 05 f5 39 d4 26 e0 3c 50 b7 8b 3c 12 22 63 bb
       0.00046734235 0.027362265 0.017055184 -0.0034657759
000210 91 ed 6c 3d 62 01 95 3c 7c 41 eb bc 0f e1 9d bb
       0.05784375 0.018189136 -0.028717749 -0.004818089
000220 c6 b2 94 bc 78 ab ab 3b 4a 2c b2 bc b8 e1 80 3c
       -0.018151652 0.0052389465 -0.021749634 0.015732631
000230 67 5f c1 3c 93 2d a1 bb 40 23 ad 3c fe dd 09 3b
       0.023605062 -0.004918763 0.021134973 0.0021036859
000240 b5 c6 81 bc 05 51 20 3c 8b af e4 bc 2f 47 ce 3a
       -0.015841821 0.009784942 -0.027915737 0.0015737767
000250 e6 72 be bc 4f bd e3 3c 11 94 23 3b 21 f9 e6 3b
       -0.023248147 0.02780023 0.002496008 0.0070487414
000260 d6 3d 82 3c fa be 43 bb a6 cd c5 3c 7f ff 76 3c
       0.015898626 -0.002986847 0.024145912 0.015075563
000270 5f 35 ab bc 67 df 76 3c ca 59 00 bc 1a 45 20 bc
       -0.020899473 0.015067912 -0.007833907 -0.0097821
000280 59 7d 0b 3b 6c aa a7 3c 53 49 83 3b 44 16 13 3c
       0.002128443 0.020467006 0.0040065437 0.0089774765
000290 4f c8 df 3c a9 ec e6 ba c0 0e 03 bc ac 90 d8 3c
       0.027317194 -0.0017618138 -0.007999122 0.026436172
0002a0 25 57 23 3c 87 5b 14 bc 4f fb ad 3d 5a 07 53 3c
       0.009969507 -0.009055025 0.08495199 0.012880171
0002b0 98 19 6c bc 3d d3 ed bb 62 be 44 3d e9 a2 bd bb
       -0.014410399 -0.0072578476 0.048033126 -0.0057872427
0002c0 20 ef e2 3b a3 35 1b bb 76 1a e1 3c bd a6 5e 3c
       0.0069254786 -0.0023683093 0.027478438 0.013589558
0002d0 53 9f 5a 3c a4 03 2f bd c9 12 a3 bc c5 64 c1 3c
       0.01334365 -0.04272808 -0.019906418 0.023607621
0002e0 a9 6d 68 bc ac ba 1b 3c 7b 17 8f 3c b2 30 0f bd
       -0.014186301 0.009504955 0.017467251 -0.03495855
0002f0 4d 8e 50 bc 12 c8 a0 bc a2 0f 80 3c c2 37 8a bc
       -0.01272924 -0.019626651 0.015632454 -0.01687229
000300 fb 25 94 3d 9c 85 84 bc 41 d3 77 bb d1 bb 77 bc
       0.07233807 -0.016176991 -0.0037815126 -0.0151204625
000310 4d 4e 8c 3d 2a cf 36 bc af 8e 18 3d 17 dd 83 3c
       0.06850872 -0.01115779 0.03724545 0.016096635
000320 91 22 74 3d 47 d0 3a 3b 13 40 c8 3c 26 3d e8 bc
       0.059603278 0.002850549 0.024444615 -0.02834947
000330 2f da 89 3c 1d 66 9d bc 6a 92 46 bb 98 84 f6 3c
       0.01682767 -0.01921373 -0.0030299672 0.030092523
000340 5b 6f 69 bc e6 84 25 3b da 99 ec 3a fb fd ef bb
       -0.014247741 0.0025256216 0.0018051222 -0.007323978
000350 77 73 d2 3b 53 cd 15 3c 4b 0c 95 ba 2e 38 4e bc
       0.006422456 0.009143191 -0.0011371461 -0.0125866365
000360 de e2 d1 bc f6 22 d0 3b 03 cc d2 3c a7 5e 87 bc
       -0.025620874 0.006351824 0.025732046 -0.016524626
000370 ca 8f c6 3b 32 fa 76 ba 2d 1b 17 bc 1c 4b 98 bc
       0.0060596215 -0.0009421437 -0.009222788 -0.018590502
000380 d0 7f 53 3d 48 6b 7a bc 66 00 c0 3c 0e a3 01 3d
       0.051635563 -0.015284367 0.02343769 0.03164964
000390 59 83 c2 3c 49 11 99 3c 81 7b 1b 3c b2 fc 3b ba
       0.023744272 0.018685 0.009489895 -0.00071711384
0003a0 4d b2 9c b9 28 ec 4c 3c 8f 2c 1b bc 8d d6 bc bc
       -0.00029887483 0.012507476 -0.009471073 -0.023051525
0003b0 cf 6e a4 bc 65 17 06 bd 60 a0 a6 3c e1 16 89 3b
       -0.020072369 -0.032737155 0.020340145 0.0041836356
0003c0 8e 8d bd 3c e8 f2 60 3c d0 80 aa bc 6d bc ba 3c
       0.023138788 0.013729788 -0.020813376 0.022794927
0003d0 a1 f3 92 bc 26 6d 78 bc 8c 32 65 bb c8 0a 93 3b
       -0.017938437 -0.015162742 -0.0034972755 0.004487369
0003e0 01 83 d2 3c ff 51 78 bc 6a c8 24 3d d9 3b bf 3c
       0.025697233 -0.015156268 0.040230192 0.023343967
0003f0 6d 79 78 bc 28 62 0d 3b 12 1f c1 bb 7c 5c 5b ba
       -0.015165669 0.0021573398 -0.0058935964 -0.0008367968

bn1.weight f4 [300]
000000 78 e1 1e 3e 18 30 68 3f 6d fc 2f 3f 26 ac d4 3e
       0.15515697 0.90698385 0.68744546 0.4153759
000010 d0 97 ef 3e 30 73 9e 3e 24 18 21 3f 26 e9 d9 3e
       0.4679551 0.30947256 0.6292746 0.4256069
000020 74 9c 13 3e 93 1a 23 3f 00 2d 4d 3f 90 35 12 3e
       0.14415151 0.63712424 0.8014679 0.14278245
000030 3a 19 02 3f c8 12 7a 3f 27 57 51 3f b0 aa 02 3f
       0.5081974 0.9768491 0.8177361 0.510417
000040 90 a3 a7 3e bc 64 43 3f a2 89 44 3f ea c9 02 3f
       0.32741976 0.76325583 0.7677251 0.51089346
000050 84 a7 06 3e 0e dc c6 3e f5 51 38 3f e6 93 1d 3f
       0.1314984 0.38839763 0.72000057 0.615538
000060 c4 b9 60 3e 20 42 5c 3d c9 78 5b 3f c5 bb 43 3f
       0.21945864 0.053774 0.8573118 0.7645839
000070 da 96 da 3e d5 47 30 3f 4c 63 1d 3e 3b fd 26 3f
       0.42693216 0.68859607 0.1536991 0.6523015
000080 d4 86 9b 3e 68 d6 ab 3e 42 7f c8 3e 54 0c 3a 3e
       0.30376303 0.33562016 0.3915959 0.18168765
000090 c3 58 68 3f 66 33 94 3e bf 06 69 3f 99 b3 5e 3f
       0.9076044 0.28945464 0.9102592 0.86992794
0000a0 a0 6e fd 3d 91 b0 03 3f f0 4f a0 3e 28 fb 10 3f
       0.12374616 0.51441294 0.31310987 0.56633234
0000b0 84 bb 7d 3e 39 8c 57 3f da a6 18 3f a4 69 89 3e
       0.24778563 0.8419834 0.59629595 0.2683841
0000c0 88 c3 7d 3f f4 6d 96 3e 9a eb 7f 3f e0 07 fb 3d
       0.9912648 0.29380763 0.99968874 0.122573614
0000d0 79 ea 39 3f b9 e9 0f 3f b0 cb 1e 3f 10 53 4b 3e
       0.726234 0.5621601 0.6202955 0.19855905
0000e0 5c 71 84 3e 02 c8 5e 3f 08 04 3f 3e 47 c0 47 3f
       0.25867736 0.8702394 0.18653882 0.78027767
0000f0 96 12 c2 3e 14 b2 37 3e 6e 08 8f 3e 1a e3 ac 3e
       0.37904805 0.17939025 0.2793612 0.33767015
000100 45 90 78 3f 11 da 42 3f a7 bb 27 3f 68 a5 fd 3d
       0.9709514 0.7611399 0.6552071 0.12385064
000110 c2 9c 4c 3f 55 52 3f 3f c8 55 d2 3d 50 7a f0 3e
       0.79926693 0.74735004 0.10270268 0.46968317
000120 d5 e6 34 3f 78 00 d8 3e 90 0a 79 3d f2 df a3 3e
       0.7066472 0.42187858 0.06080109 0.32006794
000130 34 8b 25 3e 28 9b ca 3d 00 b4 a7 3a eb 13 50 3f
       0.16166383 0.09892875 0.0012794733 0.8128039
000140 e8 c2 c6 3d fa 39 b5 3e a4 2b 43 3f 32 39 ca 3e
       0.09705144 0.35395795 0.76238465 0.39496762
000150 bc 42 c0 3e cc 92 0c 3e 78 69 79 3f 00 5b a5 3c
       0.37550914 0.13727874 0.9742656 0.020184994
000160 90 53 87 3e 7e 2c 7d 3f 8c 25 2f 3e 36 92 c6 3e
       0.2643094 0.98896015 0.17104167 0.38783425
000170 3e ae 8f 3e 8d 8d 22 3f 06 b1 ab 3e 44 80 19 3f
       0.28062624 0.6349724 0.33533496 0.5996134
000180 8e 55 49 3f 88 0a 0d 3e 20 4a 6a 3f c8 36 ca 3d
       0.7864617 0.13773549 0.91519356 0.0987373
000190 ac 19 f0 3e 80 7b 05 3c 91 d4 22 3f 70 8e b3 3d
       0.46894586 0.0081471205 0.636056 0.08767402
0001a0 76 c9 0c 3f 3c 83 35 3f 7d 00 62 3f 45 cd 3e 3f
       0.54994905 0.7090337 0.88281995 0.74531966
0001b0 ef 9a 71 3f 5a 97 80 3e 58 4b 36 3e 7e cd 38 3f
       0.94377035 0.25115472 0.17802179 0.72188556
0001c0 9c eb c3 3e 40 79 a3 3e e8 cf d4 3e 02 ff d2 3e
       0.38265693 0.31928444 0.4156487 0.4121018
0001d0 30 8f 9e 3d d8 71 19 3e 58 c9 3e 3f 68 15 d4 3e
       0.077421546 0.14984834 0.74525976 0.41422582
0001e0 0b e2 52 3f 55 85 09 3f 5c a0 45 3f c4 1b 07 3f
       0.82376164 0.53719074 0.77197814 0.5277674
0001f0 0d 3e 33 3f f4 09 5d 3e 64 db 36 3f 0c 4c 3d 3e
       0.70016557 0.21585828 0.71428514 0.18486041
000200 a0 be a9 3e b3 74 76 3f 10 de c3 3e fc a5 42 3f
       0.33153248 0.9627182 0.38255358 0.7603452
000210 79 fc 21 3f 3e f6 fe 3e cc 72 ec 3e 76 97 d7 3e
       0.6327587 0.49797243 0.46181333 0.42107743
000220 42 f8 8c 3e 12 a3 08 3f 12 32 7b 3f a8 19 63 3f
       0.27533156 0.53373826 0.98123276 0.88711023
000230 56 0b 24 3f 96 5b ea 3e 25 1c 1a 3f 82 2d 4a 3f
       0.640798 0.45773 0.60199195 0.7897569
000240 e1 5f 4e 3f c1 e4 1a 3f 65 1e 0e 3f 0c 18 17 3f
       0.8061505 0.605053 0.5551513 0.5902107
000250 e6 24 eb 3e 0d 9f 7b 3f 5e f7 1a 3f fc 12 77 3e
       0.4592659 0.9828957 0.605337 0.24128336
000260 28 f6 62 3e 58 27 f7 3d bd 29 4f 3f 00 f8 8b 39
       0.22164214 0.12068051 0.8092306 0.0002669692
000270 22 0c a9 3e dc 3f 8c 3e e8 4a da 3e b8 f9 5a 3e
       0.3301707 0.2739247 0.42635274 0.21384323
000280 fa da 83 3e 23 73 16 3f 1a db ca 3e 7c 4c a8 3e
       0.25753003 0.58769435 0.39620286 0.32870853
000290 25 97 6e 3f 00 27 11 3e d4 8f 8b 3e 43 fb 33 3f
       0.9319938 0.14175034 0.2725817 0.7030527
0002a0 5e c6 e8 3e c2 c9 ff 3e ba 47 79 3f e0 4c 39 3e
       0.45463842 0.49958616 0.9737507 0.18095732
0002b0 b4 46 6b 3e b1 5c 24 3f 48 52 15 3e 18 6b 74 3f
       0.2297619 0.64203936 0.14582169 0.9547591
0002c0 74 dc 43 3f 80 40 ee 3b ed d8 02 3f e8 92 a0 3d
       0.7650826 0.0072708726 0.5111225 0.0784052
0002d0 8c 00 42 3e 7d a0 51 3f 04 9a 70 3f 6c 83 1e 3e
       0.18945521 0.8188551 0.9398501 0.15479821
0002e0 d9 8b 3a 3f 44 7f cf 3e b4 9b 93 3e aa cb 32 3f
       0.7286964 0.40526783 0.2882973 0.69842017
0002f0 fa 50 b3 3e 58 43 a3 3d 18 15 b3 3d 58 bf 83 3d
       0.35022718 0.07971829 0.08744258 0.0643298
000300 5a b8 65 3f 2a cb 8d 3e 1e 23 62 3f 16 4b e5 3e
       0.89734423 0.27694064 0.88334835 0.4478385
000310 be c9 57 3f ce cd 86 3e 31 ee 78 3f d0 ff 41 3f
       0.8429221 0.26328892 0.9723845 0.75780964
000320 ad 85 6d 3f d4 17 88 3e 54 1c cd 3e 2a 79 14 3f
       0.927821 0.2658068 0.40060675 0.5799738
000330 df 5c 48 3f 5b 47 71 3f 72 4d 95 3e ab 32 76 3f
       0.7826671 0.94249505 0.2916065 0.96171063
000340 d2 be ba 3e 56 3b 21 3f d2 19 21 3f aa ab 45 3f
       0.3647371 0.62981164 0.62930024 0.77215064
000350 df 61 75 3f 60 f2 b0 3d 80 10 79 3e e4 ae 76 3e
       0.95852464 0.08639979 0.243227 0.24090153
000360 24 38 a1 3e 2b 5e 20 3f f0 f5 ce 3d 28 32 ae 3d
       0.31488144 0.6264369 0.101055026 0.0850566
000370 9e e7 1d 3f 34 ae 58 3e 18 e7 fc 3e e2 ef 5d 3f
       0.61681545 0.21160203 0.4939506 0.8669416
000380 80 5e bf 3e 19 72 7b 3f fa 59 45 3f b7 f0 25 3f
       0.37376785 0.98220974 0.7709042 0.64820427
000390 aa 9d 39 3f e0 3f 68 3e 8c 50 06 3e b4 4a 60 3e
       0.725062 0.22680616 0.13116664 0.21903497
0003a0 c0 61 ea 3e f4 5e 30 3f e4 25 87 3e 60 f6 99 3c
       0.45777702 0.68894887 0.26396096 0.018794239
0003b0 64 65 bb 3e 98 b6 32 3e a1 e3 5a 3f 55 43 64 3f
       0.36600792 0.17452466 0.85503584 0.8916524
0003c0 cc 2e 25 3f 93 14 5e 3f 90 8f a9 3e fb 9a 02 3f
       0.6452453 0.86750144 0.33117342 0.5101773
0003d0 24 4d 3c 3f 87 c9 5b 3f 90 ad e7 3d 43 ad 35 3f
       0.7355521 0.8585438 0.11312401 0.709675
0003e0 7e b1 2a 3f 62 05 e5 3e b6 16 44 3f 28 24 fe 3e
       0.6667708 0.4473067 0.76597154 0.4963696
0003f0 06 eb bc 3e a4 45 e9 3e 38 d6 b6 3d b0 3c 27 3f
       0.3689806 0.45560944 0.08927578 0.65326977

bn1.bias f4 [300]
000000 00 00 00 00 00 00 00 00 00 00 00 00 00 00 00 00
       0.0 0.0 0.0 0.0
000010 00 00 00 00 00 00 00 00 00 00 00 00 00 00 00 00
       0.0 0.0 0.0 0.0
000020 00 00 00 00 00 00 00 00 00 00 00 00 00 00 00 00
       0.0 0.0 0.0 0.0
000030 00 00 00 00 00 00 00 00 00 00 00 00 00 00 00 00
       0.0 0.0 0.0 0.0
000040 00 00 00 00 00 00 00 00 00 00 00 00 00 00 00 00
       0.0 0.0 0.0 0.0
000050 00 00 00 00 00 00 00 00 00 00 00 00 00 00 00 00
       0.0 0.0 0.0 0.0
000060 00 00 00 00 00 00 00 00 00 00 00 00 00 00 00 00
       0.0 0.0 0.0 0.0
000070 00 00 00 00 00 00 00 00 00 00 00 00 00 00 00 00
       0.0 0.0 0.0 0.0
000080 00 00 00 00 00 00 00 00 00 00 00 00 00 00 00 00
       0.0 0.0 0.0 0.0
000090 00 00 00 00 00 00 00 00 00 00 00 00 00 00 00 00
       0.0 0.0 0.0 0.0
0000a0 00 00 00 00 00 00 00 00 00 00 00 00 00 00 00 00
       0.0 0.0 0.0 0.0
0000b0 00 00 00 00 00 00 00 00 00 00 00 00 00 00 00 00
       0.0 0.0 0.0 0.0
0000c0 00 00 00 00 00 00 00 00 00 00 00 00 00 00 00 00
       0.0 0.0 0.0 0.0
0000d0 00 00 00 00 00 00 00 00 00 00 00 00 00 00 00 00
       0.0 0.0 0.0 0.0
0000e0 00 00 00 00 00 00 00 00 00 00 00 00 00 00 00 00
       0.0 0.0 0.0 0.0
0000f0 00 00 00 00 00 00 00 00 00 00 00 00 00 00 00 00
       0.0 0.0 0.0 0.0
000100 00 00 00 00 00 00 00 00 00 00 00 00 00 00 00 00
       0.0 0.0 0.0 0.0
000110 00 00 00 00 00 00 00 00 00 00 00 00 00 00 00 00
       0.0 0.0 0.0 0.0
000120 00 00 00 00 00 00 00 00 00 00 00 00 00 00 00 00
       0.0 0.0 0.0 0.0
000130 00 00 00 00 00 00 00 00 00 00 00 00 00 00 00 00
       0.0 0.0 0.0 0.0
000140 00 00 00 00 00 00 00 00 00 00 00 00 00 00 00 00
       0.0 0.0 0.0 0.0
000150 00 00 00 00 00 00 00 00 00 00 00 00 00 00 00 00
       0.0 0.0 0.0 0.0
000160 00 00 00 00 00 00 00 00 00 00 00 00 00 00 00 00
       0.0 0.0 0.0 0.0
000170 00 00 00 00 00 00 00 00 00 00 00 00 00 00 00 00
       0.0 0.0 0.0 0.0
000180 00 00 00 00 00 00 00 00 00 00 00 00 00 00 00 00
       0.0 0.0 0.0 0.0
000190 00 00 00 00 00 00 00 00 00 00 00 00 00 00 00 00
       0.0 0.0 0.0 0.0
0001a0 00 00 00 00 00 00 00 00 00 00 00 00 00 00 00 00
       0.0 0.0 0.0 0.0
0001b0 00 00 00 00 00 00 00 00 00 00 00 00 00 00 00 00
       0.0 0.0 0.0 0.0
0001c0 00 00 00 00 00 00 00 00 00 00 00 00 00 00 00 00
       0.0 0.0 0.0 0.0
0001d0 00 00 00 00 00 00 00 00 00 00 00 00 00 00 00 00
       0.0 0.0 0.0 0.0
0001e0 00 00 00 00 00 00 00 00 00 00 00 00 00 00 00 00
       0.0 0.0 0.0 0.0
0001f0 00 00 00 00 00 00 00 00 00 00 00 00 00 00 00 00
       0.0 0.0 0.0 0.0
000200 00 00 00 00 00 00 00 00 00 00 00 00 00 00 00 00
       0.0 0.0 0.0 0.0
000210 00 00 00 00 00 00 00 00 00 00 00 00 00 00 00 00
       0.0 0.0 0.0 0.0
000220 00 00 00 00 00 00 00 00 00 00 00 00 00 00 00 00
       0.0 0.0 0.0 0.0
000230 00 00 00 00 00 00 00 00 00 00 00 00 00 00 00 00
       0.0 0.0 0.0 0.0
000240 00 00 00 00 00 00 00 00 00 00 00 00 00 00 00 00
       0.0 0.0 0.0 0.0
000250 00 00 00 00 00 00 00 00 00 00 00 00 00 00 00 00
       0.0 0.0 0.0 0.0
000260 00 00 00 00 00 00 00 00 00 00 00 00 00 00 00 00
       0.0 0.0 0.0 0.0
000270 00 00 00 00 00 00 00 00 00 00 00 00 00 00 00 00
       0.0 0.0 0.0 0.0
000280 00 00 00 00 00 00 00 00 00 00 00 00 00 00 00 00
       0.0 0.0 0.0 0.0
000290 00 00 00 00 00 00 00 00 00 00 00 00 00 00 00 00
       0.0 0.0 0.0 0.0
0002a0 00 00 00 00 00 00 00 00 00 00 00 00 00 00 00 00
       0.0 0.0 0.0 0.0
0002b0 00 00 00 00 00 00 00 00 00 00 00 00 00 00 00 00
       0.0 0.0 0.0 0.0
0002c0 00 00 00 00 00 00 00 00 00 00 00 00 00 00 00 00
       0.0 0.0 0.0 0.0
0002d0 00 00 00 00 00 00 00 00 00 00 00 00 00 00 00 00
       0.0 0.0 0.0 0.0
0002e0 00 00 00 00 00 00 00 00 00 00 00 00 00 00 00 00
       0.0 0.0 0.0 0.0
0002f0 00 00 00 00 00 00 00 00 00 00 00 00 00 00 00 00
       0.0 0.0 0.0 0.0
000300 00 00 00 00 00 00 00 00 00 00 00 00 00 00 00 00
       0.0 0.0 0.0 0.0
000310 00 00 00 00 00 00 00 00 00 00 00 00 00 00 00 00
       0.0 0.0 0.0 0.0
000320 00 00 00 00 00 00 00 00 00 00 00 00 00 00 00 00
       0.0 0.0 0.0 0.0
000330 00 00 00 00 00 00 00 00 00 00 00 00 00 00 00 00
       0.0 0.0 0.0 0.0
000340 00 00 00 00 00 00 00 00 00 00 00 00 00 00 00 00
       0.0 0.0 0.0 0.0
000350 00 00 00 00 00 00 00 00 00 00 00 00 00 00 00 00
       0.0 0.0 0.0 0.0
000360 00 00 00 00 00 00 00 00 00 00 00 00 00 00 00 00
       0.0 0.0 0.0 0.0
000370 00 00 00 00 00 00 00 00 00 00 00 00 00 00 00 00
       0.0 0.0 0.0 0.0
000380 00 00 00 00 00 00 00 00 00 00 00 00 00 00 00 00
       0.0 0.0 0.0 0.0
000390 00 00 00 00 00 00 00 00 00 00 00 00 00 00 00 00
       0.0 0.0 0.0 0.0
0003a0 00 00 00 00 00 00 00 00 00 00 00 00 00 00 00 00
       0.0 0.0 0.0 0.0
0003b0 00 00 00 00 00 00 00 00 00 00 00 00 00 00 00 00
       0.0 0.0 0.0 0.0
0003c0 00 00 00 00 00 00 00 00 00 00 00 00 00 00 00 00
       0.0 0.0 0.0 0.0
0003d0 00 00 00 00 00 00 00 00 00 00 00 00 00 00 00 00
       0.0 0.0 0.0 0.0
0003e0 00 00 00 00 00 00 00 00 00 00 00 00 00 00 00 00
       0.0 0.0 0.0 0.0
0003f0 00 00 00 00 00 00 00 00 00 00 00 00 00 00 00 00
       0.0 0.0 0.0 0.0
