checkpoint_actor.pth (torch_old, 9874 bytes, 6 tensors)

fc1.weight f4 [24, 33]
0	0x3c91f696	0.017817777
1	0xbea26f66	-0.31725615
2	0x3dabd8d6	0.083909675
3	0x3ef753a4	0.48306
4	0x3edd1164	0.4317733
5	0x3e4aba82	0.1979771
6	0xbea78919	-0.32721785
7	0xbe1dc993	-0.15408926
8	0xbda54217	-0.08069246
9	0xbe3b93f0	-0.18318152
10	0x3db8ea97	0.090291195
11	0xbd745568	-0.059651762
12	0xbe2b8fe3	-0.16754107
13	0xbe85c826	-0.26129264
14	0xbcb1e807	-0.021717085
15	0xbe8ede60	-0.27904034
16	0x3ee9b7ea	0.45648128
17	0xbbc4e95a	-0.006009263
18	0xbdccb28a	-0.09994991
19	0xbdc31ff8	-0.09527582
20	0x3df479d9	0.11937303
21	0xbecc3106	-0.39881152
22	0xbe5eb05a	-0.2174696
23	0x3ebf3efa	0.37352735
24	0x3e5548d5	0.20828564
25	0xbdd09a5e	-0.10185693
26	0x3e5e1c9f	0.21690606
27	0xbcc4ffe8	-0.024047807
28	0x3d43b5e1	0.047780875
29	0xbe267c67	-0.16258393
30	0xbdca311f	-0.0987265
31	0xbe0fe96b	-0.14053886
32	0xbe52ad12	-0.20573834
33	0x3d1995f2	0.037496515
34	0x3dbc487e	0.09193514
35	0x3dbb5f90	0.091490865
36	0xbe3df7bb	-0.18551533
37	0xbd892e42	-0.06698276
38	0xbe72b241	-0.23700811
39	0xbcc73ca2	-0.024320904
40	0x3ed1bf7d	0.40966406
41	0x3c266812	0.010156648
42	0x3dce455c	0.10071823
43	0xbdfa6e6b	-0.12228092
44	0x3b7b0ab8	0.003830595
45	0x3ddb374d	0.10703907
46	0xbdf1e9bd	-0.1181216
47	0x3ea7a630	0.32743979
48	0x3e005c83	0.1253529
49	0xbea3518c	-0.31898153
50	0x3ea08e36	0.31358498
51	0x3b9219af	0.004458628
52	0xbe24e57d	-0.16103168
53	0x3cf5eb83	0.030019527
54	0x3e13164e	0.14363977
55	0x3ec996b6	0.39372796
56	0xbe5776a5	-0.21041353
57	0xbe5aba2b	-0.2136008
58	0x3e83e794	0.25762618
59	0xbc43a502	-0.011941196
60	0xbe4ad64b	-0.19808309
61	0xbeac6470	-0.33670378
62	0x3b93a1a0	0.004505351
63	0x3ebf1eeb	0.37328276
64	0xbd36c6bc	-0.04462312
65	0xbea4df84	-0.3220178
66	0x3e1426a1	0.14467861
67	0x3db8ccae	0.090234146
68	0xbdeff7c7	-0.11717182
69	0x3da2dbcd	0.0795208
70	0xbd5a7030	-0.053329647
71	0xbc6ea17e	-0.01456487
72	0x3e1d39f1	0.15354134
73	0xbc08b004	-0.008342747
74	0xbdff9b06	-0.1248074
75	0x3eb99927	0.36249658
76	0xbea39f28	-0.31957364
77	0x3e91f2de	0.28505605
78	0x3e0593be	0.1304464
79	0x3e3cdf0e	0.18444464
80	0x3e44ed7d	0.1923122
81	0xbe52a013	-0.20568876
82	0x3e4c5076	0.19952568
83	0x3cde38cc	0.027126692
84	0x3e18e712	0.14931896
85	0x3e2abb5d	0.16673036
86	0x3e1c15da	0.1524271
87	0xbe95dcb6	-0.29269952
88	0xbdf5ba0e	-0.11998378
89	0xbe5fab5b	-0.2184271
90	0x3e3837d4	0.17990047
91	0x3e0c5e50	0.13707852
92	0x3de13bbe	0.10997723
93	0xbe80abb9	-0.25131014
94	0xbe48f8e3	-0.19626193
95	0xbdf6df2f	-0.12054288
96	0x3e5ed3e9	0.21760525
97	0x3d824238	0.063602865
98	0x3e14ec6e	0.14543316
99	0xbe029e2d	-0.12755652
100	0xbee72d40	-0.4515171
101	0x3d5bb01b	0.053634744
102	0x3ea13a8c	0.3148998
103	0xbd654f17	-0.05598363
104	0xbd9c563b	-0.07633635
105	0xbed9683b	-0.42462334
106	0x3da83f65	0.082152165
107	0x3cbaa7f8	0.022785172
108	0xbd29c65a	-0.04144893
109	0x3e2b36aa	0.16720071
110	0x3d1d9b22	0.038478024
111	0xbe84c6bf	-0.2593288
112	0xbe8a62f2	-0.27028614
113	0xbe943f23	-0.2895442
114	0xbd2b224d	-0.04178076
115	0x3e3ee656	0.18642554
116	0xbc9843ec	-0.018587075
117	0x3e91c308	0.2846911
118	0xbe353a95	-0.17698129
119	0x3de80c72	0.11330499
120	0xbe2a940c	-0.16658038
121	0xbd642b09	-0.055705104
122	0x3db4aa83	0.08821585
123	0xbdb13918	-0.08653468
124	0xbe74f011	-0.23919703
125	0xbe11c38f	-0.14234756
126	0xbe93475b	-0.28765377
127	0xbd5780da	-0.052613117
128	0x3d0b5988	0.03402093
129	0x3e43dbe5	0.19126852
130	0xbce53d20	-0.027983248
131	0x3dff6b7c	0.12471673
132	0xbcd0ef8a	-0.025504846
133	0x3ddffe10	0.109371305
134	0xbd718ca9	-0.058972035
135	0x3da4aefa	0.08041187
136	0x3e8a5b17	0.2702262
137	0x3d2de165	0.04245128
138	0xbe323d5c	-0.17406219
139	0x3da2c1b5	0.07947103
140	0xbe8b3e0b	-0.27195773
141	0xbe89968b	-0.26872668
142	0x3e980f28	0.29699063
143	0xbd099b70	-0.033595502
144	0xbcfc38f0	-0.030788869
145	0x3d435838	0.047691554
146	0xbbc5ed99	-0.0060402867
147	0xbca791ad	-0.020455206
148	0x3d670741	0.056403402
149	0x3d933b98	0.07189101
150	0x3c012623	0.007882628
151	0xbe17ebff	-0.14836119
152	0xbc210404	-0.009827618
153	0xbe1720ff	-0.14758681
154	0x3e2fe1a8	0.17175925
155	0x3e6c668c	0.23085994
156	0x3ea6539a	0.32485658
157	0xbe3f1828	-0.18661559
158	0xbed0fbbf	-0.40817067
159	0xbe7727b0	-0.24136233
160	0xbde53fc5	-0.11193804
161	0xbd37ae40	-0.044843912
162	0x3d71f3f2	0.059070535
163	0x3dbc2c78	0.09188169
164	0x3d395023	0.04524244
165	0xbea5785d	-0.32318392
166	0xbd9c5003	-0.076324485
167	0x3e87ebfd	0.26547232
168	0x3ee1b44b	0.44082865
169	0x3e22d027	0.15899716
170	0xbdb66e29	-0.0890773
171	0xbe767805	-0.24069221
172	0x3e3dfb76	0.18552956
173	0x3d50f8f0	0.051018655
174	0xbd3bb6d9	-0.045828674
175	0xbe746c61	-0.23869468
176	0xbebfc2a5	-0.3745319
177	0x3d95e505	0.07319073
178	0xbdff5d5c	-0.12468979
179	0xbecc3697	-0.398854
180	0xbd6772e2	-0.056506045
181	0x3ebb37be	0.36565965
182	0xbe0d3c37	-0.13792501
183	0xbe4f7c60	-0.20262289
184	0x3deeec2d	0.11666141
185	0x3e75c8d7	0.24002396
186	0xbd3942ef	-0.04522985
187	0xbdcdba47	-0.10045295
188	0x3e80d34a	0.251612
189	0xbe429180	-0.19000816
190	0xbe8248d4	-0.25446188
191	0xbd8aa7b4	-0.06770268
192	0xbe87788b	-0.26459154
193	0xbdd581c0	-0.104251385
194	0xbdd9c63c	-0.10633513
195	0x3d499114	0.049210623
196	0xbe0ad128	-0.1355635
197	0xbd840088	-0.06445414
198	0xbea88ea2	-0.3292132
199	0x3d24d2fd	0.040240277
200	0xbe2dfd1c	-0.16991085
201	0x3e1fdd74	0.15611821
202	0x3e38e008	0.18054211
203	0xbd9ba3cc	-0.07599601
204	0xbe26af6d	-0.16277857
205	0x3dc60d32	0.096704856
206	0xbec420fd	-0.38306418
207	0xbcdb8449	-0.026796477
208	0xbd963c65	-0.07335738
209	0xbcc52252	-0.024064217
210	0xbe8d2baa	-0.27572376
211	0x3d9fa221	0.077945955
212	0xbd8e3922	-0.06944491
213	0xbe948bef	-0.2901301
214	0x3dadd9d2	0.084888116
215	0x3dc5ed56	0.09664409
216	0xbb3ffe44	-0.0029295841
217	0xba31848c	-0.0006771765
218	0x3e45e757	0.1932653
219	0xbe9978cb	-0.2997497
220	0xbe651b13	-0.22373609
221	0x3e2f04f6	0.17091736
222	0x3ebd76fd	0.37004843
223	0x3dc3f624	0.09568432
224	0x3e6a860a	0.22902694
225	0xbe5ca229	-0.21546234
226	0xbe8db7c6	-0.2767927
227	0xbcb8f220	-0.022576392
228	0x3e53ddb5	0.20690043
229	0x3da9375c	0.08262512
230	0xbdcf0c0b	-0.10109719
231	0xbe8d3527	-0.27579615
232	0xbed07710	-0.40715837
233	0x3eeaea99	0.4588211
234	0x3e95a751	0.29229215
235	0xbe506db4	-0.20354348
236	0xbbbf0785	-0.005829754
237	0xbd54e428	-0.0519754
238	0x3d49fd60	0.049313903
239	0x3e870db4	0.26377642
240	0xbee7376a	-0.45159465
241	0xbeaa3d9a	-0.33250123
242	0xbdb40fdd	-0.08792088
243	0xbd782f7a	-0.060592152
244	0xbe64821c	-0.22315258
245	0xbe8cafcd	-0.27477875
246	0x3eba5304	0.3639146
247	0x3f0b0fb3	0.5432083
248	0x3e807fa3	0.2509738
249	0x3df6b5af	0.12046372
250	0xbd1a9b98	-0.037746042
251	0x3d63bccc	0.055599973
252	0x3da4fe22	0.080562845
253	0x3d6b3b2d	0.05742948
254	0xbdaa52f0	-0.083166
255	0xbd2cdfd3	-0.042205643

fc1.bias f4 [24]
0	0x3e7ab63c	0.2448358
1	0x3e9ae227	0.30250666
2	0x3b99999c	0.004687501
3	0x3e355c8f	0.1771109
4	0x3d185edc	0.03719984
5	0x3dcfb69c	0.10142252
6	0x3df2c93b	0.11854788
7	0x3e2d75f5	0.16939528
8	0x3eb68887	0.35651037
9	0x3dd416c0	0.10355902
10	0x3ee49660	0.44645977
11	0x3d37cb87	0.044871833
12	0x3e4d6663	0.20058589
13	0x3e7a62a8	0.24451697
14	0x3e857b8a	0.26070815
15	0xbd14cadf	-0.036326285
16	0x3e2c7a06	0.16843423
17	0x3eafce9f	0.34337327
18	0x3df51dfc	0.1196861
19	0x3eb08d25	0.34482685
20	0x3e567ab2	0.20945242
21	0xbd5772f4	-0.052599862
22	0x3e4ac2e0	0.19800901
23	0x3e533053	0.20623903

fc2.weight f4 [48, 24]
0	0x3e813d56	0.25242108
1	0x3d27d51b	0.040974718
2	0x3d7ffb29	0.062495384
3	0x3e9ab6a0	0.30217457
4	0x3e5d66c4	0.21621233
5	0x3e356d57	0.17717491
6	0x3eab1fe8	0.3342278
7	0x3d1e4f06	0.03864958
8	0x3e65ddd3	0.224479
9	0x3dc8e855	0.09809939
10	0xbd6183a5	-0.055057187
11	0x3e5831f9	0.21112813
12	0x3e705938	0.23471534
13	0x3e1ad3ff	0.15119933
14	0x3e3c9f99	0.18420257
15	0x3e80fdbc	0.25193584
16	0xbd27d91f	-0.040978547
17	0x3e4d5ba7	0.20054494
18	0x3e400bdf	0.18754528
19	0x3d8c6c11	0.068565495
20	0x3e369102	0.17828754
21	0xbd3ad15e	-0.045609824
22	0xbd9e2bbf	-0.07723188
23	0xbce19215	-0.027535478
24	0x3cfaa31e	0.030595358
25	0xbd148e59	-0.036268566
26	0x3de97012	0.11398329
27	0xbe260c86	-0.16215715
28	0x3e9f0c94	0.31064284
29	0xbe011e30	-0.12609172
30	0xbddc6e3b	-0.10763212
31	0xbd337a34	-0.043817714
32	0xbe81c7e7	-0.25347826
33	0x3dd03f16	0.10168283
34	0xbcc08d45	-0.023504863
35	0x3c617032	0.01375966
36	0xbd8986cb	-0.06715163
37	0xbe2394c2	-0.15974715
38	0x3cb7258c	0.022356771
39	0xbd5be06d	-0.053680826
40	0x3d12a1b0	0.03579873
41	0x3db4984c	0.08818111
42	0x3df6502d	0.12027011
43	0x3dc1be57	0.094601326
44	0xbdca79df	-0.09886526
45	0xbe870e63	-0.26378164
46	0xbcbe7693	-0.0232499
47	0x3c97409f	0.01846343
48	0x3b345252	0.0027514887
49	0x3e83ac83	0.25717553
50	0x3e855fbe	0.26049608
51	0x3da231c2	0.07919647
52	0x3dbf6a93	0.09346499
53	0x3e21105b	0.15728895
54	0x3d3a1c0c	0.045436904
55	0x3e3c62fe	0.18397138
56	0x3e672b52	0.22575119
57	0x3ce9112e	0.028450575
58	0x3e32704e	0.17425653
59	0x3da12384	0.07868102
60	0xbdc8ecb3	-0.09810772
61	0x3dcb1504	0.09916118
62	0x3e993a80	0.29927444
63	0x3d7cbae4	0.06170167
64	0xbc492e13	-0.012279051
65	0x3ded26a0	0.11579633
66	0x3e2bff13	0.16796522
67	0x3d4636bd	0.048392046
68	0x3e871c3d	0.26388732
69	0x3e5f97bd	0.21835227
70	0xbe155641	-0.14583685
71	0xbd2dd111	-0.04243571
72	0x3e81f566	0.25382537
73	0xbdb66f00	-0.0890789
74	0x3d8a1f85	0.06744293
75	0x3db51571	0.0884198
76	0x3e362d83	0.17790799
77	0x3e12e771	0.143461
78	0x3e41747e	0.18892094
79	0x3ca94287	0.020661606
80	0x3dc57958	0.09642285
81	0x3e08b5f6	0.13350663
82	0x3d1fe7a5	0.039039273
83	0xbc099b4f	-0.008398845
84	0xbcf2fa8f	-0.029660491
85	0x3e9f8b4d	0.31160966
86	0xbd8830bb	-0.066499196
87	0x3e190188	0.1494199
88	0x3e310774	0.17288
89	0x3da9a869	0.08284075
90	0xbdbbf85a	-0.09178229
91	0x3e05c4cf	0.13063358
92	0xbc8981f2	-0.016785596
93	0x3d820043	0.06347706
94	0x3bee5cdf	0.0072742547
95	0x3e5b5290	0.21418214
96	0xbe0f7420	-0.14009142
97	0x3e0ad51b	0.13557856
98	0x3e048597	0.12941585
99	0x3d288614	0.041143492
100	0x3d72d41c	0.059284315
101	0x3ce13d5b	0.027495077
102	0xbd355dc5	-0.04427888
103	0x3ea4b151	0.32166532
104	0x3dd41a37	0.103565626
105	0x3de4535b	0.11148711
106	0x3ddcec74	0.10787287
107	0x3c3f0a33	0.0116601465
108	0xbd14c25c	-0.036318168
109	0x3c2dc5c4	0.010606233
110	0x3e5c6e2e	0.21526405
111	0x3d2a1705	0.04152586
112	0x3cea89a5	0.028630087
113	0xbce10a97	-0.02747087
114	0x3e83e168	0.2575791
115	0xbd8da784	-0.06916717
116	0x3e849b83	0.25899896
117	0x3d8bc840	0.06825304
118	0x3c2946c0	0.0103318095
119	0xbd260efa	-0.040541627
120	0x3e89a59a	0.26884156
121	0xbe1e257e	-0.1544399
122	0x3db350f2	0.087556735
123	0x3d0d50d2	0.034500904
124	0x3e75c1c9	0.23999704
125	0x3d48bd7e	0.04900884
126	0x3dbdc844	0.09266713
127	0x3d1e0bd6	0.038585506
128	0x3d664eac	0.05622737
129	0xbddc75e1	-0.10764671
130	0xbc30126c	-0.01074658
131	0x3e50916d	0.20367976
132	0x3d872cb9	0.06600327
133	0x3e146f2e	0.14495537
134	0x3cbc3d01	0.022978308
135	0x3dcb30d0	0.099214196
136	0xbd15ce68	-0.036573797
137	0x3e977f42	0.29589278
138	0x3e298184	0.16553313
139	0x3e84e031	0.25952294
140	0xbdd08903	-0.10182383
141	0xbea28bef	-0.31747386
142	0xbda572e2	-0.08078553
143	0x3e1884df	0.14894436
144	0xbd62cccb	-0.055371087
145	0xbd1bb7ab	-0.038016956
146	0x3d18fe91	0.03735215
147	0xbe361b68	-0.17783892
148	0x3dc3da09	0.09563071
149	0xbe3ef740	-0.18649006
150	0x3df0fb79	0.117667146
151	0xbd8d479e	-0.068984255
152	0xbd7681a1	-0.060182218
153	0x3e82a178	0.25513816
154	0xbe564e35	-0.20928271
155	0xbd25d52d	-0.040486503
156	0x3e05e1b8	0.13074386
157	0xbd8acf97	-0.06777876
158	0xbd279385	-0.04091217
159	0x3e2b712c	0.1674239
160	0xbd49a776	-0.04923197
161	0x3e972ffe	0.29528803
162	0x3ddbbeba	0.107297376
163	0x3df4daf3	0.11955824
164	0xbe10c746	-0.14138517
165	0xbdde4997	-0.1085388
166	0xbe523777	-0.2052897
167	0xbd273d85	-0.040830154
168	0x3e08233a	0.13294688
169	0xbe8106f0	-0.25200605
170	0x3d7710ea	0.060318865
171	0x3d024f1d	0.03181373
172	0x3e3c2b26	0.18375835
173	0x3dab0339	0.08350224
174	0x3dbe7b70	0.093008876
175	0xbdc4ccf0	-0.09609401
176	0x3ddf98ea	0.10917838
177	0x3e23f6ca	0.16012111
178	0xbe160c22	-0.14653066
179	0x3cd67217	0.02617745
180	0xbd8ae33f	-0.06781625
181	0x3e878f04	0.264763
182	0xbe7c2ae3	-0.24625735
183	0xbdcab71d	-0.09898207
184	0xbdc0c621	-0.0941279
185	0xbcc0b079	-0.023521649
186	0xbd5ce821	-0.053932313
187	0xbe283bb0	-0.16429019
188	0x3e64eb9b	0.22355501
189	0x3e0cea55	0.13761266
190	0x3e82b9a0	0.25532246
191	0x3e1cc107	0.15308009
192	0x3d8ae19d	0.067813136
193	0x3d2455f2	0.040121026
194	0x3cd02a1b	0.025410702
195	0xbe1b4b96	-0.15165552
196	0x3d5a8ff2	0.053359933
197	0xbd3edd85	-0.046597976
198	0x3db3ff46	0.08788924
199	0xbcba5ca4	-0.022749253
200	0xbe0cd64e	-0.13753626
201	0x3e589fef	0.2115476
202	0xbd9329a2	-0.07185675
203	0xbd8b509f	-0.06802487
204	0x3ca6629b	0.02031069
205	0x3deb0408	0.11475378
206	0x3e451bc0	0.19248867
207	0x3e3e0b51	0.18559004
208	0x3ccc8964	0.024967857
209	0x3dea37a3	0.11436393
210	0xbd55c0d0	-0.052185833
211	0x3e95c4e0	0.29251766
212	0xbdeb50f0	-0.11490047
213	0x3bb31d12	0.005466112
214	0x3e814a00	0.2525177
215	0x3df73880	0.120713234
216	0xbc642fa4	-0.013927374
217	0x3e17a3e3	0.14808612
218	0x3e2e58df	0.17026089
219	0xbd88fd0f	-0.06688892
220	0xbd059b72	-0.032618947
221	0xbe24d663	-0.16097407
222	0x3dd54246	0.10413031
223	0x3d025a80	0.03182459
224	0xbd3d47d2	-0.04621107
225	0x3e965028	0.2935803
226	0xbdcb40e3	-0.099244855
227	0x3dec3b16	0.11534707
228	0x3d80d84b	0.062912546
229	0xbc81341a	-0.015771914
230	0x3da57eee	0.080808505
231	0x3cbe1770	0.023204535
232	0x3dbf90bd	0.093537785
233	0x3e643964	0.22287518
234	0x3dd54ec0	0.10415411
235	0x3e65028e	0.22364256
236	0xbe4b65e6	-0.1986309
237	0xbe17e2b1	-0.1483257
238	0x3e4ad2d0	0.19806981
239	0x3de9fe0c	0.11425409
240	0x3d9591f6	0.073032305
241	0xbccc36af	-0.024928419
242	0x3d8118d7	0.06303566
243	0x3e1a7b4b	0.15086095
244	0x3de499c6	0.111621425
245	0x3e3ce010	0.18444848
246	0x3e57fa29	0.21091522
247	0x3dcd5e33	0.10027733
248	0x3d08b290	0.033373415
249	0x3b96c296	0.004600833
250	0x3ea09d20	0.31369877
251	0x3e931a2b	0.28730902
252	0x3dc622a5	0.09674577
253	0xbd5191d3	-0.05116446
254	0x3db603ee	0.08887468
255	0xbb2dca1f	-0.0026518179

fc2.bias f4 [48]
0	0xbd88a6ee	-0.06672464
1	0xbce986d7	-0.02850668
2	0xbddb8d51	-0.10720313
3	0x3d57dac3	0.05269886
4	0x3e2582ff	0.16163252
5	0xbd2a2a82	-0.041544445
6	0x3e1f2023	0.15539603
7	0xbdb42dec	-0.087978214
8	0x3e146f64	0.14495617
9	0x3e63ed63	0.22258525
10	0x3dd1614f	0.10223638
11	0x3d7138be	0.058892004
12	0xbddfdc43	-0.109306835
13	0xbe002490	-0.12513947
14	0x3e60cd96	0.21953425
15	0x3e3ca510	0.18422341
16	0x3e564ddd	0.2092814
17	0x3dab13ed	0.0835341
18	0x3dcac7d5	0.09901396
19	0xbe3a8ecd	-0.18218537
20	0x3e12817f	0.14307211
21	0x3eb1e52e	0.34745163
22	0xbe55c03e	-0.20874116
23	0xbc7f396a	-0.015577653
24	0x3ea86e5b	0.32896695
25	0xbd2f46d0	-0.04279214
26	0xbdea212a	-0.11432107
27	0x3eafc446	0.34329432
28	0x3e84fcaf	0.25974032
29	0x3d70ac5a	0.058758117
30	0x3e13b966	0.14426193
31	0x3e34b35d	0.17646547
32	0x3d8ffc18	0.07030505
33	0x3e75f02b	0.24017398
34	0x3e56cf1c	0.20977443
35	0x3e4a06ae	0.1972911
36	0x3e64e502	0.22352985
37	0x3e04c834	0.12966996
38	0x3da1bc13	0.078972004
39	0x3e79ea5d	0.24405809
40	0x3eb0b9b2	0.34516674
41	0x3eae85b9	0.34086397
42	0xbd7a4cb2	-0.0611083
43	0x3e51cbd5	0.20487912
44	0x3d6c0bd8	0.057628483
45	0x3c18714b	0.009304355
46	0x3e5f0422	0.2177892
47	0xbd35b389	-0.04436067

fc3.weight f4 [4, 48]
0	0x3d8b654d	0.06806431
1	0x3db91e63	0.09038999
2	0x3cb2ee27	0.021842076
3	0x3dda179b	0.10649034
4	0xbdab7e49	-0.08373696
5	0x3dcacd5b	0.0990245
6	0x3e21100d	0.15728779
7	0xbb6e652b	-0.0036376219
8	0xbc7c1061	-0.015384764
9	0xbc37c961	-0.011217446
10	0x3bae81f4	0.00532555
11	0x3d6012f7	0.054705586
12	0xbd211837	-0.039329734
13	0xbcae547d	-0.021280522
14	0x3e44f2fd	0.19233318
15	0x3db95a79	0.090504594
16	0x3e0a09a8	0.13480246
17	0x3db88e07	0.090114646
18	0x3e0a59e9	0.1351086
19	0x3a3210a4	0.0006792641
20	0x3def06ba	0.11671205
21	0x3e5edf2c	0.21764821
22	0xbd81f75c	-0.06346008
23	0x3d5e7bd6	0.054317318
24	0x3e08730c	0.13325137
25	0x3d138fd1	0.036025826
26	0xbd12fa27	-0.035883095
27	0x3e238ff5	0.15972884
28	0x3e3736e1	0.17892028
29	0xbd1942da	-0.03741727
30	0x3e0ff7ab	0.14059322
31	0x3d823b54	0.06358972
32	0x3b8a5f3d	0.004222779
33	0x3db28d4b	0.08718356
34	0x3d9319b9	0.071826406
35	0x3d68896c	0.05677168
36	0x3b11ddc1	0.002225742
37	0x3e27a49b	0.16371386
38	0x3d804b7d	0.06264398
39	0x3e969d75	0.29417005
40	0x3df664bf	0.120309345
41	0x3d6a9a6f	0.057276186
42	0x3db52d3d	0.08846519
43	0x3dfd05bc	0.12354609
44	0x3d6aa237	0.057283606
45	0xbcb1e82b	-0.021717152
46	0x3e3aeedc	0.1825518
47	0xbccf3d38	-0.025297746
48	0xbdd951c8	-0.10611302
49	0xbd8799b7	-0.06621116
50	0xbd540fb5	-0.051772792
51	0xbddf0a0a	-0.10890587
52	0xbb8ebc12	-0.004355916
53	0xbdf8764a	-0.12131937
54	0xbd9809ca	-0.07423742
55	0xbd94354a	-0.072367266
56	0xbe05a41e	-0.13050887
57	0xbdc6551b	-0.09684201
58	0x3c120394	0.008911986
59	0xbe3c9a36	-0.18418202
60	0xbe0ba28e	-0.13636228
61	0xbe210156	-0.15723166
62	0xbd3fea03	-0.04685403
63	0xbe1623cb	-0.14662091
64	0xbd85f472	-0.06540765
65	0xbd5229fa	-0.051309563
66	0xbd0a004e	-0.033691697
67	0xbac7edd3	-0.0015253372
68	0xbd9c7914	-0.07640281
69	0xbd2b5e08	-0.041837722
70	0xbe0c4f5e	-0.13702151
71	0xbd8a20dd	-0.067445494
72	0xbd572b5a	-0.052531578
73	0xbdf13ced	-0.11779199
74	0xbe551389	-0.20808233
75	0xbdad46ab	-0.084607445
76	0xbd2cfe1f	-0.042234536
77	0xbdb39fca	-0.08770712
78	0xbdd5b03d	-0.104340054
79	0xbd589cb9	-0.052883837
80	0xbcef5415	-0.029214898
81	0xbd43fed4	-0.047850445
82	0xbb03763e	-0.0020059492
83	0xbdf460a8	-0.11932498
84	0xbc9b88d2	-0.01898614
85	0xbd15678b	-0.0364757
86	0xbcd4d4f8	-0.025980458
87	0xbcceb962	-0.025234882
88	0xbd646ade	-0.05576598
89	0xbc99f31c	-0.018792681
90	0xbdee447b	-0.11634155
91	0xbd3c42c1	-0.0459621
92	0xbe77f74e	-0.24215433
93	0xbe02ed45	-0.12785824
94	0xbd347c86	-0.044064067
95	0xbdfcad48	-0.12337738
96	0x3ccfe8cb	0.025379559
97	0xbd7c0d4d	-0.061536122
98	0x3d972299	0.07379646
99	0x3d413687	0.047171142
100	0x3dec5b72	0.11540879
101	0x3d62248f	0.055210646
102	0xbc7aed64	-0.015315387
103	0x3cf66ff9	0.03008269
104	0x3df659e3	0.12028863
105	0x3d0fa0b6	0.035065375
106	0xbbd82854	-0.0065966044
107	0x3d4f9e0f	0.050687846
108	0x3dd2f3ed	0.103004314
109	0x3d58f4d5	0.052967865
110	0x3d6f82de	0.058474414
111	0x3da9b18a	0.08285816
112	0x3c8b45d1	0.017001064
113	0xbcda0998	-0.026615903
114	0x3b82b693	0.0039890497
115	0x3aa3ab0c	0.0012486889
116	0xbdd8de1a	-0.105892375
117	0x3df6a1a0	0.12042546
118	0x3db2f6c7	0.08738475
119	0xbc6b096c	-0.014345508
120	0x3d15e4ab	0.036595028
121	0x3d34b830	0.044120967
122	0x3dcd4ca9	0.100243874
123	0x3d71a507	0.058995273
124	0x3dabdd89	0.08391864
125	0x3ca6bbac	0.02035316
126	0x3debd6ff	0.115156166
127	0x3d01a386	0.03165009
128	0xbd8efb80	-0.069815636
129	0x3dfd4218	0.12366122
130	0x3e26425c	0.16236252
131	0x3d32cc09	0.043651614
132	0x3c87c81d	0.016574914
133	0x3d995cd8	0.07488412
134	0x3dce44eb	0.10071739
135	0x3d7e8f89	0.062148605
136	0x3e7762ef	0.24158834
137	0xbc89da79	-0.016827809
138	0x3d9020a6	0.07037477
139	0xbd418ac5	-0.04725148
140	0x3e1a3e8a	0.1506292
141	0x3d30b36c	0.04313986
142	0xbb085790	-0.0020804144
143	0x3d28874a	0.041144647
144	0x3d58f761	0.052970294
145	0xbd33f93c	-0.04393886
146	0x3dcb9982	0.09941389
147	0xbb1d7eca	-0.002403187
148	0x3df6e4ad	0.12055335
149	0x3ca9f5de	0.020747121
150	0x3b9c939e	0.0047783395
151	0xbd1b2eaa	-0.0378863
152	0xbc8885aa	-0.016665298
153	0xba535de7	-0.0008063004
154	0x3e15afe7	0.14617883
155	0xbe795222	-0.24347737
156	0xbe1e6cd6	-0.15471205
157	0x3e1379e7	0.14401971
158	0x3ddd6857	0.10810917
159	0xbd2ef72b	-0.042716186
160	0xbda53069	-0.08065874
161	0xbd8cce97	-0.068753414
162	0xbda0911e	-0.07840179
163	0x3b07b1cf	0.0020705347
164	0x3e0062e8	0.1253773
165	0xbd51b705	-0.05119993
166	0xbc88c36f	-0.016694752
167	0xbea7afe4	-0.3275138
168	0xbbd67f55	-0.006545941
169	0x3dc463fd	0.09589384
170	0xbc6fc2c3	-0.014633837
171	0x3d83b6a3	0.064313196
172	0x3da6ec72	0.08150567
173	0x3d4f58e7	0.050621893
174	0x3d73b7d5	0.059501488
175	0x3e372d4c	0.17888373
176	0x3dbc4b57	0.091940574
177	0xbdb370b8	-0.08761734
178	0xbe9ad7ed	-0.30242863
179	0xbd2f52d2	-0.042803593
180	0x3db2a3cd	0.08722649
181	0x3da6996b	0.08134731
182	0x3e0941d8	0.13404024
183	0x3e641f32	0.22277525
184	0x3d359cb0	0.044338882
185	0x3d1f7334	0.038928226
186	0xbc3c4b0b	-0.011492501
187	0x3d43bb4b	0.04778604
188	0xbd855c08	-0.06511694
189	0xbe33a66b	-0.17543952
190	0xbe0fb1ec	-0.14032716
191	0xbe7f8359	-0.24952449

fc3.bias f4 [4]
0	0x3c2ca8e4	0.010538314
1	0xbdffe620	-0.12495065
2	0x3ded8b27	0.11598807
3	0xbe12f52e	-0.14351341
