checkpoint_actor.pth (torch_old, 9802 bytes, 6 tensors)

fc1.weight f4 [24, 33]
0.04195988 -0.29429194 0.15606618 -0.31707305 0.09401276 0.07049174 -0.02860061 0.15731418
-0.0025304172 0.41224155 0.04847732 -0.08672979 -0.020553172 -0.30401698 0.07622867 0.055640902
0.034471944 0.16610877 0.057221584 0.1785122 0.4471517 -0.1144656 0.16468698 0.040365063
0.016220383 0.071868576 -0.13582592 -0.5834589 0.21020351 -0.16258393 0.46067044 -0.14053886
5.0650063 -0.3301596 -0.67682755 0.23949608 0.05219772 0.6668438 -0.54237646 -0.31377566
0.28421816 -0.18265525 0.12945946 -0.057431776 0.07775901 0.016691975 -0.2883611 -0.38002113
0.09331629 -0.1506328 0.29125795 0.42361176 0.13567075 -0.046073377 -0.07065121 0.27234116
0.083780795 0.041146174 0.13900153 0.10034233 -0.29759967 -0.043464255 0.004505351 0.4727683
-0.04462312 -3.891152 -0.08489234 -0.065216035 -0.021214327 -0.026240312 0.15911743 0.05663723
-0.20407636 0.29925808 -0.3428766 0.5502931 -0.096078925 0.032974795 -0.014225785 -0.08613788
0.053607404 -0.123236656 -0.11917513 -0.07661624 -0.5895251 -0.18937747 0.50776714 0.11861524
0.3369715 -3.3216806e-05 0.0054637464 0.016581386 -0.4927955 -0.5361599 -0.13552743 -0.12054288
0.5024486 0.063602865 -5.1782184 0.10310261 -0.2700272 0.29272574 -0.12261565 -0.023937076
-0.44833437 -0.06048894 0.0077078636 -0.061864 -0.039433524 0.051306598 0.104341015 0.028043412
-0.14244965 -0.086982034 0.10628892 -0.07456661 -0.31616396 -0.15263653 0.4567298 -0.20255549
0.029670201 0.035809614 0.012832166 0.041757107 -0.0025295224 -0.14526589 -0.26328483 -1.6904485
0.03402093 0.16686428 -0.027983248 -4.037444 -0.19898094 0.30477363 -0.090002716 0.29434326
0.1341662 -0.2788575 -0.075843826 0.41901836 0.001111608 0.48162967 -0.05328426 -0.11342323
0.10209093 -0.034399778 0.22910206 0.099230595 -0.16248333 0.4259306 0.02090509 0.30562243
0.44713634 -0.18146802 0.593785 -0.055831697 0.09311842 -0.11333986 -2.120885 -1.0618161
0.37907523 -0.044843912 0.87952226 0.09188169 0.35325852 0.043399245 0.49665275 -0.04504876
0.3138788 0.5870113 0.25648728 -0.014637568 0.19527291 -0.1323006 0.17483169 -0.082774915
0.00047123196 0.08230268 0.13383307 0.18064465 -0.15126741 -0.18388927 0.062341392 -0.026918745
0.056453355 0.26600504 -0.07850131 0.15089044 0.07558091 -0.05144241 -0.053010393 -0.3476887
-0.6945553 -0.08882198 -0.10633513 0.47910327 -0.1355635 5.625793 0.088396385 0.39874148
-0.14791854 -0.0575264 -0.22650507 -0.12168332 0.023509355 0.4480257 -0.41798833 0.20810126
5.207528e-05 -0.0017509504 -0.09076683 0.019746907 0.17127648 -0.06837825 -0.114826895 -0.15364444
0.18818983 0.04121394 0.21504736 0.021773137 0.37899068 0.055762365 -0.0037509757 -0.0063587683
1.1779671 -0.8974143 -0.63671184 -0.022576392 0.8888521 0.08262512 -2.6204026 0.13625218
-0.16363926 0.032751046 0.2737404 -0.332323 0.29085758 -0.15140948 0.44331723 -0.120271735
0.29237565 0.047685623 0.04845382 -0.020330153 -0.07125027 -0.0008353049 0.10138725 0.1503169
-0.28767437 -0.035061233 0.22740024 0.06266203 -0.1042743 0.41893515 0.028251661 0.04807373
00000000: 20de 2b3d 6fad 96be d0cf 1f3e 6657 a2be
00000010: c389 c03d f95d 903d d44b eabc f816 213e
00000020: 5bd5 25bb 5311 d33e 2790 463d 639f b1bd
00000030: 205f a8bc 1da8 9bbe c71d 9c3d b7e7 633d
00000040: 7432 0d3d 6b18 2a3e 2e61 6a3d e7cb 363e
00000050: 11f1 e43e f16c eabd b4a3 283e d655 253d
00000060: 9ce0 843c d52f 933d f315 0bbe 905d 15bf
00000070: 973f 573e 677c 26be ffdc eb3e 6be9 0fbe
00000080: 8814 a240 ae0a a9be 9244 2dbf 763e 753e
00000090: 47cd 553d 46b6 2a3f 2fd9 0abf 34a7 a0be
000000a0: 0b85 913e fa09 3bbe 0591 043e 953d 6bbd
000000b0: 1e40 9f3d 9cbd 883c 11a4 93be 2192 c2be
000000c0: 9c1c bf3d 7c3f 1abe c31f 953e a4e3 d83e
000000d0: 46ed 0a3e 70b7 3cbd 95b1 90bd 4d70 8b3e
000000e0: 4495 ab3d e488 283d 6b56 0e3e 4880 cd3d
000000f0: fc5e 98be 9307 32bd a0a1 933b b00e f23e
00000100: bcc6 36bd a208 79c0 09dc adbd fc8f 85bd
00000110: abc9 adbc ecf5 d6bc aeef 223e 71fc 673d
00000120: 65f9 50be 5b38 993e 868d afbe 02e0 0c3f
00000130: 07c5 c4bd 9410 073d 4413 69bc 0f69 b0bd
00000140: 7093 5b3d 8063 fcbd 1712 f4bd fae8 9cbd
00000150: 1eeb 16bf 2bec 41be 07fd 013f 8cec f23d
00000160: 8787 ac3e 4652 0bb8 3a09 b33b b0d5 873c
00000170: b14f fcbe c641 09bf b4c7 0abe 2fdf f6bd
00000180: 79a0 003f 3842 823d f7b3 a5c0 7627 d33d
00000190: 0141 8abe 26e0 953e ea1d fbbd b017 c4bc
000001a0: 158c e5be 40c3 77bd 3f92 fc3b 1b65 7dbd
000001b0: 0c85 21bd de26 523d beb0 d53d 4cbb e53c
000001c0: 52de 11be a323 b2bd 01ae d93d 61b6 98bd
000001d0: 3ee0 a1be c04c 1cbe 7dd8 e93e b56a 4fbe
000001e0: ec0e f33c 1aad 123d 013e 523c 8009 2b3d
000001f0: 58c6 25bb 95c0 14be 45cd 86be 9e60 d8bf
00000200: 8859 0b3d 78de 2a3e 203d e5bc be32 81c0
00000210: a9c1 4bbe 4a0b 9c3e 5853 b8bd 29b4 963e
00000220: dd62 093e 69c6 8ebe 0254 9bbd 9389 d63e
00000230: 60b3 913a 2a98 f63e 9940 5abd 704a e8bd
00000240: 0d15 d13d c8e6 0cbd bb99 6a3e 6939 cb3d
00000250: 0862 26be 9313 da3e 2741 ab3c 8b7a 9c3e
00000260: 0eef e43e c1d2 39be 4b02 183f c7af 64bd
00000270: dfb4 be3d bb1e e8bd 94bc 07c0 97e9 87bf
00000280: 2616 c23e 40ae 37bd 5f28 613f 782c bc3d
00000290: 4dde b43e 68c3 313d 4549 fe3e 0c85 38bd
000002a0: b9b4 a03e 5f46 163f 4d52 833e 69d2 6fbc
000002b0: 9ff5 473e cf79 07be 1407 333e e585 a9bd
000002c0: af0f f739 4f8e a83d 890b 093e e9fa 383e
000002d0: d8e5 1abe 784d 3cbe b059 7f3d b384 dcbc
000002e0: a23b 673d d031 883e 4bc5 a0bd 0683 1a3e
000002f0: 2aca 9a3d 47b5 52bd 6d21 59bd 4104 b2be
00000300: 60ce 31bf 4ce8 b5bd 3cc6 d9bd 064d f53e
00000310: 28d1 0abe 7f06 b440 2a09 b53d d827 cc3e
00000320: f577 17be cda0 6bbd f2f0 67be 1b35 f9bd
00000330: b196 c03c a063 e53e 9102 d6be 7f18 553e
00000340: 686b 5a38 2580 e5ba f6e3 b9bd 44c4 a13c
00000350: 1a63 2f3e e509 8cbd 5d2a ebbd f854 1dbe
00000360: d6b4 403e f3cf 283d 6035 5c3e 945d b23c
00000370: 110b c23e 1467 643d eed2 75bb 375d d0bb
00000380: a0c7 963f f2bc 65bf 8cff 22bf 20f2 b8bc
00000390: d08b 633f 5c37 a93d adb4 27c0 b185 0b3e
000003a0: 0d91 27be f625 063d b427 8c3e 3e26 aabe
000003b0: 49eb 943e 160b 1bbe 7afa e23e 0751 f6bd
000003c0: 43b2 953e 0052 433d 8377 463d 6c8b a6bc
000003d0: a9eb 91bd 5df8 5aba 1ea4 cf3d acec 193e
000003e0: 0e4a 93be 5e9c 0fbd 9cdb 683e f354 803d
000003f0: c48d d5bd ab7e d63e 0770 e73c f6e8 443d

fc1.bias f4 [24]
0.804281 0.40199465 0.28956187 0.15270653 0.8576446 0.5313197 0.80048096 0.61688274
0.25370282 0.8539606 1.247416 0.56119996 0.65751976 0.23406768 0.80495024 1.3585248
0.5257095 0.9531835 0.5890626 0.38632247 0.63241345 0.038895275 0.8151101 0.49389192
00000000: 5ce5 4d3f 3ed2 cd3e 7441 943e 1a5f 1c3e
00000010: 998e 5b3f 9104 083f 52ec 4c3f 07ec 1d3f
00000020: 56e5 813e 299d 5a3f 54ab 9f3f cdaa 0f3f
00000030: 3753 283f 70af 6f3e 3811 4e3f 24e4 ad3f
00000040: e694 063f d503 743f cecc 163f 0fcc c53e
00000050: d9e5 213f a750 1f3d 0eab 503f 67df fc3e

fc2.weight f4 [48, 24]
0.3278511 0.0014739699 0.17800763 0.46971563 0.40838107 0.23006275 -0.023712972 -0.11955898
0.80777 0.12058059 -0.48157597 -0.02586887 0.38349614 0.4198678 0.012190603 0.38374588
0.23609756 0.28716806 -0.15442318 0.07157624 0.85516346 -0.067359224 0.16642295 0.3184115
-0.15136795 0.20173055 0.47826892 -0.0043596295 -0.09595958 0.005880986 0.26179793 0.5001653
-0.09253494 0.14132325 0.35108507 0.03219997 0.48620844 0.08258145 0.14772768 0.08129692
0.40630934 0.22403482 0.19510464 0.42604566 -0.017538521 -0.08157427 0.29393315 0.30884
0.06852538 0.098508 0.098604694 0.22699231 0.26602036 0.3731149 -0.49213824 -0.18125366
0.68817765 0.05352055 -0.16815022 -0.1842587 -0.37504596 0.2973765 0.04431217 0.11674366
-0.15252614 0.26034185 0.14055115 0.3093207 0.24319205 0.2507322 -0.28835353 0.08423985
0.56216455 -0.374087 0.03152027 0.38308597 -0.16694586 0.6517924 -0.4843896 0.41221997
0.15664594 0.7234289 0.26122662 -0.029598748 -0.7411182 0.57891846 0.013652391 0.037109926
-0.059152942 0.4574023 -0.14967224 0.4194098 -0.29399064 0.20683147 -0.31159878 0.18806864
0.15199095 0.029516105 0.15780006 0.32344592 0.27742186 0.17516023 -0.59981173 0.35412228
0.3315091 0.38056645 -0.17669104 0.1635347 -1.0639476 0.07176848 0.094203874 0.1436485
-0.28716645 0.2919308 -0.13967341 0.17351313 0.22685982 0.32101128 -0.35759017 -0.12982851
0.50832266 -0.09254701 -0.028193647 0.18725362 0.24737193 0.45450482 -0.13739511 0.49719882
0.07823269 0.13071434 0.426199 0.29499313 -0.14397995 0.022900604 0.3935425 0.3911241
-0.32076436 0.28066403 0.5540655 0.28820857 0.022315416 0.06806621 0.24591392 -0.12580508
-0.05196244 0.14332418 0.34370717 0.07637199 -0.10180609 0.043386824 0.19081913 0.25909832
0.11378033 0.15263681 0.22252679 -0.18196592 0.83206207 0.05995499 0.20093067 0.2635604
0.444581 0.27645868 0.33035833 0.27394417 0.31166205 0.41002977 0.27533072 0.21276419
0.03201072 -0.07060918 0.14089884 0.2195591 0.043300197 -0.15874502 0.36422265 0.1999301
-0.00479486 0.12605129 0.115987256 -0.11503221 0.26672694 0.28493008 -0.13485622 -0.06354577
0.03883115 0.019532593 0.31035328 -0.07721716 -0.01961788 -0.02045044 0.5114489 0.3868818
0.39471102 -0.011464708 -0.2812757 -0.019442793 0.20098037 0.51653683 0.15146731 0.31554967
0.43309158 0.34576124 0.24422671 0.23677821 0.21161497 0.07262532 0.40896884 0.33728492
0.101723686 0.2101482 0.20589079 0.3336844 -0.028848967 -0.048427884 -0.03785759 -0.14251809
-0.06207249 -0.24671668 -0.3178855 -0.24026243 -0.11673353 -0.23723987 0.119385205 0.04213241
-0.52621883 -0.30209503 0.5012337 -0.85226834 0.01421131 -0.29009777 0.12209336 0.10983726
-0.0089259595 -0.2895246 -0.13716818 -0.48456383 0.20770033 -0.19385426 0.3801594 0.23585722
0.038697302 0.15045445 0.28000575 0.4472481 -0.2411758 -0.04953205 0.3684063 0.005621857
0.41886082 -0.17343754 0.49210927 -0.21600707 0.80743754 0.13639924 0.06387777 -0.26698074
00000000: 19dc a73e 3932 c13a a247 363e 917e f03e
00000010: 5317 d13e 9295 6b3e b541 c2bc 57db f4bd
00000020: 04ca 4e3f f5f2 f63d 2091 f6be f4ea d3bc
00000030: 9b59 c43e eaf8 d63e 18bb 473c 577a c43e
00000040: 8fc3 713e b107 933e 1c21 1ebe 9096 923d
00000050: feeb 5a3f a2f3 89bd c76a 2a3e d506 a33e
00000060: 3300 1bbe 7492 4e3e aadf f43e 39db 8ebb
00000070: 7586 c4bd 49b5 c03b 610a 863e d50a 003f
00000080: f582 bdbd 0bb7 103e 6cc1 b33e 1ee4 033d
00000090: 50f0 f83e 7720 a93d ed45 173e 007f a63d
000000a0: c707 d03e 6269 653e 83c9 473e a822 da3e
000000b0: f2ac 8fbc 6910 a7bd 687e 963e 4720 9e3e
000000c0: 0957 8c3d 90be c93d 42f1 c93d ac70 683e
000000d0: d233 883e eb08 bf3e 8bf9 fbbe 8f9a 39be
000000e0: 692c 303f 5d38 5b3d 922f 2cbe 50ae 3cbe
000000f0: 0606 c0be bc41 983e ae80 353d 4d17 ef3d
00000100: d02f 1cbe 874b 853e a4ec 0f3e 485f 9e3e
00000110: 5607 793e f95f 803e 13a3 93be f185 ac3d
00000120: 04ea 0f3f 5588 bfbe 661b 013d d823 c43e
00000130: dbf3 2abe dedb 263f ea01 f8be 7f0e d33e
00000140: cb67 203e a332 393f 7fbf 853e 1379 f2bc
00000150: ecb9 3dbf 0034 143f 47ae 5f3c 9400 183d
00000160: 5b4a 72bd a230 ea3e ae43 19be e2bc d63e
00000170: f185 96be a1cb 533e e089 9fbe 1195 403e
00000180: 84a3 1b3e c2cb f13c 5796 213e b49a a53e
00000190: 3d0a 8e3e 345d 333e 438d 19bf 844f b53e
000001a0: 90bb a93e 9bd9 c23e 7fee 34be a475 273e
000001b0: 6f2f 88bf 5afb 923d f6ed c03d 9818 133e
000001c0: 7b07 93be f477 953e 8c06 0fbe 6dad 313e
000001d0: f14d 683e 975b a43e 0f16 b7be c4f1 04be
000001e0: 6f21 023f 4989 bdbd 5df6 e6bc 6abf 3f3e
000001f0: 114f 7d3e dbb4 e83e 4eb1 0cbe d890 fe3e
00000200: 7638 a03d fbd9 053e c136 da3e 5709 973e
00000210: 7b6f 13be 0c9a bb3c 677e c93e 6b41 c83e
00000220: 3a3b a4be 32b3 8f3e 3dd7 0d3f 1390 933e
00000230: d2ce b63c 4c66 8b3d dcd0 7b3e 0cd3 00be
00000240: 91d6 54bd 93c3 123e 63fa af3e eb68 9c3d
00000250: b67f d0bd 62b6 313d 1766 433e 89a8 843e
00000260: a905 e93d d34c 1c3e 10de 633e 4655 3abe
00000270: 0502 553f 5d93 753d c5c0 4d3e 64f1 863e
00000280: 1fa0 e33e fe8b 8d3e ba24 a93e 6942 8c3e
00000290: 2b92 9f3e 6cef d13e 26f8 8c3e dbde 593e
000002a0: ac1d 033d 8c9b 90bd c947 103e 1ad4 603e
000002b0: 8c5b 313d 0e8e 22be 647b ba3e 7aba 4c3e
000002c0: 331e 9dbb 9713 013e ba8a ed3d 0296 ebbd
000002d0: 6f90 883e 5be2 913e c017 0abe 4924 82bd
000002e0: 690d 1f3d d102 a03c a0e6 9e3e 0824 9ebd
000002f0: adb5 a0bc ae87 a7bc 51ee 023f 5f15 c63e
00000300: 9017 ca3e 78d6 3bbc 5e03 90be 7e46 9fbc
00000310: cccd 4d3e c23b 043f 3f1a 1b3e ba8f a13e
00000320: 2ebe dd3e 9e07 b13e 9116 7a3e fd75 723e
00000330: 98b1 583e 95bc 943d 5d64 d13e 9cb0 ac3e
00000340: 8254 d03d 1731 573e 09d5 523e afd8 aa3e
00000350: ab54 ecbc 515c 46bd 8f10 1bbd 43f0 11be
00000360: b93f 7ebd 4ca3 7cbe e3c1 a2be 5b07 76be
00000370: fd11 efbd 02ef 72be 3b80 f43d 0993 2c3d
00000380: 47b6 06bf 33ac 9abe da50 003f 422e 5abf
00000390: 8ed6 683c b287 94be 150c fa3d 5bf2 e03d
000003a0: 303e 12bc 923c 94be d175 0cbe c018 f8be
000003b0: 65af 543e bb81 46be 41a4 c23e 8e84 713e
000003c0: 1081 1e3d bb10 1a3e ea5c 8f3e b4fd e43e
000003d0: caf6 76be 1ee2 4abd c09f bc3e 8e37 b83b
000003e0: ed74 d63e 9c99 31be bff5 fb3e f530 5dbe
000003f0: 3ab4 4e3f 3eac 0b3e 59d2 823d b3b1 88be

fc2.bias f4 [48]
0.45820466 0.14545764 -0.1999048 0.4544036 0.2714498 0.11314733 0.18205039 0.20460893
0.2058768 0.19722237 0.60452485 0.17817762 -0.0012182248 0.31396815 -0.14858532 0.10305231
0.37940022 0.22821067 0.35021883 -0.1302925 0.28319886 0.23177886 0.07182618 -0.01564691
0.40077955 -0.08589095 -0.10092426 0.22270843 0.2689703 0.3013908 0.3976143 -0.16730759
0.50138927 -0.3827386 0.120011546 -0.3217216 0.15208007 -0.15781102 0.13583957 -0.35890242
0.06644929 0.30526996 0.36360952 0.08193094 0.16698179 0.14225408 0.5902709 0.13339294
00000000: cd99 ea3e d9f2 143e d8b3 4cbe 97a7 e83e
00000010: 78fb 8a3e cab9 e73d 6b6b 3a3e 0185 513e
00000020: 5ed1 523e a9f4 493e 24c2 1a3f 3274 363e
00000030: d7ac 9fba 6fc0 a03e c026 18be 170d d33d
00000040: bf40 c23e 0fb0 693e e24f b33e 666b 05be
00000050: 71ff 903e 7057 6d3e 9b19 933d f32d 80bc
00000060: fa32 cd3e 98e7 afbd 61b1 cebd ae0d 643e
00000070: 7ab6 893e e54f 9a3e 1a94 cb3e ae52 2bbe
00000080: 0c5b 003f 50f6 c3be 9dc8 f53d b2b8 a4be
00000090: e1ba 1b3e 3699 21be 8719 0b3e 0fc2 b7be
000000a0: 9116 883d 584c 9c3e 072b ba3e 69cb a73d
000000b0: 46fd 2a3e 0eab 113e fe1b 173f 2998 083e

fc3.weight f4 [4, 48]
-0.45298535 0.16460028 -0.2950525 -0.32987773 -0.29713434 -0.24755739 0.18733253 0.19019254
-0.21916354 -1.0382813 -0.22999734 -0.18091868 -0.40633172 -0.13101009 0.4631639 -0.60112405
0.8698128 0.06500637 0.10478989 -1.1839265 0.0186804 1.2273068 -0.23184337 0.37221256
-0.2625966 -0.64252836 0.79741585 -0.07477578 -0.5672248 -0.6013293 -0.16765209 -0.50496465
0.6558512 0.078500025 0.28007817 1.8498188 0.50793517 -0.5870074 0.9396861 -0.13144349
0.4211708 0.48269802 -0.0478263 0.18342462 -0.28166875 1.1166213 0.10807818 0.41360825
-0.28501895 -0.12775458 -0.007483979 -0.041323084 0.14750364 -0.1718324 -0.26994538 0.8012301
-0.26303932 0.16722204 -0.29549626 0.86344427 0.3938748 -0.474571 0.08847385 -1.4965371
0.20349684 -0.3614486 -0.26196137 -0.23679762 -0.28213876 -0.043903504 0.15105838 -0.38715506
0.48617882 0.16706803 -0.4235748 0.38517514 -0.29858282 0.3159827 -0.3094756 0.20252384
-0.5850784 0.88222384 0.052065555 1.0579859 -0.16472954 1.006076 0.22359219 -0.49861524
0.84119314 -0.342347 -0.1930061 -0.09271751 -0.29402506 0.22962825 0.20133533 1.0047677
0.3542996 0.032400317 -0.1605078 0.038614433 -0.26214182 -0.108070694 0.07919544 -0.22724131
-0.13686253 0.056949895 0.45833302 -0.2767712 -0.36174867 0.06864962 1.3563019 -0.31688413
0.4578881 0.19171996 0.5143695 -0.84252363 -0.12686963 -1.3543465 0.6052061 0.08624663
0.14541946 -0.5434568 -0.24846894 0.45118657 -0.36975664 -0.4875658 0.14232644 1.3416522
-0.7394517 1.648794 0.3413223 -0.8983756 -0.43128377 -0.84425056 0.21599291 0.75153303
0.9713499 0.21457838 0.121801116 -0.037820872 -0.07108253 -0.36209497 0.62564725 -0.11595565
-0.04445095 0.1975483 0.07449932 -0.02498493 0.2056404 -0.013360584 0.14708352 -0.0011021418
0.11642276 0.108964935 0.065633975 -0.006648885 0.014738498 -0.031528898 0.056017745 -0.010621801
0.061816882 0.04371387 0.059593588 -0.13779417 0.21571314 0.009405195 0.09790837 0.16607882
0.21954702 0.059313 0.066202454 -0.026785186 0.036917105 0.021545026 0.057041205 0.10677447
0.108309306 -0.026627196 0.031868197 0.12148597 0.14796744 0.09551152 0.09188101 0.18603314
0.23634517 0.16378409 -0.041047163 0.16122936 0.24538778 0.021180116 -0.11386748 0.09241023
00000000: b2ed e7be fa8c 283e 1f11 97be bce5 a8be
00000010: fe21 98be af7f 7dbe 19d4 3f3e d5c1 423e
00000020: 686c 60be 67e6 84bf 6c84 6bbe bf42 39be
00000030: b60a d0be 8227 06be d223 ed3e 44e3 19bf
00000040: 0dac 5e3f 0f22 853d 159c d63d e78a 97bf
00000050: a307 993c 6418 9d3f 5968 6dbe a592 be3e
00000060: 1073 86be bd7c 24bf 7223 4c3f 0b24 99bd
00000070: a535 11bf b8f0 19bf fdac 2bbe 5d45 01bf
00000080: dde5 273f 9fc4 a03d 6866 8f3e ddc6 ec3f
00000090: 0a08 023f 1e46 16bf 458f 703f 1f99 06be
000000a0: b3a3 d73e 3224 f73e 83e5 43bd aad3 3b3e
000000b0: e336 90be 72ed 8e3f 1858 dd3d 76c4 d33e
000000c0: 01ee 91be 19d2 02be 2b3c f5bb 6542 29bd
000000d0: 320b 173e d5f4 2fbe 4836 8abe 6a1d 4d3f
000000e0: 17ad 86be 413c 2b3e 494b 97be af0a 5d3f
000000f0: f5a9 c93e f8fa f2be c731 b53d 878e bfbf
00000100: 7a61 503e ca0f b9be cd1f 86be 137b 72be
00000110: 7e74 90be 29d4 33bd 0caf 1a3e 3039 c6be
00000120: 6eec f83e e213 2b3e ccde d8be ad35 c53e
00000130: d9df 98be 7cc8 a13e 9673 9ebe 6962 4f3e
00000140: b3c7 15bf 6cd9 613f b142 553d 156c 873f
00000150: dcae 28be 19c7 803f 5af5 643e 7f4a ffbe
00000160: 6f58 573f 1b48 afbe 64a3 45be aee2 bdbd
00000170: 748a 96be ab23 6b3e d92a 4e3e 3a9c 803f
00000180: c266 b53e 32b6 043d 285c 24be 2b2a 1e3d
00000190: 7437 86be 2b54 ddbd 3831 a23d f2b1 68be
000001a0: b125 0cbe 4b44 693d a0aa ea3e f4b4 8dbe
000001b0: 1f37 b9be 2c98 8c3d 4d9b ad3f a33e a2be
000001c0: 4f70 ea3e 3d52 443e b8ad 033f a1af 57bf
000001d0: 1dea 01be 3a5b adbf c9ee 1a3f 13a2 b03d
000001e0: d7e8 143e fc1f 0bbf a46e 7ebe ed01 e73e
000001f0: be50 bdbe 39a2 f9be 06be 113e 42bb ab3f
00000200: b54c 3dbf af0b d33f ccc1 ae3e f1fb 65bf
00000210: 3ad1 dcbe ce20 58bf 3f2d 5d3e 7864 403f
00000220: 63aa 783f 6fba 5b3e dd72 f93d 0fea 1abd
00000230: b893 91bd 8364 b9be 6b2a 203f 287a edbd
00000240: 3312 36bd 1a4a 4a3e 1993 983d 32ad ccbc
00000250: 6693 523e 5ae6 5abc 109d 163e be75 90ba
00000260: 0e6f ee3d 0229 df3d 1b6b 863d e4de d9bb
00000270: be79 713c 7224 01bd dd72 653d 1007 2ebc
00000280: b333 7d3d 510d 333d 6818 743d ea19 0dbe
00000290: e8e3 5c3e 3f18 1a3c 2f84 c83d 9110 2a3e
000002a0: efd0 603e 30f2 723d 2795 873d 9b6c dbbc
000002b0: 6436 173d 327f b03c 0aa4 693d 93ac da3d
000002c0: 45d1 dd3d 4721 dabc 3a88 023d a3cd f83d
000002d0: c784 173e 8b9b c33d 1c2c bc3d 797f 3e3e
000002e0: 7804 723e 04b7 273e 1221 28bd 4f19 253e
000002f0: ef46 7b3e ec81 ad3c 5a33 e9bd 9341 bd3d

fc3.bias f4 [4]
-0.32105082 -0.12348866 0.10373353 -0.07942934
00000000: c660 a4be 9fe7 fcbd 3f72 d43d daab a2bd
