checkpoint_actor.pth (torch_old, 9802 bytes, 6 tensors)

fc1.weight f4 [24, 33]
00000000: b341 06bf 83e3 79bf cc10 af3e 814d 5a3f
00000010: d823 a73e 1eb3 2dbf 4003 10bf 6dab b1be
00000020: fb16 87be 9b83 8cbe a84e 84be 22bb 053d
00000030: 1a64 c03d e7f8 19bf c903 31bf fcde 8ebe
00000040: 0d37 7e3d bd74 8fbd 3397 1fbf 6dd8 be3e
00000050: 8f23 8d3e a881 04be 5a27 e93e 5f37 8d3e
00000060: 7b3d 083f ca38 9d3e c9cb febe f5ca 83be
00000070: 1675 0ebf 677c 26be 84de 093e 6be9 0fbe
00000080: 5321 7b3f 0589 22be 8b02 87bf abc5 d9be
00000090: e45b 1140 29e4 703f ed7b 8bbe 9b95 7abf
000000a0: 454a 063c 7da7 9e3e c3ce b6bc 400b a7be
000000b0: 2629 47bd 5bbc 09be f273 043d a31b 30bf
000000c0: 2429 06bf 884d 833f a6cb 8d3e 90d1 303f
000000d0: ef8e 5bbf 0f01 6b3d a590 a1bb d0a0 1e3e
000000e0: 574d 01be 2f28 8c3e dd7b d63c ea9b 7a3f
000000f0: 13e4 2bbf 1a7e 67bd a0a1 933b adbd 583f
00000100: bcc6 36bd 8b89 5140 05f4 d43c 03e9 ed3e
00000110: 1600 fbbd 5a5e dc3e b7ab 21bf 04f2 1fbe
00000120: b451 f23f b894 debd 642b e0bd 71b6 413e
00000130: 420a 573b eda6 533d 65d0 dfbd 6c13 523d
00000140: 3e31 f83e ac58 93be ec6a 383d 48aa 20bf
00000150: c6c0 dabe 8c96 343f b00f bf3e d516 913d
00000160: e3cf d83e d7be 7dbe 0bff 0ebe 1cfb c1bc
00000170: b0a7 d6bf c7e2 aebe 6b50 5b3f 2fdf f6bd
00000180: 3ba0 9d3e 3842 823d 50d4 4dc0 50c4 8dbe
00000190: 83a6 613d 1efd 58bd 4634 5fbf 36e1 04c0
000001a0: 2a84 1e3e fa6a 0640 c613 84be caa9 d63e
000001b0: f3f4 7cbf 33be 993e 07ab 7e3e 3d02 0abe
000001c0: 67b8 1fbf 830c 233e 187e 9fbe 42b6 11be
000001d0: 9ac8 74bf 1c3a 7b3d cc1d a23f 62bc 23bf
000001e0: 648e 983e f5d7 cdbe b378 bb3e fecc 6b3e
000001f0: 4570 ca3d fe4f 973f 4b5e 173f 4535 74be
00000200: 8859 0b3d 9d0d 30bf 203d e5bc e3a7 943f
00000210: 010a 3b3e 2349 373f fbf6 63be 3e96 f63d
00000220: a7ac 1a3c 6ea8 9c3e e5f4 e8be 9673 483e
00000230: 137f 143e 113c 1c3f 7b4f 8e3d 6cb1 383f
00000240: ea2d 0e3d 1cbf 8b3d 3888 1f3f 1572 eabc
00000250: 84b9 10bf f889 89be d4f1 12bf fd5f c7bf
00000260: acd6 9b3d 16d9 f2bd 6436 7c3f f27e edbd
00000270: 4853 783e a4c8 6fbe 7c2e bc3b c986 d6be
00000280: 744a 9f3f 40ae 37bd 3762 723e 782c bc3d
00000290: cb9e 16c0 e6d1 093e 6d8c 733e b20a 4bbf
000002a0: f38a 9bbe 13f2 853f 9376 90bf ff79 a0bf
000002b0: ff1b 30bf 483a 0d3e e1f2 b03e ba9a 133d
000002c0: 1d14 0e3d 3e5e 0f3f 8aad dc3e e6a6 b03c
000002d0: 6770 33bf 1a70 64bf 8a7a 5b3e d4c1 e0be
000002e0: 7340 c43e 7325 a3be a0ef 92be 156c acbd
000002f0: 9417 6ebd b94c 81be c691 eb3e 0dca a43f
00000300: 5304 04bd 2245 1ebf 3cc6 d9bd 8d91 3bbe
00000310: 28d1 0abe 6bc9 5c3f 77ff a3bf 4560 983d
00000320: bab2 5f3e 3220 be3f d5a5 96be acb8 2fbf
00000330: 75ef b83e 23d8 ec3e b3df 65be bb7e 26be
00000340: 0c10 4cbe 5b67 04be b58c 48bd fa7a 82bf
00000350: ff91 62be 8f6e 473d d474 0f3e cd76 72bf
00000360: 2d7c bbbe 8b21 543f 636a 8f3e ebb1 073f
00000370: e323 aabd 72bb 973e 707f 1d3e 06d7 ffbd
00000380: 3e2e 6a3e 507f 82bd 06b9 be3f 20f2 b8bc
00000390: b1ec 613d 5c37 a93d ab9a bb3e 03f0 1d3f
000003a0: 266c a23e 5b76 30be 1764 8abe 08a0 b63f
000003b0: 475e f03e fa3c 15bf 13ee 343e 3766 b7bc
000003c0: 9e7a b63e d8b1 8e3e 6902 a83e bab7 b4be
000003d0: c37d 6e3e 956c c53e 0c96 2cbe d04a 54bc
000003e0: ccec 2a3f 90b0 ac3d 9b49 a13d f922 9fbe
000003f0: 2faf 3b3d 1c92 bf3c b120 503e b0ca c0bd
-0.52444 -0.9761278 0.34192502 0.8527451 0.32644534 -0.67851436 -0.5625496 -0.347011
-0.2638472 -0.27444157 -0.2584126 0.032649167 0.09394093 -0.6014542 -0.691464 -0.279045
0.06206422 -0.07004688 -0.62340087 0.37274495 0.27566192 -0.12940085 0.45537835 0.27581307
0.5321881 0.3070739 -0.4976485 -0.2574078 -0.5564741 -0.16258393 0.13463789 -0.14053886
0.98097724 -0.15872581 -1.0547651 -0.4253362 2.2712336 0.94098145 -0.27242985 -0.9788453
0.008196418 0.30987158 -0.022315389 -0.3262577 -0.048623227 -0.13450758 0.032337137 -0.6879217
-0.52406526 1.0258036 0.27694434 0.69069767 -0.85764974 0.057374056 -0.004930573 0.15491033
-0.12627159 0.27374408 0.02618211 0.97894156 -0.6714489 -0.056516744 0.004505351 0.8466442
-0.04462312 3.27402 0.025995264 0.46466836 -0.12255876 0.43040735 -0.6315264 -0.15619665
1.8931184 -0.108682096 -0.10945776 0.18917252 0.003281251 0.051672865 -0.1092842 0.051288053
0.4847507 -0.2877859 0.045023844 -0.6275983 -0.427252 0.70542216 0.37316656 0.07084433
0.42346105 -0.24779831 -0.13964479 -0.023679309 -1.6769924 -0.34157392 0.85669583 -0.12054288
0.3078631 0.063602865 -3.2160835 -0.27688837 0.05509044 -0.052975766 -0.8718914 -2.0762458
0.15480104 2.1002793 -0.25796336 0.41926414 -0.9881126 0.30027923 0.24869929 -0.13477416
-0.6239075 0.15922742 -0.3115089 -0.14229682 -0.95618594 0.061334714 1.2665343 -0.63959324
0.29796135 -0.40203825 0.36615524 0.23027417 0.09884695 1.1821287 0.59128255 -0.23848446
0.03402093 -0.6877077 -0.027983248 1.1613735 0.18265535 0.7159597 -0.22262184 0.12040375
0.009440578 0.30597252 -0.4549934 0.19575343 0.145016 0.61029154 0.069487534 0.72145724
0.034711756 0.068235606 0.6231723 -0.028618852 -0.56533074 -0.26863074 -0.5740025 -1.5576168
0.07609305 -0.11857812 0.98520494 -0.115964785 0.2425052 -0.23416382 0.005742846 -0.41899708
1.2444596 -0.044843912 0.23670278 0.09188169 -2.353442 0.13458976 0.23784037 -0.79313195
-0.30379447 1.04645 -1.1286186 -1.253723 -0.6879272 0.13791764 0.34560302 0.03603623
0.03468715 0.5600318 0.4310115 0.021563958 -0.7009339 -0.89233553 0.21433464 -0.4389788
0.3833042 -0.3186451 -0.28698444 -0.084190525 -0.058127955 -0.25253847 0.46009654 1.2874161
-0.032230686 -0.6182424 -0.10633513 -0.18317242 -0.1355635 0.8624484 -1.2812337 0.07440237
0.21845523 1.4853575 -0.29423395 -0.6864116 0.3612019 0.4625865 -0.22448616 -0.16259281
-0.19927996 -0.12930052 -0.048962314 -1.019378 -0.22126006 0.04868942 0.1400941 -0.94712526
-0.36618176 0.8286368 0.28010854 0.53005856 -0.08307626 0.29635197 0.15380645 -0.12492184
0.22869202 -0.06371939 1.4900215 -0.022576392 0.055157367 0.08262512 0.3664144 0.61694354
0.31723136 -0.17232649 -0.27029487 1.4267588 0.46946928 -0.5829617 0.17668943 -0.022387607
0.35640424 0.2787006 0.3281434 -0.35296422 0.23290162 0.38559404 -0.16854113 -0.01295729
0.66767573 0.08432114 0.07875367 -0.3108137 0.045821365 0.0233851 0.20324971 -0.094136596

fc1.bias f4 [24]
00000000: a5d8 f43e 539f 463f 1d74 c23d 61ad 33bf
00000010: 99fc 5b3e b719 06be c603 08bd cd56 203d
00000020: 2a61 d03e f4e1 b2be 33e7 f9be e814 91be
00000030: 81b7 bc3e 793a adbe 1077 80bd e21f cfbd
00000040: c0ce 1b3e 8917 e23e 05f8 64be 048f dfbe
00000050: 42b0 40bd bb4d 133d e3c9 ab3d 8b88 90be
0.47821537 0.7758686 0.09494803 -0.7018643 0.21483077 -0.13095747 -0.033206724 0.03914528
0.4069913 -0.34938014 -0.48809204 -0.28336263 0.36858752 -0.33833674 -0.06272709 -0.10113503
0.15215588 0.4415858 -0.22360237 -0.436638 -0.047043093 0.0359628 0.08388116 -0.28229174

fc2.weight f4 [48, 24]
00000000: 0636 ebbe 7223 2c3e 50d5 d0be 1c76 88be
00000010: 5b3a 683f 1d1d 1e3f 07fc b3bc 4d51 87be
00000020: c44d 70bd 6a64 873f b84c fbbe 431a 613e
00000030: 292d 3f3e fea9 c03e 31e4 6d3e 8abe 7dbe
00000040: 73cc 3c3e 405e f5bc b14b 483f 9e80 f53d
00000050: 6710 f73d 2017 acbf 38c4 83be 6200 51bf
00000060: fa9f 30bf 1adf 953e 112b 7bbd 8297 263f
00000070: 22d2 73be 54e5 b43e b5e8 e5be 7a7e 19be
00000080: 8b07 eabe e4f8 babf 0f01 ffbe e4e5 03bf
00000090: b620 993e 900a 6bbd 8bfb 983d fd41 883d
000000a0: 9040 3a3e 66f3 81bb 5b48 6ebe f88d af3e
000000b0: 587d 97bf dcbc 943e 5da8 373e 1375 d1be
000000c0: b16b 483f 465b 143f e9d3 70be 46e7 643e
000000d0: 9cfa 1ebd cbae b73e ba9f 873f 2e70 633e
000000e0: 6539 4b3f 5e8d 75bf 7aa4 62bf 0256 f3be
000000f0: 5672 b23e 63b3 0fbf 162d 56bf def8 4fbe
00000100: 7b35 2c3f 2546 523e 406d 38bf 4587 11be
00000110: af7d 203e 6ad7 c03e f708 cfbe 4e8a debe
00000120: 59b7 953e f8ff 30be de79 4cbe 9ee6 a9bd
00000130: 3544 3c3f 850c 67be 052b ed3c 3121 363e
00000140: 1f8c 7fbf 6d12 1c3f 32fa cbbd 11f8 8a3d
00000150: c0bc 0d3e 547b efbe bb94 fabd 9c21 9f3e
00000160: 6895 903d 0715 0e3f e1a0 f33e 383b 38be
00000170: 0132 0f3e ce73 c3bc 0cfd abbe 7982 5d3f
00000180: f5b6 d2be 2b1a 3bbf 5e88 993e 4d3b 423e
00000190: 14bd 923c 59af e6be 253a 2fbf 114d 003e
000001a0: af39 df3e 4366 9e3c 021d 0ebf 353a 9d3d
000001b0: 088b 1abf 0b66 57bf d2b4 e93e 7a4c d3be
000001c0: 621f 16be 9a9f 3a3e 98a8 293f 0561 eabe
000001d0: 7937 c73e 6f25 293f 74c8 70b8 8248 29bf
000001e0: 2b56 ab3d 02b2 233f 4fb7 963e bfa9 f5be
000001f0: ae22 023f 8025 53bd 041e 343e ed62 96bd
00000200: 3e72 2d3f 0d05 1d3e f8c5 9d3e 1f20 a53e
00000210: 63e1 543f dcaa 413f 841d 11bf f400 a8be
00000220: 1618 c8be d751 97bf e68a 193e 6cbf cc3d
00000230: e308 753d b6ee 18be 536b ddbe c4a1 573e
00000240: 9d5f 96bf a357 15bf e53f 46bd ea27 f13e
00000250: ec9e 8c3e f402 6b3e ad5b 93be e894 d2bc
00000260: b2b7 4a3f a633 9d3e 093f 3a3e 5d66 fcbd
00000270: 5208 163f dfcb 1ebf 3faa 3abe a9d2 b9be
00000280: 6e4b 9c3d 1ac2 ab3c aad6 963e b6bf c9be
00000290: b24d 2b3f 352a 1e3f 76b8 653f 50e8 e9be
000002a0: c186 283f a273 0b3d 0004 153f 03f1 5ebe
000002b0: b590 0e3f d916 0cbf 5041 483d 9705 7cbf
000002c0: fbc2 7dbe ca4f 333e d1fe 5ebe 6618 cbbe
000002d0: cfbe fbbe aed1 0bbf 1030 ad3e fa3c a4bf
000002e0: d48e fcbe 39bb ba3e ab29 0e3e 4721 0dbe
000002f0: 5e02 cabd 5150 113e 2ab6 983e b165 563f
00000300: 759d c1bd 41a4 9a3e aa7d 4d3e 87ea 9f3e
00000310: b198 a23e 2783 1ebe 57cb 09bf a2a9 9a3d
00000320: 766c b3be beee e43e 44c6 c53e 2cf5 0cbf
00000330: 7458 dc3e 6284 ee3d ceb7 5b3e a257 453f
00000340: 0b3c 0a3e c18c c73e e131 f4be a4be 45be
00000350: 9086 8abf a412 c6bd b141 c33d 6b2e 023f
00000360: fffe babe 84e1 033e 7fbb 6dbe 4f05 96be
00000370: 3add 4abf 3410 28be fea7 7fbf eca2 033e
00000380: 4356 083e 7556 adbe 6f89 82be 79e2 2ebe
00000390: 14a6 373e 7660 33bd d6ac cbbe 73ea 8c3c
000003a0: d0b5 8bbe f2a5 3bbf 3272 02be 4abb bcbe
000003b0: b166 20be 8704 26be b678 d6bd b00f 1c3e
000003c0: 8be9 7fbf f484 5e3c 8ec8 88bf 634d 163f
000003d0: 04fc ab3b 25ce 3a3e 59ec e63e caf0 8fbe
000003e0: 871d c5be 54ae 363f 3fa1 953f eaaf 3cbe
000003f0: b90c 723e efe8 c9bd d5b4 7ebf a720 bf3d
-0.45939654 0.16810396 -0.40787745 -0.2665261 0.90714043 0.61763173 -0.021970762 -0.26429215
-0.058667913 1.0577519 -0.4908197 0.21982674 0.18669571 0.37629694 0.2323158 -0.24779716
0.18437366 -0.029952168 0.78240496 0.119874224 0.120636754 -1.3444557 -0.2573564 -0.8164121
-0.68994105 0.29271775 -0.06132037 0.6507493 -0.23810628 0.35331213 -0.44904104 -0.14989653
-0.4570888 -1.4607205 -0.49805495 -0.5152266 0.2990777 -0.05738312 0.07469853 0.06653211
0.18188691 -0.003965783 -0.23269789 0.34288 -1.1835127 0.29050338 0.17935319 -0.40909633
0.78289324 0.5795177 -0.23518337 0.22353849 -0.03881322 0.35875544 1.059562 0.22210762
0.7938445 -0.95918834 -0.8853222 -0.47526556 0.34852856 -0.561331 -0.83662546 -0.20309779
0.67269105 0.2053457 -0.720417 -0.14211757 0.15672944 0.37664348 -0.40436527 -0.43464893
0.29241446 -0.17285144 -0.19968364 -0.0829594 0.73541576 -0.2256337 0.028951177 0.17786099
-0.9982318 0.60965616 -0.0995983 0.06785596 0.13841534 -0.4677378 -0.12235399 0.3108033
0.07059747 0.55500835 0.47583678 -0.1799134 0.13983919 -0.02385893 -0.33591497 0.8652721
-0.4115521 -0.73086804 0.29986852 0.18967934 0.017912425 -0.45055655 -0.68448097 0.12529399
0.43598697 0.019335872 -0.5551301 0.07677118 -0.60368395 -0.8414008 0.45645767 -0.41269284
-0.14660409 0.18224946 0.6627288 -0.45777145 0.3890951 0.66072744 -5.7407146e-05 -0.66126263
0.083660446 0.63943493 0.29436728 -0.47981068 0.50834167 -0.051549435 0.17589575 -0.07343087
0.67752445 0.15333958 0.308151 0.3225107 0.8315641 0.75651336 -0.5668566 -0.32813227
-0.39080876 -1.182185 0.14994392 0.09997448 0.05982293 -0.14934811 -0.43245944 0.21057802
-1.1747929 -0.5833685 -0.04840078 0.47100765 0.27464998 0.22950345 -0.2878088 -0.02570577
0.79186547 0.30703467 0.18188109 -0.12324212 0.58606446 -0.6202983 -0.18229006 -0.36293533
0.076315746 0.020966578 0.2946065 -0.39404076 0.6691543 0.6178315 0.8973459 -0.45685053
0.6583062 0.034045823 0.5820923 -0.21771626 0.55689555 -0.5472236 0.04889041 -0.9844603
-0.2478141 0.17510906 -0.21776892 -0.39667052 -0.49169013 -0.5461682 0.3382573 -1.2831109
-0.4932772 0.36470965 0.13883083 -0.13782226 -0.09863733 0.14190795 0.2982648 0.8374892
-0.09453861 0.3020344 0.20067468 0.31233618 0.3175712 -0.15479718 -0.53825897 0.07551886
-0.35043687 0.44713396 0.38627827 -0.550616 0.43036234 0.11646344 0.21456835 0.7708684
0.13499467 0.38974574 -0.47694305 -0.19311005 -1.0822315 -0.09671524 0.09534014 0.5085208
-0.36522672 0.12878996 -0.23216055 -0.29300925 -0.79243815 -0.16412431 -0.9986571 0.12855119
0.13314156 -0.33855024 -0.2549548 -0.1707858 0.17934448 -0.043793164 -0.397803 0.017201638
-0.2728715 -0.7330009 -0.12738875 -0.3686164 -0.15664174 -0.16212665 -0.104722425 0.1524036
-0.99965733 0.013581503 -1.0686204 0.5871183 0.0052485485 0.182427 0.45102194 -0.28113395
-0.3849909 0.71359754 1.1689833 -0.18426481 0.23637666 -0.09858882 -0.9949468 0.093324

fc2.bias f4 [48]
00000000: dc17 25bf c5bc febe dec4 053c cf4a 613e
00000010: fa1f 043e c644 c43d ce36 9a3e f0cc b03d
00000020: a499 243e 1f19 abbd 47a3 f53e e51d 05be
00000030: 8648 40be a70b 31be df9c 5bbe 47c3 423f
00000040: 2e99 813e dbf8 4c3e 17f7 b0bd 912a 2bbe
00000050: eb6b 763e ed8b 58be 2144 35bd 979d 5b3e
00000060: 5913 0e3f e48c 9a3e 21cd cabe 7251 cf3d
00000070: 9068 123e 8bc3 35bd 2a36 0cbd 0661 173f
00000080: da8c 313f 1e81 c63d 6da7 88be fe8e e43d
00000090: 6569 3cbe bd0c 3ebf 0ae6 49be 52b0 64be
000000a0: 953a aabe f412 553e bd78 9d3e d3fd 6dbe
000000b0: 64a1 c4bd 968d babe e2b8 8e3d f284 d1bc
-0.6448953 -0.49753395 0.008164613 0.22001193 0.12902823 0.0958343 0.30119938 0.08632839
0.16074234 -0.08354401 0.47976133 -0.12999685 -0.18777665 -0.17289601 -0.2144656 0.7607922
0.2531218 0.20016806 -0.08640879 -0.16715457 0.24064605 -0.21147127 -0.044254426 0.21446835
0.5549827 0.30185616 -0.39609626 0.10122956 0.142977 -0.044375937 -0.034231342 0.5913242
0.6935555 0.09692596 -0.26690236 0.11160086 -0.1839958 -0.7423819 -0.19716659 -0.22332886
-0.3324782 0.20808011 0.30756178 -0.23241358 -0.09601095 -0.36436146 0.06968857 -0.025576089

fc3.weight f4 [4, 48]
00000000: 8d16 bb3e 6eaa d1bc 4d92 8abf 40ad 4b3f
00000010: 88a9 bcbf 49b4 1bbf 39a6 8abf 6fc9 043e
00000020: 7c4a 84be 0b08 c33e b256 4a3f 12b2 083d
00000030: db42 4dbf 950c 173f 6db5 b5be 9cbb df3d
00000040: 7654 f63e c72d 08bf 2248 c13e a8f7 813e
00000050: 4100 b43c fd07 8fbe 6e4b 7b3f 07a9 4bbf
00000060: 5e5d 15bf 8e25 da3e 582f 2b3e 5573 a6bf
00000070: 0012 6ebf a070 ce3e 94d2 afbf 8175 25bf
00000080: f0de d7be e1a8 48bf e3e9 fa3e e675 0d3f
00000090: acff 6dbf 955b 113f a184 61bf 08f8 d73e
000000a0: 3ce9 043f 33d7 56bf b85c a5be 28c6 1abe
000000b0: 3b47 843f ebf5 213f 48c2 543f d66d 663f
000000c0: bd53 a5bd 575f 57bf f299 a0be 9b11 e6be
000000d0: a59c 923f 5342 c33e 4fbc 8f3f a848 31bf
000000e0: 6764 853e ca11 89be c937 563f 8b6b a8be
000000f0: 34de be3d 3f9c 593e 86f6 943e e910 87be
00000100: c904 70bf 40ed dcbe 2572 233f 2288 0cbf
00000110: d6c8 9ebd b18d f9be 541d 8cbf f8b8 d1be
00000120: 5908 a5be 64cf 81be 2737 42bf 6369 283f
00000130: a432 063f 952d 05bf df96 bb3e c830 ccbe
00000140: afa8 d4be 9041 c93f d1e9 e73e 0389 0f3f
00000150: e3d5 443f ca41 a03e 5207 c8be e20c 1e3d
00000160: 919b 5bbf a090 5a3d d363 203f 4577 d3be
00000170: 196e 0bbf e80e 2ebf 1dd3 d53e 5922 ea3e
00000180: 6f8c f53e 0f00 343f 746c e6be 681e 263f
00000190: 1f23 b53e 4123 dcbd d741 19bf ecda 95be
000001a0: caf4 f9be 3e8b 41be 3925 50bf cc21 8ebf
000001b0: 5671 11be 5c3a 483f 85de 063d c807 a2be
000001c0: b533 cabc c268 ccbe 2fce cebd 6b32 303f
000001d0: 05a9 63bf da3e 753f 5c03 753e d5cb 72bf
000001e0: 202a 4dbe 28a3 5bbf 38b4 263e 5137 083f
000001f0: 9b0f 533e 85d5 6d3f de67 883d f9e6 e33e
00000200: 1bd5 40bf 5e81 6f3e 9aa2 a93e 0847 f33e
00000210: b2e0 b33e ac0b 763d 2e7d e03e 8892 3c3f
00000220: aca0 c83d 317b 183f 89bb d9be d261 90be
00000230: 8016 40be ad5f 043f 0494 833e 93c1 953f
00000240: 3f96 083f 4a80 9ebe f58f 903d 95dc 053f
00000250: 01a3 8b3e 738f f43e 7cee d4bc 3fb2 753e
00000260: 36df a53c cece 2e3d 0d0a c53f bbe9 aebd
00000270: 2b19 bb3e 55bd fabc 8c08 b33d ea35 e03f
00000280: 464e 96bb 7367 de3e 9062 8a3e 7ee1 75be
00000290: 3699 c83e f387 51bd 7656 9dbc a9f9 3d3f
000002a0: 3f3a 913e a309 383e 1964 ebbe 25b2 f73e
000002b0: 95d8 073e 4903 0f3e 19d9 b53d cf03 b03f
000002c0: 70d5 be3e 5af1 a4be d938 80be 2753 2ebf
000002d0: ec61 963d adea 52be a559 19bd 58b9 1ebd
000002e0: f8e2 163d 42bc 073f 1992 90be d39a 183e
000002f0: 840e ddbd 8bf6 48bd 5927 b6bd bb13 d53e
0.36540642 -0.025593963 -1.0825897 0.79561234 -1.4739237 -0.6082197 -1.0831977 0.12967466
-0.25838077 0.38092074 0.79038537 0.033372946 -0.8018014 0.59003574 -0.3548998 0.109244555
0.48111314 -0.5319485 0.37750345 0.2538426 0.021972777 -0.27935782 0.9816197 -0.7955479
-0.5834559 0.42606777 0.16717279 -1.3003947 -0.92996216 0.403203 -1.3736138 -0.6463242
-0.42162275 -0.7838269 0.49006566 0.55258024 -0.9296825 0.5678037 -0.88093 0.4218142
0.5191839 -0.8392212 -0.322973 -0.15114653 1.0334238 0.63265866 0.8310895 0.90011346
-0.080726124 -0.8412985 -0.3136745 -0.44935307 1.1454054 0.3813654 1.1229342 -0.6925149
0.26053163 -0.26771384 0.8367887 -0.3289455 0.09319726 0.2125101 0.29094332 -0.2638009
-0.937573 -0.43149757 0.63846046 -0.5489522 -0.0775315 -0.48740914 -1.094645 -0.40961432
-0.3223293 -0.2535354 -0.75865406 0.6578581 0.5242102 -0.5202268 0.36638543 -0.39880967
-0.41534945 1.5723133 0.45295575 0.5606844 0.76888865 0.31300193 -0.39068085 0.038586505
-0.8578425 0.05336058 0.6265232 -0.41301933 -0.5446487 -0.67991495 0.4176263 0.4572933
0.47958705 0.7031259 -0.45004618 0.64890146 0.35378358 -0.10748912 -0.5986609 -0.29268587
-0.48819572 -0.18900773 -0.813068 -1.1104064 -0.1420339 0.7821405 0.032927055 -0.31646562
-0.024682859 -0.39923674 -0.1009792 0.6882693 -0.8892978 0.9579903 0.23927063 -0.94842273
-0.200356 -0.8579583 0.16279685 0.53209406 0.20611422 0.9290393 0.06660436 0.44512156
-0.75325173 0.23389193 0.33131868 0.4751513 0.35132366 0.060069725 0.43845505 0.7366109
0.09796271 0.59562975 -0.4252589 -0.2819963 -0.18758583 0.5170849 0.25698864 1.1699699
0.5335426 -0.30957252 0.070587076 0.52289706 0.272728 0.47765693 -0.025992624 0.23993777
0.020248037 0.042677693 1.5393692 -0.08540674 0.3654264 -0.030607859 0.087418646 1.7516453
-0.0045869676 0.434383 0.27028322 -0.240118 0.3917939 -0.051155042 -0.019206267 0.74209076
0.2836475 0.17972426 -0.45974806 0.483781 0.13266213 0.13966097 0.08879299 1.3751162
0.37272215 -0.32215387 -0.2504337 -0.6809563 0.07342896 -0.20597334 -0.037439007 -0.038750976
0.036837548 0.53021634 -0.28236464 0.14902811 -0.10793784 -0.049063247 -0.08894224 0.41616616

fc3.bias f4 [4]
00000000: 32ee aabe bf09 0dbf 381a 47bd e4e9 0f3f
-0.33384854 -0.55092996 -0.04860899 0.56216264
