checkpoint_critic.pth (torch_old, 9985 bytes, 5 tensors)

fcs1.weight f4 [24, 33]
0	0xbe07ce8a	-0.13262382
1	0x3d6ceb35	0.0578415
2	0xbe35d82b	-0.17758243
3	0x3f435c74	0.7631295
4	0x3ccdfc9f	0.025144873
5	0xbeef8f87	-0.4678919
6	0xbe4ce235	-0.20008166
7	0xc0069406	-2.1027846
8	0x4005a8f8	2.088438
9	0xbf8c546e	-1.0963266
10	0xbef97c8f	-0.48727843
11	0x3ed54714	0.4165579
12	0xbe89db92	-0.2692533
13	0x3eefc05f	0.46826455
14	0x3e9a09e7	0.3008568
15	0x3dd12b04	0.10213283
16	0xbea32ab4	-0.31868517
17	0x3f5de2fc	0.86674476
18	0x3f82bceb	1.0213903
19	0xbf2ca683	-0.67441577
20	0xbf7d61d8	-0.9897742
21	0x3dc8f87d	0.098130204
22	0xbf8beb99	-1.0931274
23	0x3d08e8d1	0.033425156
24	0xbdee1a83	-0.116261505
25	0xbecddb13	-0.40206203
26	0xbc1be511	-0.009515063
27	0x40199d46	2.4002242
28	0x3e71987b	0.23593323
29	0xbe42d26d	-0.19025584
30	0xc01147ee	-2.2700152
31	0xbde4e1c3	-0.11175873
32	0x4011b2f0	2.2765465
33	0xbd468c47	-0.048473623
34	0xbe2437df	-0.16036938
35	0x3eb1bc91	0.34714177
36	0x3e3c71c0	0.18402767
37	0x3eded4c5	0.43521705
38	0xbc818fcb	-0.015815636
39	0x3b12ac52	0.0022380543
40	0xbe069bbd	-0.13145347
41	0x3daf9c00	0.085746765
42	0xbdfa8183	-0.12231734
43	0x3d660c10	0.056163847
44	0x3c45f2f2	0.012081848
45	0x3d871ccd	0.0659729
46	0xbd3da683	-0.046301376
47	0x3c13dae1	0.009024353
48	0xbda88937	-0.08229297
49	0xbe03fe5c	-0.12889999
50	0x3e2f537d	0.17121692
51	0xbe8b1f5e	-0.2717237
52	0x3edb87ce	0.42877048
53	0xbdc6a661	-0.09699703
54	0x3d6bdf3a	0.057585932
55	0xbdcf4e5f	-0.1012237
56	0xbca033d3	-0.019555962
57	0x3c06cbdf	0.008227318
58	0xbc433dc5	-0.0119165825
59	0x3f6b0483	0.9180376
60	0x3fde4a9d	1.736652
61	0xbf36dfb7	-0.7143511
62	0xbcb51a78	-0.022107348
63	0xbff1e359	-1.8897506
64	0x3e36c70a	0.17849365
65	0xc152f6f7	-13.185294
66	0xbd83d557	-0.06437176
67	0xbe959683	-0.29216394
68	0xbd83252d	-0.06403575
69	0x3dc02cdb	0.093835555
70	0x3ebf3832	0.3734756
71	0xbe89190f	-0.2677693
72	0xbf46e40e	-0.77691734
73	0xbfb83651	-1.4391576
74	0xbe8acd53	-0.27109775
75	0xbf7a92f1	-0.97880465
76	0xbb810534	-0.003937388
77	0x3d48551d	0.048909295
78	0xbdd534e7	-0.10410481
79	0xbd031f3b	-0.032012206
80	0x3d76f7d1	0.06029493
81	0xbd247431	-0.04014987
82	0xbe2c04ce	-0.16798708
83	0xbeec829f	-0.46193406
84	0x4001c3fa	2.0275865
85	0xbfea4058	-1.8300886
86	0xbea181fd	-0.31544486
87	0xbc2a06a7	-0.010377563
88	0xbf8b5343	-1.0884784
89	0xbdc069b3	-0.093951605
90	0xbddda85d	-0.10823128
91	0xbcee5d6e	-0.029097285
92	0xbd096d41	-0.03355146
93	0x4022dbb4	2.5446596
94	0xbe087a72	-0.13327959
95	0x3dbba228	0.09161788
96	0xc02e7b0c	-2.7262602
97	0x3c240f70	0.010013446
98	0xc0b059a5	-5.510943
99	0x3e23864c	0.15969199
100	0xbe056eff	-0.13030623
101	0xbdb989e6	-0.09059505
102	0xbd7d8803	-0.06189729
103	0xbe484ed8	-0.19561327
104	0xbea379b5	-0.31928793
105	0x3dfb0092	0.12255968
106	0xbba8dc0b	-0.0051531843
107	0xbcb68005	-0.022277841
108	0xbd5c7f9f	-0.053832646
109	0x3c652eeb	0.013988237
110	0xbb372e51	-0.002795119
111	0xbcb7f21d	-0.022454316
112	0xbdeb4005	-0.1148682
113	0x3e328594	0.17433769
114	0xbd926252	-0.07147659
115	0x3e0155e1	0.12630416
116	0x3ca4b207	0.020104421
117	0xbe721179	-0.23639478
118	0xbebd1881	-0.36932757
119	0xbaf41d51	-0.001862446
120	0x3d535974	0.05159898
121	0x3d49164b	0.049093526
122	0xbbe370c9	-0.0069409353
123	0x3bc0d7f6	0.0058851195
124	0xbcfdff0f	-0.03100541
125	0xbedb569e	-0.4283952
126	0x4025da9d	2.591468
127	0x3e9d7fa8	0.30761456
128	0xbd22146c	-0.039570257
129	0xc0278eb1	-2.6180842
130	0xbe4a8a7b	-0.19779389
131	0x41640f5c	14.25375
132	0x3e6b912b	0.23004596
133	0x3c999d61	0.018751802
134	0xbd294cf2	-0.041333146
135	0x3e08cf02	0.13360217
136	0xbe6c9069	-0.23101963
137	0x3d86dbd2	0.06584896
138	0x3eb01ef6	0.3439862
139	0xbd049779	-0.032371018
140	0x3bb5f000	0.005552292
141	0xbc952dbc	-0.018210284
142	0x3c959201	0.018258097
143	0xbc8c2a3d	-0.017109985
144	0x3c2d73b5	0.010586669
145	0xbd8e76a3	-0.06956222
146	0x3d9257fd	0.07145689
147	0xbdf5624a	-0.11981638
148	0x3e8a10bf	0.269659
149	0x3eb44606	0.35209674
150	0xbd9cbe21	-0.07653452
151	0x3dbd5885	0.092453994
152	0x3c974fb0	0.018470615
153	0xbb4532da	-0.0030090124
154	0xbc716388	-0.014733203
155	0xbbdb9d2f	-0.0067020874
156	0xbc997eb6	-0.018737178
157	0xbc72e2e4	-0.014824603
158	0x3ee5eb4f	0.4490609
159	0x3fa8487a	1.3147118
160	0xbf7aa3ef	-0.9790639
161	0xbe319962	-0.17343667
162	0xbfa89ff6	-1.3173816
163	0x3c8c8e48	0.017157689
164	0xc1801c11	-16.013704
165	0xbdd92474	-0.10602656
166	0x3c3ed4cb	0.0116474135
167	0x3d7f73e7	0.062366392
168	0xbcfa3a0d	-0.030545259
169	0xbdd8dee2	-0.105893865
170	0xbc8635e0	-0.016383111
171	0xbdb5a5fc	-0.0886955
172	0x3de7ed91	0.11324609
173	0xbdc5c5fd	-0.09656904
174	0x3e0912f8	0.13386142
175	0x3ba14654	0.004921714
176	0x3c5b80c0	0.013397396
177	0x3c512ac6	0.012766546
178	0xbd88d202	-0.06680681
179	0xbdcab1c2	-0.09897186
180	0x3d501bda	0.05080781
181	0xbdbeec2f	-0.09322392
182	0x3e144a7d	0.1448154
183	0x3e6a3f44	0.22875696
184	0x3d53f8a8	0.05175081
185	0x3e00fdb1	0.12596776
186	0x3be840fa	0.007087824
187	0x3da3519f	0.07974552
188	0xbc6d9dec	-0.014502984
189	0x3cad3e38	0.021147832
190	0x3c2ba801	0.010477067
191	0x3f59d76f	0.8509435
192	0x3f2a1a26	0.6644615
193	0x3da2bee7	0.07946568
194	0x3db01350	0.085974336
195	0xbf58abe8	-0.8463731
196	0xbd99df0a	-0.075132445
197	0x4156d588	13.427132
198	0x3f1360ac	0.57569385
199	0xbf2a8a24	-0.66617036
200	0x3eaecce5	0.34140697
201	0x3e832f1b	0.25621876
202	0xbee9a015	-0.45629945
203	0x3ed4efb9	0.41589144
204	0x3f857fd4	1.0429635
205	0xbfc1cfca	-1.5141537
206	0x3eea2117	0.4572837
207	0xc00a5004	-2.1611338
208	0xbe29566e	-0.16536877
209	0x3dfb6cef	0.12276637
210	0x3e280536	0.16408238
211	0x3e21fdb2	0.15819433
212	0x3d815b66	0.06316261
213	0x3ee0264d	0.4377922
214	0x3ebb4924	0.3657924
215	0xbe47ef86	-0.19524965
216	0x3f7ef512	0.995927
217	0xbfa0511a	-1.252475
218	0xbf15dcb8	-0.58539915
219	0xbf5f5514	-0.87239194
220	0xbfa22dda	-1.2670243
221	0x3cc8579e	0.024455842
222	0xbe24d32e	-0.16096184
223	0x3e838f5f	0.2569532
224	0x3ea5fac0	0.3241787
225	0x4088dad6	4.2767134
226	0x3edc360e	0.4300999
227	0xbe36231b	-0.17786829
228	0xc090e28d	-4.527655
229	0x3db3b558	0.08774823
230	0xc0a31a87	-5.096988
231	0x3e24930d	0.1607172
232	0xbe36554d	-0.17805977
233	0xbc9635db	-0.018336227
234	0xbd4e1893	-0.050316405
235	0x3dcd01d4	0.10010114
236	0xbe125d40	-0.14293385
237	0x3de4bc94	0.11168781
238	0x3ddeee03	0.10885241
239	0x3ccaef0a	0.024772186
240	0x3e1b305b	0.15155165
241	0x39cb3db5	0.00038765153
242	0xbc8099d2	-0.015698347
243	0x3d5d1c92	0.053982325
244	0xbe4d38b8	-0.20041168
245	0x3d0b8311	0.03406054
246	0xbd7b07c1	-0.06128669
247	0xbcb3ea41	-0.021962287
248	0xbcc403ab	-0.02392753
249	0xbd1535a8	-0.036428124
250	0x3e2b9ed5	0.16759808
251	0x3d9371d4	0.07199445
252	0xbd3e6b2d	-0.04648893
253	0x3cf9b25b	0.030480554
254	0x3c40f395	0.0117768245
255	0x3b857d09	0.0040737432

fcs1.bias f4 [24]
0	0xc00b991a	-2.1812196
1	0xbfdfa5c9	-1.7472469
2	0xc0268118	-2.6016293
3	0xc02eb4ed	-2.7297928
4	0xbfc3e82e	-1.5305231
5	0xbf62e73c	-0.88634086
6	0xc08bca58	-4.36845
7	0x3f4f0524	0.8086722
8	0xbfc40f3a	-1.5317147
9	0xbfedb72f	-1.8571528
10	0xbfdae53b	-1.7101206
11	0xbf8fc3e8	-1.1231661
12	0xc0404685	-3.0043042
13	0xc01dcd4b	-2.465655
14	0xc0174cf7	-2.3640726
15	0xc007d2a6	-2.122232
16	0xc055a485	-3.3381665
17	0xbfb0a835	-1.3801333
18	0xbf9223f5	-1.1417223
19	0xc0009983	-2.0093696
20	0xbfe711b8	-1.8052282
21	0xbfdd022a	-1.7266285
22	0x3e7774c0	0.2416563
23	0xc01dcdab	-2.465678

fc2.weight f4 [48, 28]
0	0xbdf56cea	-0.11983664
1	0xbe2b0fda	-0.16705266
2	0xbd9b6986	-0.075884864
3	0xba09b74d	-0.0005253449
4	0xbe85354d	-0.26017228
5	0xbeb8522f	-0.360002
6	0xbfa1f590	-1.2653065
7	0xbd51f496	-0.051258646
8	0xbe606599	-0.21913756
9	0xbe09db8d	-0.13462658
10	0x3dabe1f4	0.083927065
11	0x3d5eeb27	0.054423478
12	0xbf1226c5	-0.5709041
13	0xbd827bd8	-0.063712776
14	0x3e29b8cd	0.16574402
15	0xbd9bc974	-0.076067835
16	0xbc1dfbae	-0.009642525
17	0xbbdd50d8	-0.006754022
18	0xbea91007	-0.3302004
19	0xbe4a6484	-0.19764906
20	0xbdfa3dd6	-0.122188255
21	0x3b5a905c	0.0033350205
22	0xbeba0bec	-0.3633722
23	0xbdf3a596	-0.118968174
24	0xbdc39a51	-0.09550918
25	0xbe82bce5	-0.2553474
26	0xbdc14ec9	-0.09438855
27	0xbe95a1b0	-0.2922492
28	0xbea55f18	-0.32299113
29	0xbd8ac598	-0.06775969
30	0xbf8a0074	-1.0781388
31	0xbfa1d7a3	-1.2643932
32	0xbf7f2292	-0.99662125
33	0x3e417848	0.1889354
34	0xbb648f3e	-0.0034875418
35	0xbec18e6f	-0.3780398
36	0xbd803d45	-0.06261686
37	0xbe3457dc	-0.1761164
38	0x3dc662fa	0.09686847
39	0xbe38c141	-0.1804247
40	0x3e19e9ab	0.15030544
41	0xbef18369	-0.4717057
42	0xbe7dd89e	-0.24789664
43	0xbe8e82e0	-0.27834225
44	0xbd980f7e	-0.0742483
45	0xbd117531	-0.035512153
46	0xbd702ba2	-0.05863536
47	0xbe9cd181	-0.3062859
48	0xbe8b652a	-0.2722562
49	0x3ea70b90	0.3262601
50	0x3d906e70	0.07052314
51	0xbf10e83a	-0.5660435
52	0x3cc769bf	0.024342416
53	0x3aede3ab	0.0018149515
54	0xbda35f92	-0.07977213
55	0xbdb3c252	-0.08777298
56	0xbec634ef	-0.3871226
57	0xbc1ed78f	-0.009694948
58	0xbd9ee199	-0.07757873
59	0xbe32cf37	-0.17461859
60	0xbde25075	-0.11050502
61	0xbf55985b	-0.834356
62	0xbee0df20	-0.4392023
63	0xbf17e757	-0.5933737
64	0x3d1a3a23	0.0376531
65	0xbe5abea1	-0.21361782
66	0xbf0374dc	-0.5135019
67	0xbd7bdddf	-0.06149089
68	0xbef13eb8	-0.47118163
69	0x3c881964	0.01661367
70	0xbde6794f	-0.112536065
71	0xbdf4eb59	-0.119589515
72	0xbec82fe6	-0.39099044
73	0x3d464f40	0.048415422
74	0xbe551ba2	-0.20811322
75	0x3db65e18	0.08904666
76	0xbe7fa660	-0.24965811
77	0xbed9f88f	-0.42572448
78	0xbd330e8f	-0.043715056
79	0x3cdb3056	0.026756447
80	0xbcf816e1	-0.030284347
81	0xbe6a9e6b	-0.22911994
82	0x3d8f66ae	0.070020065
83	0xbead0a09	-0.3379672
84	0xbe98a6b7	-0.29814693
85	0xbf239a7d	-0.63907605
86	0xbd9388c4	-0.0720382
87	0xbef142b7	-0.47121212
88	0x3df1f283	0.118138336
89	0x3e34c0ba	0.17651644
90	0xbef3984f	-0.4757714
91	0x3d6daaed	0.058024336
92	0x3d84d9f1	0.064868815
93	0xbe92d475	-0.28677717
94	0xbe0e094b	-0.13870732
95	0x3cb95b83	0.022626644
96	0xbdf80fa4	-0.12112358
97	0xbe8470ac	-0.25867212
98	0x3dfd5860	0.12370372
99	0xbef53c6d	-0.47897664
100	0x3e1c9669	0.15291752
101	0x3d419b40	0.0472672
102	0x3d6e175f	0.058127757
103	0x3ef21cf0	0.47287703
104	0xbed4694b	-0.41486582
105	0xbe62a228	-0.2213217
106	0xbdbeb35f	-0.09311556
107	0xbe25519d	-0.16144414
108	0xbcf18c41	-0.029485824
109	0xbd3c69e3	-0.04599942
110	0xbd456008	-0.048187286
111	0x3ddbc4bc	0.107308835
112	0xbd414b2d	-0.047190834
113	0xbe6b92a0	-0.23005152
114	0x3b900c6e	0.004396013
115	0xbd070489	-0.03296331
116	0xbd8feaa3	-0.07027175
117	0xbde13dbf	-0.10998105
118	0x3c3d7a67	0.0115648275
119	0xbd7e7a26	-0.06212821
120	0xbd2502ee	-0.040285997
121	0xbe224415	-0.15846284
122	0xbc37813f	-0.011200248
123	0xbd80ed4c	-0.06295261
124	0xbd0fbda1	-0.035092954
125	0xbec4c4ef	-0.38431498
126	0xbec97e82	-0.3935433
127	0x3c3a963c	0.011388358
128	0xbe36f835	-0.17868121
129	0x3d7bf96c	0.061517164
130	0xbe504e77	-0.20342432
131	0xbe3b1af6	-0.18272004
132	0xbcbd6cb1	-0.023123117
133	0xbf030279	-0.5117565
134	0x3c88ddb7	0.016707284
135	0xbd062079	-0.032745812
136	0xbd3080ca	-0.043091573
137	0xbc13b213	-0.009014624
138	0x3d88c304	0.06677821
139	0xbdc1597c	-0.09440896
140	0xbe196800	-0.14981079
141	0xbd4b1ffb	-0.049591046
142	0xbe2f6e33	-0.17131881
143	0xbc32644d	-0.010888171
144	0x3ccdc049	0.025116103
145	0xbd771933	-0.060326766
146	0x3bf66d5d	0.0075203613
147	0xbde9e201	-0.1142006
148	0xbe1436b6	-0.14473996
149	0xbce446df	-0.027865825
150	0xbd33add3	-0.043866944
151	0xbe0b2bef	-0.13590978
152	0xbdc6112c	-0.09671244
153	0xbe2146cb	-0.15749662
154	0xbe481da2	-0.19542554
155	0xbdecda59	-0.11565084
156	0xbd2f79cf	-0.042840775
157	0xbdabed79	-0.08394904
158	0xbe30aa49	-0.17252459
159	0xbd8decba	-0.06929918
160	0x3c923e9d	0.017852122
161	0xbcdc6861	-0.02690524
162	0x3c00589d	0.007833627
163	0xbdf42e3d	-0.11922882
164	0xbe473e85	-0.19457443
165	0xbe3ae4f9	-0.18251409
166	0xbdc1b0e6	-0.09457569
167	0xbdee87bb	-0.11646982
168	0xbcf94f0f	-0.030433206
169	0xbde0a6e2	-0.1096933
170	0xbc975a7d	-0.018475765
171	0xbe1dec04	-0.15422064
172	0xbe40979a	-0.18807831
173	0xbd81f86b	-0.0634621
174	0xbcf499d7	-0.029858513
175	0xbd212995	-0.039346296
176	0xbed6fcaa	-0.41989642
177	0x3b95f71d	0.0045765773
178	0xbd889297	-0.06668585
179	0x3d18c5cb	0.037298005
180	0x3dbe153f	0.09281396
181	0xbe19cc12	-0.15019253
182	0x3d065552	0.03279621
183	0x3b3a29b7	0.0028406212
184	0xbd3a8912	-0.045540877
185	0xbd9e7c63	-0.07738569
186	0xbda9ade2	-0.08285119
187	0x3cd7a593	0.02632407
188	0xbdf131b6	-0.1177706
189	0xbe2d3951	-0.16916396
190	0xbe915d6d	-0.2839159
191	0xbd86141c	-0.06546804
192	0xbe1384c8	-0.14406121
193	0xbe00bafc	-0.12571329
194	0xbe2c4837	-0.16824423
195	0xbd642a8c	-0.05570464
196	0xbe10d715	-0.14144547
197	0xbde4b45c	-0.11167213
198	0xbca5339b	-0.020166209
199	0xbd95f1d4	-0.07321516
200	0x3bd21678	0.00641137
201	0x3c1cc8ca	0.009569356
202	0xbdac59d9	-0.084155746
203	0xbe0a09c5	-0.1348029
204	0xbe0b6eb3	-0.13616447
205	0x3cc9a277	0.024613602
206	0xbc9dd842	-0.019268159
207	0xbdb2be2c	-0.08727679
208	0xbe1eafed	-0.15496798
209	0xbdd24924	-0.10267857
210	0xbc4f46d4	-0.012651164
211	0xbd03b00f	-0.032150324
212	0xbd38a699	-0.045080755
213	0xbde9cf8d	-0.1141654
214	0xbdfe966a	-0.12431033
215	0x3d0c66ce	0.03427773
216	0x3d313e28	0.043272167
217	0xbe2c266a	-0.16811529
218	0xbdd4bd24	-0.10387638
219	0xbe37fe81	-0.1796818
220	0xbdbef899	-0.0932476
221	0xbe12bd6f	-0.14330076
222	0xbde08c9d	-0.1096432
223	0xbe1cf7c1	-0.15328886
224	0x3c22f8e5	0.009947036
225	0x3b4b42e3	0.003101521
226	0x3ed01bff	0.4064636
227	0xbf6969b7	-0.91176933
228	0x3e5a72db	0.21332876
229	0xbfa73bc5	-1.3065115
230	0xbeb11399	-0.34585264
231	0xbe5fceec	-0.21856278
232	0xbe204a9e	-0.15653464
233	0x3d1552db	0.03645597
234	0xbc566b72	-0.01308714
235	0x3e4dd265	0.2009979
236	0xbe6eab1c	-0.2330746
237	0xbea2ba0d	-0.3178257
238	0xbe471527	-0.19441663
239	0x3d0c5d50	0.034268677
240	0xbf3170dd	-0.6931284
241	0x3e3e5805	0.18588264
242	0xbd97e266	-0.07416229
243	0xbe1b453f	-0.15163134
244	0x3eed536c	0.46352708
245	0x3e6d91c8	0.23200142
246	0xbe84179b	-0.2579926
247	0x3c213238	0.009838633
248	0x3c322a80	0.010874391
249	0xbd14b795	-0.03630789
250	0xbce13cfe	-0.027494904
251	0x3dc74ca1	0.09731413
252	0xbe9c4ee9	-0.30528954
253	0x3e9333be	0.28750414
254	0x3f1f800d	0.62304765
255	0xbe7cadd0	-0.24675679

fc2.bias f4 [48]
0	0x3afa87df	0.0019113979
1	0x3e4b5c81	0.19859506
2	0xbdca9724	-0.09892109
3	0x3deccd3e	0.11562584
4	0xbe529b26	-0.20566997
5	0xbe4eacae	-0.2018306
6	0xbe4de14b	-0.20105474
7	0xbe085f5f	-0.13317631
8	0x3c87fa59	0.016598867
9	0x3e5da375	0.21644385
10	0xbe833a3f	-0.25630376
11	0xbe32ddc3	-0.17467408
12	0x3e7651cf	0.24054645
13	0xbe8657f5	-0.2623898
14	0xbe29c4b9	-0.1657895
15	0xbd854f7a	-0.065092996
16	0x3dd021b8	0.10162681
17	0xbe0ca836	-0.13736042
18	0xbe520faa	-0.20513788
19	0xbe36e543	-0.17860894
20	0xbdbf8ab7	-0.0935263
21	0x3f0fa79e	0.5611514
22	0x3efb68a6	0.49103278
23	0xbe8804ba	-0.26566106
24	0xbe3be817	-0.18350254
25	0x3d3438a7	0.04399934
26	0xbdddc8ff	-0.108293526
27	0xbdc9454a	-0.09827669
28	0x3dc342d5	0.095342316
29	0xbe4cab99	-0.19987334
30	0xbe61649c	-0.22011036
31	0xbe0ecd27	-0.13945447
32	0xbe2bc150	-0.16772962
33	0x3ea913bc	0.3302287
34	0xbd02d7c4	-0.03194405
35	0xbdc481d7	-0.095950775
36	0xbe820663	-0.25395498
37	0xbd83404a	-0.064087465
38	0xbe68ab85	-0.2272168
39	0xbeb3468d	-0.35014763
40	0xbf11ca7b	-0.56949586
41	0xbeafad2d	-0.3431181
42	0x3ee58346	0.44826716
43	0xbd6e9f95	-0.058257658
44	0xbf034fe9	-0.5129381
45	0x3c7f3805	0.015577321
46	0xbe7525d9	-0.23940219
47	0xbde6e3e2	-0.11273934

fc3.weight f4 [1, 48]
0	0xbc4f0305	-0.012634997
1	0x3d3c5d13	0.0459872
2	0x3cbb350a	0.02285244
3	0xbcd95d0c	-0.026533626
4	0xbb9af8e0	-0.0047293752
5	0x3c7daa88	0.015482552
6	0xbc378743	-0.0112016825
7	0xbbdd3aa7	-0.0067513767
8	0x3cb5a35e	0.022172626
9	0x3c3b2848	0.011423178
10	0xbcb32655	-0.021868864
11	0xbb2a66ee	-0.0026001292
12	0x3c7c811a	0.01541164
13	0xbc5d85b9	-0.0135206515
14	0xbb750dfd	-0.003739237
15	0xbc3e2983	-0.011606577
16	0x3d12c63e	0.03583359
17	0x3c8391a2	0.016060654
18	0x3b827f9a	0.0039824964
19	0x3bcf0582	0.0063177953
20	0xbbb452cd	-0.0055030347
21	0x3d10c329	0.03534237
22	0x3d651a5d	0.055933345
23	0xbb7f3c65	-0.003894591
24	0x3bf4a0ce	0.0074654585
25	0x3be99f8a	0.0071296142
26	0x3c81b968	0.015835479
27	0x3bdc6933	0.006726408
28	0x3dfd9476	0.12381832
29	0xbd006b52	-0.03135235
30	0x3c5c32c3	0.013439837
31	0xbc0020e4	-0.007820342
32	0xbc3d86ec	-0.011567812
33	0xbc9959f2	-0.018719647
34	0xbca15e10	-0.019698173
35	0xbc45bfb4	-0.012069631
36	0x3c21e808	0.009881981
37	0x3d46938d	0.04848056
38	0xbc0ddbcf	-0.0086583635
39	0xbc026fce	-0.007961227
40	0x3cb35468	0.021890834
41	0xbb8919cd	-0.004183984
42	0xbbe2c46f	-0.0069203894
43	0xbc256bbf	-0.010096489
44	0xbbdaf6ce	-0.0066822534
45	0x3d64fb33	0.055903625
46	0xbc61ac63	-0.01377401
47	0x3c886a7a	0.016652334
