checkpoint_actor.pth (torch_old, 89199 bytes, 10 tensors)

fc1.weight f4 [128, 33]
00000000: 4541 33bf b381 a4bc 19cf ebbe bf40 82bf
00000010: ca61 413f 412c 92bf 99fb dfbf 1d61 023f
00000020: 53a9 e8bd b6b8 ac3e 0b92 15be 48db 47bd
00000030: 0c1f a83e dc3a 183f 624e ef3c 1857 c63e
00000040: 86fb e73e c84e bebe fb88 f5bf c741 24c0
00000050: 6bf7 af3d 94fe 35be d0e8 7e3e 016d 4c3d
00000060: ab06 1c3e 54f0 953e 77de d3be 841e 82be
00000070: 077b 353f a9c8 14bd c3d4 633e 00a3 f13b
00000080: 62b2 b53f 3c35 b83c 5564 a9bf 3853 0c3f
00000090: c779 533f 20fe d83d 6cd0 a13e cd2d 3e3f
000000a0: 0707 d73d af4e 35be 12c6 083f f021 9fbe
000000b0: bfeb 8bbe 9a34 4e3e 51be c73d 8495 fe3e
000000c0: 5975 d1be c24c 99be 6b4c 77bf b0d7 693e
000000d0: b400 07bf b6e1 4abb 41d1 5bbc 8fb0 253e
000000e0: 0a4c 1abe b49d 863d f0da c43b 528a a9be
000000f0: c691 63be 19ca dfbd 5668 703d 8d9c f63d
00000100: e050 aebb b2a7 b1c0 1358 8abd ef3a e73c
00000110: 4f11 80be ec66 9a3d f4ca 95be cfec c5be
00000120: 82d9 3f3f 426f 1d3e 7c5e 123f 0490 cd3d
00000130: 6188 1c3e 8e65 b6bd a1e7 d1be e22d 6fbd
00000140: 72d9 893e a94f 8ebd 9546 c33e 6d82 0bc0
00000150: 51ae 58be f42f 953f cdae 12be 46c7 c8be
00000160: 6c67 0c3e 4b23 5a3e 7cba 313e d237 53be
00000170: 3788 fabe c8b7 593f 7b6c 463f b8c9 49bd
00000180: d38f 76bf d619 e6bc ad81 6640 2d11 adbe
00000190: 3122 d4bd 5197 d93d 165b 2cc0 2fe1 ad3e
000001a0: ea0a babf 22cf 0940 2e45 b43e 4426 203f
000001b0: b08c babe 8556 2f3e 5f12 1ebe 2903 9ebe
000001c0: 5b85 c33e 75a7 9fbe 5e99 3ebe 8bb4 0140
000001d0: 8617 323e c111 a2bf bf60 2abf 4c32 25be
000001e0: 1e47 313e 962d cdbe d76c 0bbd 4d32 ecbd
000001f0: adf3 61be d071 77be b4f5 283f a42b 22bf
00000200: 099e 81bd 0a0f 36bf 7fc0 98bd 0509 f53e
00000210: 2958 31bf 0668 c93e 300e 873e dea6 12bf
00000220: a50a 1b3f ba92 df3e 79f4 0940 fbc7 693d
00000230: 9ec9 d1bd a275 97bc d627 9ebd 79c5 943d
00000240: 975b d3bd c6f2 a33e 1ec1 83be 5996 3cbe
00000250: 1c54 c63e fcb3 6b3f a02f ccbe 5609 0ec0
00000260: 226f 193c ffcd 3abc d7d9 82be c9a4 5cbd
00000270: a72c 2c3c 8cfa 573a e808 b83e 50a6 c53e
00000280: fee5 48be a741 81bd 1e85 d2be 0af6 3e3d
00000290: d0c8 8c40 246e 613f b879 b33e eaf4 923f
000002a0: c012 06bf fe4d 243f 6d2d 2540 b47c abbf
000002b0: d28b bbbd ad99 ee3d 1256 9c3e af4f 973d
000002c0: 2656 adbc 0be0 aabe 63a9 dcbd 8b60 36bf
000002d0: c0f7 73bf e5b0 43bf ea5b 29bf c98f 8e3f
000002e0: e0c2 c8bf fb94 81bd 207d 5d3d dee2 e53d
000002f0: cff8 9b3e b139 aabe 3891 a6bd 55cc a2be
00000300: 7b2d 543e aac6 bbbe 9888 593c 8e1e 1abe
00000310: 36dc 713d c7f1 27be 88d9 a43f e6db f43e
00000320: 3dcb 4e3e ccfa 8e3f 7799 9f3f 0375 78bf
00000330: b6c4 dd3c 2fe6 463e 1c23 37be fa7e db3e
00000340: 2e74 b63d ecd3 163e 38a4 783d af67 1ebf
00000350: bce0 d53e 8ae3 7cbd b240 0dc0 8db3 853f
00000360: 8be0 11c0 d00e 37bf d7f3 0ebd f257 4abd
00000370: ce10 92bd b59c a1be 4498 7c3e 2ab4 4abe
00000380: da66 45bf d5a6 e13e 7a4a c33c ce5d 793d
00000390: 9834 0bbf fc67 9fbd 835e a23f e32e 24bf
000003a0: 0151 ea3e bc4b a03e b219 a9bf 7ab7 673c
000003b0: 6fc1 2440 8056 833f 929c fbbe a45d bf3d
000003c0: 5f85 023e 358a 4e3e f7bb e93d 2ab8 933d
000003d0: 7613 a63e 73ff 9ebe 48cb 103e 64b0 81bd
000003e0: d800 2bc0 32a3 3b3f 84c3 563f a0cd 493e
000003f0: 14a1 a53e f06d 99be 737c a03c ab09 f43d
-0.7002147 -0.020081377 -0.4605644 -1.0176009 0.7553984 -1.1419755 -1.7498657 0.50929433
-0.11360421 0.33734673 -0.14606492 -0.048793107 0.32836187 0.5946481 0.02921218 0.38738322
0.45309085 -0.3716948 -1.9182428 -2.5665147 0.08592113 -0.17772895 0.24893498 0.04990864
0.15236919 0.29284918 -0.41380665 -0.25413907 0.7089085 -0.036324177 0.22249131 0.0073741674
1.4195063 0.022486322 -1.3233744 0.5481448 0.8260769 0.105953455 0.31604326 0.74288636
0.10499387 -0.17705797 0.5342723 -0.3108058 -0.27328297 0.20137253 0.09753097 0.49723446
-0.40909842 -0.29941374 -0.9660098 0.22836185 -0.5273545 -0.0030957288 -0.013416589 0.16180633
-0.15068069 0.06573048 0.0060075447 -0.33113343 -0.22223577 -0.10927219 0.058693253 0.120415784
-0.0053196996 -5.5517206 -0.0675508 0.028226344 -0.25013205 0.07539162 -0.29256403 -0.38657233
0.74941266 0.15374473 0.5717542 0.100372344 0.152864 -0.08906089 -0.4099703 -0.058393367
0.2692371 -0.06948788 0.38139787 -2.1798356 -0.21160246 1.1655259 -0.14324494 -0.39214534
0.13711327 0.21302526 0.17356294 -0.20626763 -0.4893205 0.8504605 0.7750928 -0.04926464
-0.9631321 -0.028088491 3.6016648 -0.33802167 -0.10358084 0.106245644 -2.6930594 0.33960864
-1.4534581 2.1532674 0.3520903 0.6255839 -0.3643546 0.17122848 -0.15436696 -0.30861786
0.3818768 -0.31182447 -0.18613192 2.0266445 0.17391786 -1.2661668 -0.6655387 -0.16132468
0.17312285 -0.40073842 -0.034039345 -0.115330316 -0.22065611 -0.2416451 0.65999913 -0.6334784
-0.06328971 -0.711167 -0.07458591 0.47858444 -0.69275147 0.39337176 0.26378012 -0.5728587
0.6056312 0.4366663 2.1555464 0.05707548 -0.102435336 -0.018488709 -0.07722442 0.072642274
-0.10320204 0.3202116 -0.25733274 -0.18416728 0.38736045 0.9207151 -0.39880085 -2.2193198
0.009364875 -0.011401652 -0.25556824 -0.05386809 0.010508693 0.00082389335 0.35944295 0.3860345
-0.19618985 -0.0631135 -0.41117185 0.04662136 4.3995132 0.88058686 0.35053802 1.1480992
-0.5237236 0.64181507 2.5808976 -1.3397431 -0.09157528 0.11650405 0.30534416 0.07388245
-0.021159243 -0.33374056 -0.107744955 -0.7124106 -0.9529991 -0.76441795 -0.66155875 1.113763
-1.5684471 -0.06327244 0.054074407 0.11224912 0.30463263 -0.3324714 -0.08133167 -0.31796518
0.20720474 -0.36675006 0.013277195 -0.15050718 0.0590479 -0.16400824 1.2878885 0.4782402
0.20194717 1.1170287 1.2468709 -0.97053546 0.027071338 0.19423746 -0.17884487 0.42870313
0.08908878 0.1472928 0.060703486 -0.6187696 0.4177302 -0.061740436 -2.2070737 1.044542
-2.27933 -0.7150698 -0.034900513 -0.049400277 -0.071321115 -0.3156487 0.2466746 -0.1979529
-0.77110064 0.44072595 0.023839224 0.060880475 -0.54377127 -0.07783505 1.2685093 -0.64134043
0.45764926 0.3130778 -1.3210967 0.014142865 2.5743062 1.0260773 -0.4914289 0.093440324
0.1274619 0.2016991 0.114128046 0.07212861 0.32436723 -0.31054267 0.14140046 -0.06332472
-2.6719265 0.7329589 0.83892083 0.19707346 0.32349455 -0.29966688 0.019590592 0.119159065

fc1.bias f4 [128]
00000000: 4027 c33e 7448 993e 2afb 3bbf ca84 02bf
00000010: c2bf f1be 73f2 09be 93ef 13bf 933b 82bf
00000020: 2f75 5ebf 1d3c 81bf ca96 2e3f d3f8 ebbe
00000030: 4820 39bf bd2e 1abf 5bb0 913d 94ed 8fbf
00000040: cb57 66bf 225f 13bf 5d45 3abe de8a 2cbf
00000050: 282e e9be 6c85 a8be 77c4 89bf bd10 7ebf
00000060: d6f8 3ebe b97f 38bf e21c 00bf 8967 98bf
00000070: 6311 98bd 62f0 72be dee0 83bf c0f8 aabd
00000080: 94d4 053f 9cef 7bbf de23 a63d 6080 d9be
00000090: ff99 d33c 6011 94be 1f9b 7dbf d2ce 193f
000000a0: b40f 50bf 1535 24bc faae 8abf b1b7 8abe
000000b0: e2d9 31be 4305 88be 3c4c ccbe 91a1 a0be
000000c0: c809 163e c0f9 aa3e b596 c0be 24fe 17bf
000000d0: 066e 95be 3847 33bf b620 64bd 5c18 d3be
000000e0: 3625 c9bf 2dd2 28bf 5cda af3e 5a90 683f
000000f0: 48c2 31bf bec6 533d 81cd 5ebf 100f b2be
00000100: a824 01bf a111 2fbf 88e5 2b3f 8817 3ebf
00000110: ace1 0ebf 987b cdbe 7766 1340 6302 85bf
00000120: 133d 9abf e7c9 8bbf 31ff b53e d1d8 0f3e
00000130: 5a88 3ebe 143c 41be 0e3f 20bf 2340 673f
00000140: b947 51be 9935 14bf 4e19 753f 1aee 89be
00000150: 03e8 36bf bc31 e43e 8857 ab3e c15e d1be
00000160: b88a 9cbe c67d d5bc 9185 c3be 33f6 acbe
00000170: 1e1f 47be 93b3 c2be 971e 7ebe 024c b43e
00000180: 1988 1dbe 8cc8 42be 8e11 b8bd 4374 50bf
00000190: 3dfb 993d faf6 d0bd 2cb5 c4be 9b35 1fbe
000001a0: 290f 96bd 0f07 46bf 0346 68be f289 423d
000001b0: b576 2a3d 9a80 55be cb38 3dbf 2063 8ebf
000001c0: 306a 3abf 05db ccbf 8025 23bb 885d 11bf
000001d0: 445e 01bf 3c72 90be 884c 88bf 0343 cabe
000001e0: f474 59bf b8d4 ccbe 742f edbe 9ba6 65bf
000001f0: 84c1 a3bf bc68 c1be 3993 793f baa5 79be
0.38115883 0.2993809 -0.7343012 -0.5098387 -0.47216612 -0.13471393 -0.57787436 -1.0174431
-0.8689756 -1.009647 0.68198836 -0.46088275 -0.7231488 -0.60227567 0.07113715 -1.1244378
-0.8997771 -0.57567036 -0.18190522 -0.67399395 -0.45543027 -0.32914293 -1.0763081 -0.9924429
-0.18649611 -0.7206989 -0.5004407 -1.1906596 -0.07425191 -0.23724511 -1.0302999 -0.083482265
0.52277493 -0.9841249 0.0811231 -0.42480755 0.025830267 -0.28919506 -0.9906482 0.6008121
-0.8127396 -0.010022421 -1.0834649 -0.2709327 -0.17368272 -0.26566514 -0.39901912 -0.31373265
0.14652169 0.3339367 -0.3761498 -0.5937216 -0.29185504 -0.70030546 -0.055695258 -0.41229522
-1.5714481 -0.659457 0.34346282 0.90845263 -0.69437075 0.051703207 -0.87032324 -0.34777117
-0.5044656 -0.68386275 0.6714711 -0.74254656 -0.558131 -0.40133357 2.303129 -1.0391353
-1.2049888 -1.0920991 0.35546258 0.14047553 -0.18606701 -0.18870574 -0.62596214 0.9033224
-0.20437516 -0.57894284 0.95741737 -0.2693947 -0.7144777 0.44569194 0.3346522 -0.40892604
-0.30574584 -0.02606095 -0.3818784 -0.33781585 -0.19445464 -0.3802763 -0.24816357 0.3521424
-0.15383948 -0.19021815 -0.08987723 -0.814274 0.07518623 -0.10203357 -0.38419473 -0.15547793
-0.0732711 -0.7735452 -0.22682957 0.047494836 0.041617114 -0.20849839 -0.73914784 -1.1124
-0.7281828 -1.600434 -0.0024894178 -0.5678334 -0.5053446 -0.28212154 -1.0648355 -0.3950425
-0.8494408 -0.40006042 -0.46325266 -0.89707345 -1.2793431 -0.37775218 0.9749027 -0.24379626

fc2.weight f4 [128, 128]
00000000: d1be d1be 0583 c2be ba24 013f 4ebe 4ebd
00000010: 3dda 4fbf 5327 a6bf 579c 2dbf 5f6e 0b3f
00000020: 9b66 0a3e 6760 283d 6d92 ce3e 3404 91be
00000030: 1fa5 b13e 05a3 f23d 8e14 5ebe fe6f 593f
00000040: 4fc5 263f d006 31bf 1bcb f1bf 30ca 283e
00000050: 845e 46bf d4ba aa3e 802b a93f 5039 edbe
00000060: e3fc 36be aa4e 023f 1de1 ae3f 3c07 a7bf
00000070: 7aaf 8cbd d53b 2abf 79c3 5fbf d7e7 da3b
00000080: 7e2e 693f 7441 8a3f 6d10 10bf f8c4 0ebf
00000090: e1b6 cd3d 5ed0 1dbd 7094 d0be 26bf a5bd
000000a0: 4c24 21be b459 ac3e cc71 5b3f 3650 86bf
000000b0: 8db0 98be a561 8cbf f8e7 c13e 109a 1c3f
000000c0: f794 493d 3f5f 2abe e904 29bf 35db 9b3e
000000d0: 03b5 e1be d02d d43d 40c7 1dbe dafb 713f
000000e0: 1470 013f 7dc4 c8bd cf3a 383f 6484 dd3e
000000f0: a355 f63e 5ddd 6c3f b735 1c3f 6764 ab3e
00000100: c27c 453f 25a6 c83c 5f32 4bbf 1f6e b63f
00000110: 1ac5 0b3f 8e29 923d 32d1 cebd f61c 4bbd
00000120: 9b57 a1bf c863 543e 4767 253f daa2 a23e
00000130: e869 1f3d 149e 893e a221 a6be 177b 42be
00000140: 355e 203d 01a6 9fbe 57d3 b7be efd0 dc3e
00000150: 8c3d ae3e 782d 73bf 791d df3e c17c 1f3f
00000160: 84f5 0f3f c674 8f3e 2860 243f ffd5 103f
00000170: dbdc 68be 8981 93be 6690 4a3f daeb 1dbf
00000180: 2241 afbd 159f 0bbf 3b9c 08bf 357f 0c3f
00000190: 8a37 b9be 0bdd 98bf 59ea e8be dbea b63e
000001a0: d921 b2bc bbc9 673d bc12 b0bf c73c 773e
000001b0: f3cc d13d d9dc 2fbf b6c0 3bbf 99da e1bd
000001c0: e6b9 113f 09aa 2cbf faa5 dabe cdb2 673e
000001d0: 6979 adbe cd40 d4be b242 923e f4e8 31bf
000001e0: 37d7 4a3f 5243 74bf 5f63 b73e def0 083f
000001f0: eaab be3e 9f7b 09bd cc4c 553e a4d8 15bf
00000200: 70d6 febe ce31 abbf 9d0e 723f 348b 813e
00000210: 09e9 c9bf ab96 9cbf f0dc 7abf c44b 1cbf
00000220: 44e5 b4be ac26 ccbf 35a4 dbbf 92f3 edbe
00000230: 8d1f bc3e cc30 47be 3c2b 043e 8eb6 973e
00000240: 863e 853e 193c 46be e4c4 ccbe 08d2 89bf
00000250: 7d0d 4fbf 575b 143f 1b84 b83e d688 2b3d
00000260: c473 a6bc e6cf 883e 1aa7 fa3e 45d9 34bf
00000270: dfbf 2a3f af93 803e 6b41 b5bf 731a 903e
00000280: 8af8 693f b150 afbf 52d0 6dbf e740 593f
00000290: 7c49 473f aeb4 f4bd d881 233f 6d91 44bf
000002a0: cd33 f5bd dad4 3fbf e73d 4c3e bead a33e
000002b0: d761 32be 4776 7fbe d6cf 663e b574 bd3f
000002c0: 6d94 083f 86ce f23d c200 eb3e 7213 f23d
000002d0: 067d 0abe 05d9 5fbe be27 0cbe 7a9c f53e
000002e0: 54b9 ba3e c2da 443e dd93 07bf 428e e6bd
000002f0: 454c 523e 96cc c83e d159 e2be 945b 24bf
00000300: 33d9 9ebd 7c7c c13e b73b c1bf 08f4 63be
00000310: cb50 09bf bc94 96bf f8f1 303f 8339 2fbf
00000320: a8b5 103f 706b 073e a082 de3e 9357 27bf
00000330: eb44 4dbe dc2a 9abf 00bb 4d3f 3593 54be
00000340: c27d 38bf 7868 9fbe 7440 d2bd 5a29 493e
00000350: ff82 9e3e bf65 78be c25d d33d c80a bb3e
00000360: c65a 58bf f0e6 57bf 74a4 eb3e be29 883d
00000370: 8c4c c4be fcdb d0be 004c 893d cd7a 13bf
00000380: c624 33bf e55b 57be f73e 8fbf f333 bcbe
00000390: c263 dcbe 3d69 a23e 304a 2a3e ebf2 d7be
000003a0: 18d3 85be fde1 75be 65c4 e2bf 57cb 72be
000003b0: 69a0 ed3e fa63 4abe 54f6 53bd ced6 b93e
000003c0: 3b9e 493e b89e 0f3f 9a71 24bf 2365 263e
000003d0: 80f6 babe a074 a0be 57ad aebf 2b1a fdbe
000003e0: 25fe b0bd f27e ac3d 5ae5 ec3e ef92 d83e
000003f0: 15a4 96be ba86 0e3f b3cf 243e 63ce d73d
-0.40965894 -0.37990585 0.50446665 -0.050474457 -0.8119238 -1.2980751 -0.6781668 0.5446529
0.13515703 0.04110756 0.4034609 -0.2832352 0.3469629 0.118475 -0.21687528 0.8493651
0.6514482 -0.6915102 -1.8890108 0.16483378 -0.7748797 0.33345664 1.32164 -0.46332788
-0.17869906 0.5090128 1.3662449 -1.3049083 -0.06869407 -0.66497546 -0.8740764 0.0066804695
0.91086566 1.0801225 -0.56275064 -0.557693 0.10044647 -0.038528793 -0.4073825 -0.08093099
-0.15736502 0.33662188 0.85720515 -1.0493228 -0.29822198 -1.0967299 0.3787229 0.6117258
0.04921433 -0.16637896 -0.6602312 0.3044068 -0.44083413 0.103603005 -0.15408039 0.9452492
0.5056164 -0.09803102 0.71964735 0.4326507 0.4811221 0.92525274 0.6101946 0.33475038
0.7714349 0.024493286 -0.79373735 1.4252356 0.5459763 0.07136832 -0.100984946 -0.049588166
-1.260486 0.20741189 0.64610714 0.3176487 0.03891936 0.26878417 -0.32447535 -0.18992268
0.039152343 -0.31181338 -0.35903427 0.43128154 0.34031332 -0.94991255 0.43577173 0.62299734
0.56234 0.2801878 0.6420922 0.5657653 -0.227405 -0.28809765 0.79126585 -0.61688006
-0.08557345 -0.54539615 -0.5336339 0.548816 -0.36175185 -1.1942457 -0.45491293 0.35726056
-0.021744655 0.05658887 -1.3755717 0.24144278 0.10244169 -0.6869636 -0.7334093 -0.11028022
0.56924284 -0.67446953 -0.42704755 0.22626801 -0.3388169 -0.4145569 0.2856651 -0.69496083
0.7923464 -0.9541522 0.35818002 0.53492534 0.37240535 -0.03356516 0.20830077 -0.5853369
-0.49772978 -1.3374574 0.9455355 0.25301516 -1.5774242 -1.223348 -0.97993374 -0.6105311
-0.35331166 -1.5949302 -1.7159487 -0.46474892 0.3674282 -0.19452208 0.12907118 0.29631466
0.26024264 -0.19358863 -0.39993966 -1.0767221 -0.80879956 0.57951874 0.36038288 0.041878544
-0.020318873 0.26721114 0.48955613 -0.70644027 0.6669902 0.25112674 -1.4160589 0.2814518
0.91394866 -1.36965 -0.92895997 0.8486466 0.77846503 -0.119485244 0.6387 -0.767844
-0.11972771 -0.7493416 0.19945489 0.31968492 -0.17420135 -0.24947463 0.2254022 1.4801241
0.5335148 0.118557975 0.45899016 0.11820115 -0.13524255 -0.2186013 -0.13687035 0.47970945
0.3646952 0.19224074 -0.52959996 -0.11257602 0.20536907 0.39218587 -0.4420915 -0.6420224
-0.07756271 0.37790287 -1.5096349 -0.2226106 -0.53638905 -1.176414 0.69119215 -0.6844713
0.56527185 0.13224578 0.43459034 -0.65368 -0.20045821 -1.204433 0.80363464 -0.2075928
-0.7206689 -0.3113439 -0.102662 0.1964468 0.30959317 -0.24257563 0.10320617 0.36531663
-0.8451351 -0.8433676 0.46023905 0.06648587 -0.3833965 -0.40792835 0.06703949 -0.57609254
-0.69977987 -0.21031149 -1.119109 -0.36758384 -0.4304486 0.31720915 0.16629863 -0.4217752
-0.26137614 -0.24011989 -1.7716185 -0.2371038 0.46411446 -0.197647 -0.05174859 0.36296695
0.19689266 0.5610156 -0.6423584 0.16249518 -0.3651619 -0.31338978 -1.3646649 -0.49434027
-0.08642224 0.084226504 0.4626873 0.422996 -0.2942206 0.55674326 0.16094856 0.10537412

fc2.bias f4 [128]
00000000: 8f27 8cbf 656d adbf 5eb5 abbe fce4 47be
00000010: eb11 dfbe 01b3 2cbf 2f49 93bf ba19 88bf
00000020: 9725 97bf 80eb 82bf 25c4 02bf 26d9 3abd
00000030: 9631 7bbf 3082 32bf da98 5cbf 8793 85bf
00000040: e7f3 08bf ac93 01bf 8c43 a6bf 5354 a3be
00000050: 8e4a ddbe c842 b5bf 02cf 3c3e c570 58bf
00000060: 20e1 92bf bf09 bfbe 6fa4 1dbf 4cef 23be
00000070: 45e6 57be 8bd7 a8be 4b32 2cbf 53c6 1bbf
00000080: 3bf3 55bf d2c5 2dbf 779c 50be d86d 3cbf
00000090: d1ec ffbe 7a80 60be d0b7 4bbf 7a82 3fbf
000000a0: eaad 31bf f43a adbf dfcc a0be fb18 5abf
000000b0: caa2 c8be f6ec 69be a891 84bf c11e c5be
000000c0: 923c fcbd 53b0 bfbe 6065 85bf 9299 2dbf
000000d0: 522a 49be 8a55 15bf c4a8 1bbf 5918 f6be
000000e0: 4a56 d0bc e590 35bf 9a66 e6bc 09d0 71bf
000000f0: 95d7 8abf 5afa e5be 8c16 1abf 89aa 83bf
00000100: c838 f83d 729b 47bf 6e2e 55bf 6f74 f9be
00000110: 0780 3fbf 46a9 c6be bd91 6fbf 2899 31bf
00000120: 9395 8b3d 0955 dfbe b2d0 b1be 6d01 e53d
00000130: ff54 a6bd 6738 3cbf aac6 a1be 9d21 f83d
00000140: db45 92be da81 1bbf 600e 13bf 90be 98be
00000150: e333 acbe a8b7 eabe 6476 54be fcf9 3bbf
00000160: 91a8 8dbc f04a 03bf 4337 8abf ec64 1cbe
00000170: 3cbc b5be 87f7 0cbe 9912 bbbe ad84 32be
00000180: 9a29 5abf d11d 82bf 22e7 7f3d 6af9 e6be
00000190: b8f1 623e e2f7 86be bf1f 813e dc69 c9be
000001a0: ffbe aabe 1adc 57bf 1bec 23ba b85d ccbf
000001b0: e332 07be 14be 6cbe 3649 363b f97a 4e3d
000001c0: b47b babf 73fb d13e 89b0 4cbe ae77 81be
000001d0: 27ac 42bf 4e39 43bf ef36 a4bd 9e20 07bf
000001e0: a2b7 c4be ddd0 58bf 6667 17bf 5b46 1abd
000001f0: 3c1e 24bf 6ed3 42bf 1664 c7be b515 cbbc
-1.0949572 -1.354901 -0.3353681 -0.19520944 -0.43568358 -0.6746064 -1.1506709 -1.0632851
-1.1808347 -1.0228119 -0.5108054 -0.045617245 -0.9812254 -0.697299 -0.8617073 -1.0435647
-0.53497165 -0.50615954 -1.2989364 -0.31900272 -0.43220943 -1.4161005 0.18438342 -0.8454707
-1.1474953 -0.37312123 -0.6157903 -0.16009253 -0.21083935 -0.32976946 -0.6726424 -0.60849494
-0.83574265 -0.67879975 -0.20372187 -0.7360511 -0.49985364 -0.2192401 -0.7957735 -0.74808466
-0.69405997 -1.3533616 -0.31406304 -0.8519437 -0.39186698 -0.228443 -1.0356951 -0.38500026
-0.1231624 -0.37439212 -1.0421562 -0.67812455 -0.1964505 -0.5833365 -0.6080439 -0.4806545
-0.02543177 -0.70924217 -0.028125096 -0.9445806 -1.084704 -0.44917566 -0.60190654 -1.0286418
0.12120205 -0.77971566 -0.8327397 -0.48721644 -0.7480473 -0.3880102 -0.93581754 -0.6937432
0.068156384 -0.43619564 -0.34729534 0.111819126 -0.081216805 -0.73523563 -0.3159688 0.12115786
-0.2856892 -0.6074501 -0.5744381 -0.29832888 -0.33633336 -0.45843244 -0.20748287 -0.7342832
-0.017292293 -0.5128622 -1.0798115 -0.15272874 -0.35495174 -0.13766299 -0.36537626 -0.17433424
-0.8521973 -1.0165349 0.062476285 -0.45112163 0.22162521 -0.26360995 0.25219533 -0.39338577
-0.33348843 -0.84320223 -0.0006253139 -1.5966101 -0.13203005 -0.23119384 0.0027814633 0.050410245
-1.4569001 0.41012153 -0.19989218 -0.2528662 -0.76043934 -0.76259315 -0.0801829 -0.52784145
-0.3842135 -0.846937 -0.5914215 -0.037664752 -0.64108634 -0.76103866 -0.38943547 -0.024790624

fc3.weight f4 [4, 128]
00000000: 61be f93e 8af0 ecbe 9721 6cbf 6b03 34bf
00000010: 44b6 cfbe 5f8c 1f3f 2ed5 b4bf 1ddb 84bf
00000020: b105 35bf 2969 90bd d3aa 3f3f 4e2d 713f
00000030: e2e5 5fbf 56c0 93be 43ce dc3e eb5f 9c3e
00000040: 3950 2b3f 3d49 ffbd ec63 fd3e 2266 76bd
00000050: c919 30bf a390 97bd 14a4 1ebf 8c7a a0bf
00000060: fd4b 703f d681 7fbd 65ff 6fbf db2d 953b
00000070: 78ac 8ebf 63ce ea3e bb99 bf3e f911 13bf
00000080: 009f 863f 8539 843f 1aed f93e 2e79 06bf
00000090: 4e00 8ebf 8f2d 30bf b307 b33c d49c 913e
000000a0: 8565 733f d7f9 63be 1996 143f f8fc 0b3f
000000b0: 63d6 cc3c 5aa4 353f a737 90bf f1f3 253f
000000c0: 2a05 44bf eb88 dabe 8241 623f 5005 47bf
000000d0: 73b7 3b3f 31d4 78be eb78 703d b0cb 813f
000000e0: 39d4 2d3e 2c5b 29bf c578 a5be 29fa d53f
000000f0: 375c e4be df4d 573f 4bd9 1cbf 40b2 05bf
00000100: 2d8c bf3d d2cd 55bf b753 06bf 3faa 8abf
00000110: 1438 873f 6403 30bf fb77 143f de4b 6ebe
00000120: 70cb c1be 257a 28bf c507 89bd 1d97 623e
00000130: 7196 2c3f 2db8 023e b6e9 8fbe 7cc3 a0be
00000140: d506 45bb 32c0 3cbe c982 0e3f 348b 30bf
00000150: a97e fa3e 6f6e 0abe ff86 5dbe 7291 6a3f
00000160: 28cf 8f3e f829 abbe ec3a 5fbf cb4e f4bd
00000170: 3c86 95be ce59 c2be 37db 2abf 8db2 d2bd
00000180: 3aa5 84bf 7293 763d 9309 4a3f b8cc a9bf
00000190: bfa4 533f 4dc6 cf3e 6d27 c4bc f760 163f
000001a0: fa18 453f 5ee6 bb3f 1f1e 01be 1cf2 65bf
000001b0: e107 9dbe fde2 74bf 7e78 2e3e f0f9 7f3e
000001c0: 50b8 3b3f 2a40 d33e 64d3 35bf 9789 97be
000001d0: 95ab 62bf 2e16 70bf f9de 5e3f bbd4 2bbf
000001e0: ef87 0dbf 6388 083f 62c6 afbb 12b8 583e
000001f0: 0109 bbbf 755d edbd f490 4ebe 5c51 35be
00000200: 3cac 13be 60bd f2bd d3bf 393f dd7d 4f3f
00000210: 52ad a4bf bf37 7bbd 7d2c cebe 2a65 c63e
00000220: 3d6c efbd f516 f1bf a4e6 a53f b149 bdbe
00000230: 6721 b4bf 0611 95bf 124e b1be 519f cf3f
00000240: 589f ccbc 3814 cc3e b088 96be 5b56 00bf
00000250: fa7c 203e 16a9 093f d23d bb3e c9b9 01bf
00000260: f699 993f 1c63 7dbe 7a26 79bc 057b d4be
00000270: b9c3 163f 1da1 9c3f e050 d7be fecf 9abe
00000280: daf6 fcbe aa2f 0ebf 920b 8c3e 418e 843e
00000290: 5d9a b3be 685f a1bc 3ed3 07bd 5426 523e
000002a0: 7c87 d4be 65c5 28bd 5647 573f 6a39 d93e
000002b0: ff51 2f3f 6db3 b63e f5bc 423e 0007 473f
000002c0: a2dd 2cbf ff40 abbf 2236 7cbf dcbd ca3e
000002d0: 3de9 05bd fd23 38bf 43e6 983f 9548 72bf
000002e0: 90f8 eabe 504c 523f 42c2 a6be 8ddf cbbf
000002f0: f196 943f 29c6 9b3e 08c1 a33f 4d5a e6bd
00000300: 72d0 0e3d 7f2e 96be 24a2 453f 4133 db3e
00000310: ae08 f23e b39a 8bbf 5028 83be ab3e 683f
00000320: 3598 6e3f 77c5 babf e9c5 a03f 39cc 24bf
00000330: b789 ff3e c2cd 933f 36da 37bf 62fd 473f
00000340: b66f 5e3e eeda 3b3f ea32 52be c76f ab3d
00000350: ecb9 44be 0fcc 88bf 7da8 58bf 110f efbe
00000360: 58f5 c7be bf84 e53e f135 a73f 7b74 97bf
00000370: 94e0 983f 979a 403f 3d44 4a3f b45d 79bd
00000380: 02d3 a9bd 7bc6 91bf 564a 80be 2e03 ebbc
00000390: 511e 29bf 0a16 683f 705a 3e3f 293e b93f
000003a0: 616a 8d3f 9ca7 753f f35d 473f bd3f dc3f
000003b0: 428b 143f 3c9f fdbe 87d6 833e a039 27be
000003c0: 9e58 e73f 2770 29be 2775 52bf a446 33bf
000003d0: a059 58bb 3943 8cbe d7d4 643e 256a 7f3e
000003e0: 3b99 3f3f 9886 3d3f bb00 82bf 6daf cf3d
000003f0: dc2b 183f 465b 1a3e d4aa 42bf 1f3a afbf
0.4877806 -0.46277267 -0.92238754 -0.70317715 -0.40568745 0.62323564 -1.4127557 -1.0379368
-0.7071181 -0.07051308 0.7487003 0.94209754 -0.8746015 -0.28857678 0.43126115 0.3054193
0.66919285 -0.12465141 0.49490297 -0.060155995 -0.68789345 -0.07400634 -0.61969113 -1.2537398
0.9386595 -0.06237968 -0.93749076 0.0045525855 -1.1146383 0.45860586 0.37421975 -0.574493
1.0517273 1.0330054 0.48813707 -0.52528656 -1.1093843 -0.68819517 0.021854257 0.28439963
0.9507678 -0.22263275 0.5804153 0.54682875 0.025004571 0.70953906 -1.1266984 0.6482535
-0.7657038 -0.42682585 0.88381207 -0.7774248 0.73326796 -0.24299695 0.058709066 1.0140285
0.16975488 -0.6615474 -0.32318702 1.6716968 -0.44601604 0.84103197 -0.6126906 -0.5222511
0.09352908 -0.8351718 -0.5247149 -1.0833205 1.0563989 -0.68755174 0.57995576 -0.23271129
-0.37850523 -0.6581138 -0.06690935 0.22127958 0.67417055 0.1276557 -0.28107995 -0.31399143
-0.0030063887 -0.18432692 0.5566831 -0.6896241 0.4892476 -0.1351869 -0.21633528 0.9162818
0.28087735 -0.33430457 -0.8719928 -0.11929091 -0.29203975 -0.3795914 -0.66740745 -0.10287962
-1.0362923 0.06019921 0.7892086 -1.32656 0.8267326 0.4058098 -0.02394458 0.58741707
0.76991236 1.4679677 -0.12609147 -0.89822555 -0.30670074 -0.95658857 0.17038152 0.24997687
0.73328114 0.4125989 -0.7102568 -0.2959716 -0.88543063 -0.93783844 0.8705898 -0.67121476
-0.55285543 0.5333311 -0.0053642252 0.21163967 -1.4612123 -0.11590091 -0.20172483 -0.17706817
-0.14421171 -0.11852527 0.72558326 0.8105143 -1.2865393 -0.06133246 -0.40268317 0.38749057
-0.11690567 -1.8835131 1.2961011 -0.36970285 -1.4072694 -1.164582 -0.34629875 1.6220495
-0.024978325 0.39859176 -0.2940116 -0.5013177 0.15672675 0.5377363 0.36570603 -0.5067411
1.200011 -0.24744838 -0.015206927 -0.41500106 0.588924 1.2236668 -0.4205389 -0.3023681
-0.49407083 -0.5554148 0.27352577 0.2588978 -0.35078707 -0.019698814 -0.03316044 0.20522434
-0.41509616 -0.041203875 0.84093225 0.42426616 0.6848449 0.35683766 0.19017394 0.77745056
-0.67525685 -1.337921 -0.985201 0.39597976 -0.032693136 -0.71929914 1.194527 -0.94642
-0.45892763 0.82147694 -0.32570082 -1.5927597 1.1608564 0.30424622 1.2793283 -0.11247692
0.034866758 -0.2933235 0.7720053 0.4281254 0.47272247 -1.0906585 -0.25616693 0.90720624
0.93201 -1.4591511 1.2560397 -0.6437412 0.49909756 1.1547167 -0.7181734 0.78121006
0.21722302 0.73380935 -0.20527235 0.08370929 -0.19211549 -1.0687274 -0.8463209 -0.46691182
-0.3905437 0.4482784 1.3063337 -1.1832422 1.1943536 0.75235885 0.79010373 -0.060880378
-0.082922 -1.1388696 -0.25056714 -0.02868804 -0.66061884 0.9065863 0.74356747 1.4472095
1.1048089 0.95958877 0.7787773 1.7206951 0.5802499 -0.4953555 0.2574961 -0.16330576
1.8073919 -0.16546689 -0.8221001 -0.70029664 -0.0033012405 -0.27395037 0.22346817 0.24942835
0.74843186 0.740335 -1.0156473 0.10140882 0.59441924 0.1507388 -0.76041913 -1.3689612

fc3.bias f4 [4]
00000000: a5f4 ee3e e1d3 3b3f 1e1e 053e 1772 96bd
0.46671024 0.73370177 0.1299977 -0.0734598

bn1.weight f4 [128]
00000000: 79a8 563f 2350 853f 815f 2c3f abb2 263f
00000010: 1df6 653f 9f64 0f3f 72f3 f13e 8620 023f
00000020: 0872 193f 11c4 c43e e92c 163f f8ee 4f3f
00000030: 5d00 233f 6846 2a3f 6140 123f 6ec7 b83f
00000040: edcf 613f d6f2 f33e 1841 623f c01e 1a3f
00000050: aa2d 003f e58f 193f 9af2 c53e bc35 e73e
00000060: 2bd9 1b3f dfe8 363f 05e1 243f 2120 063f
00000070: 2496 043f daac 1c3f 4532 3c3f 0185 163f
00000080: e9ad 623f 99c8 253f c731 15bf c800 483f
00000090: 3e15 163f d913 1c3f 4fa7 243f 2889 413f
000000a0: 5f22 043f c953 d03f 4fa0 fb3e 04dc a63f
000000b0: a8fb 1a3f ff4d 123f 2e39 653f 5bca fdbe
000000c0: d01f 153f 2399 203f dd56 303f e959 233f
000000d0: 6f4f 153f c669 803f df16 1b3f d75d 1e3f
000000e0: a45d 893f 6845 543f ad67 2d3f 5c6d 283f
000000f0: 660a 463f bfbb 0b3f b4b6 ee3e 888b a13f
00000100: 039a 593f 676f 2f3f b06b 683f b685 493f
00000110: d97f 4b3f 9dc2 1b3f ee3f 243f 87dd 433f
00000120: 117f 423f 60ee 193f d636 503f b3d7 253f
00000130: ac40 113f 57d3 033f e935 013f 87b3 083f
00000140: a17d 163f 6b66 cd3f 1d2a 1a3f e057 443f
00000150: 3716 3d3f cdc4 e83e 3a21 083f 6046 413f
00000160: e987 2a3f 123b 293f 72e7 cf3e c414 043f
00000170: df7c 9e3e 8eb3 153f 4a83 263f b3e6 f33e
00000180: 6762 373f 6534 923f 2676 073f 1c47 1a3f
00000190: 6bef 2d3f c1d5 493f 62f6 073f 792a 7b3f
000001a0: ef7c e53e 9c48 883f 01e8 4c3f 7adc 263f
000001b0: a6bb 3d3f dcd8 1e3f ffde 233f 04b6 2f3f
000001c0: d46a f03e 9628 403f f341 f43e 75e3 903f
000001d0: 8af2 193f be1d 8a3f 0265 6b3f ad70 513f
000001e0: 5b4d fb3e 91ba 013f 46a4 6a3f c2c1 253f
000001f0: 58b8 be3e 2cbf 6a3f f755 3b3f ce65 013f
0.8385082 1.0415081 0.6733323 0.65116376 0.89828664 0.5601291 0.47256047 0.50830877
0.5993962 0.38430837 0.5866228 0.8122401 0.6367243 0.6651368 0.57129484 1.4435861
0.88207895 0.47646207 0.88380575 0.6020317 0.5006968 0.5998519 0.38661653 0.45158184
0.6087825 0.71449083 0.6440585 0.52392775 0.51791596 0.6120125 0.73514205 0.587967
0.88546616 0.6475921 -0.5827908 0.7812619 0.58626163 0.60967785 0.6431779 0.7559991
0.51614946 1.6275569 0.49145743 1.3035893 0.60540247 0.5715026 0.89540374 -0.49568447
0.5825167 0.6273367 0.6888254 0.63809067 0.5832433 1.003228 0.60581774 0.6186194
1.0731702 0.82918406 0.6773632 0.6579187 0.77359617 0.5458335 0.46623766 1.2620707
0.8500063 0.6852936 0.9078932 0.7871965 0.79491955 0.6084383 0.6416005 0.765099
0.7597514 0.60129356 0.81333673 0.64782256 0.56739306 0.51494354 0.50472885 0.53398937
0.58785444 1.604688 0.6022051 0.76696587 0.7386202 0.45462647 0.531757 0.7549801
0.6661363 0.6610576 0.40606266 0.51594186 0.30954644 0.58477104 0.6504408 0.47636947
0.71634525 1.142224 0.52914655 0.60264754 0.6794345 0.7884179 0.53110325 0.98111683
0.4482188 1.0647159 0.8004151 0.6518017 0.74114454 0.6204965 0.6401214 0.6863711
0.46956503 0.7506193 0.47706565 1.1319414 0.6013571 1.0790327 0.91951 0.81812555
0.49082455 0.506753 0.9165691 0.64748776 0.37250018 0.91697955 0.73178047 0.50545967

bn1.bias f4 [128]
00000000: 589e b53e 67cc 403f 069c 11be 69ca d43d
00000010: 584e d93e e0e8 b73e 7add b53e 7b4e 83bc
00000020: 4edc 4a3e 4c2b be3d 85bb bb3e 0dee b63e
00000030: 1ca7 843e abe7 343e 7eef abbd ed13 e63e
00000040: 5b65 b83d 457f 303e ef63 113f d39e 203e
00000050: 63b1 843d 0c73 013e 5915 01bf bd24 843e
00000060: fd8e 0bbe 37c6 b93d 3065 a23b 1981 e33d
00000070: f0f1 5dbd f7a0 ca3d b0d5 c33e 5cf6 c53c
00000080: a785 ce3d e87a 073e 3e02 40bd 573f 24bc
00000090: 8da5 173e 8f6f 133d 80f4 1c3e a035 b63e
000000a0: d09f 123e 8722 523f a1f4 283e 0375 4b3d
000000b0: 58c6 9a3e de8e 323f 0eb1 4a3e cae1 d0be
000000c0: 8ed7 253e 1298 45bc a9d6 703e 2590 74bd
000000d0: daf1 653e f1ac 6f3e d98f 413b a588 2e3e
000000e0: 0ed7 af3e ab37 9a3c cc84 293e 24f1 f9bc
000000f0: c889 d63d b446 b8bc 150f 3cbd 889e d23e
00000100: 4a18 4dbe 6a70 e63d ec6e ff3d 70b9 cabc
00000110: b59e 373e 0eb4 873e 4e8a 3bbd f571 f23d
00000120: 355b 863e 1017 633d 5cd6 12bc 5b03 553c
00000130: 068b 4d3e 8cfe 153e 4de3 093c 194e ef3d
00000140: e5f5 c83d bb20 203f f6f9 20bb 013d 273e
00000150: 03b2 693c f1c9 993e ebe4 dd3d 01a8 643d
00000160: ef2c fcbd cbff 943d d35b 8abd dfc2 8b3e
00000170: a41f fb3b 320e c73d a9b1 113e 3856 063e
00000180: 92ba 7b3f 0d88 ee3e 642d 543e aa13 a3bb
00000190: 0099 e73d 002e 313e f323 b53e 870a 913e
000001a0: f82e 5cbc 7824 923e 14c3 fe3e c139 1c3e
000001b0: d577 703e d78b 3a3e 7ba1 403e f3f7 623d
000001c0: d916 6c3c d827 703e 8423 223e 8037 003f
000001d0: e146 ac3e adb0 c13e bcb8 b63e 7118 8e3f
000001e0: cb60 033e 077b 1a3e 9506 7d3e 6f7b be3d
000001f0: cf68 6c3d 659d 443e 2a86 283e eba9 7f3d
0.3547237 0.75311893 -0.14219674 0.10390169 0.42442584 0.35919857 0.35520536 -0.016028633
0.19810602 0.09285602 0.36666504 0.35728493 0.25908744 0.176665 -0.08395289 0.44937077
0.09003707 0.1723605 0.5679311 0.15685587 0.06479146 0.12641543 -0.504232 0.2580928
-0.13628764 0.090710096 0.00495591 0.11108608 -0.054185808 0.09893983 0.38248968 0.024165325
0.10084086 0.13230479 -0.04687714 -0.010024867 0.14809246 0.035995062 0.15327644 0.35587788
0.14318776 0.82083935 0.16499569 0.049672138 0.3022945 0.6974925 0.19794104 -0.40797263
0.16195509 -0.012060182 0.23519386 -0.05970778 0.2245554 0.23405816 0.0029535203 0.17044313
0.3434376 0.018825373 0.16554564 -0.030510493 0.104754984 -0.022494651 -0.04591282 0.41136575
-0.20028797 0.1125191 0.124723285 -0.024746627 0.17931636 0.26504558 -0.045786195 0.11838142
0.2624146 0.055441916 -0.00896224 0.013001288 0.20072564 0.14647883 0.008416009 0.11684818
0.09812526 0.6254994 -0.002456305 0.16331865 0.014263633 0.30036882 0.10834678 0.055824284
-0.12313258 0.07275351 -0.06755795 0.27297112 0.007663684 0.097195044 0.14227928 0.13118827
0.9833156 0.46588174 0.2072044 -0.0049767094 0.11308479 0.17302704 0.3537899 0.28328344
-0.013438933 0.28543448 0.49758208 0.15256406 0.23483212 0.18217407 0.188116 0.055412244
0.014409744 0.23452699 0.1583386 0.50084686 0.33647826 0.37830105 0.35687816 1.1101209
0.12829892 0.15085994 0.24709542 0.09300887 0.05771714 0.19200666 0.1645743 0.062417906

bn1.running_mean f4 [128]
00000000: 84b7 0140 46cc 7c40 424b 733f eb48 523f
00000010: bc16 5f3f a85b 2740 e915 823f 5aec f63e
00000020: c45d d63e de67 a03e b3f6 9140 74e0 9f3f
00000030: 8795 873f 8e22 ed3e e6be bd3f a8ff c13e
00000040: 5878 203f 9567 863f 1bb6 d23f b216 dc3e
00000050: febc 2d40 bd24 8a3f 8c9b 843f cb7f b43f
00000060: d50f b23f 258c d73e 3782 443f ec88 343f
00000070: 72a0 983f 797a 3b3f 5a54 293f e24b 963f
00000080: 2a98 0b3f a7f6 e23e efa1 c13f df3f 1a40
00000090: 9489 aa3f 9339 da3f 49ef 2d3f 06c8 c53f
000000a0: 7990 1b3f 6afb d83f d219 543f 7f4e 903f
000000b0: 4394 9f3f 6fe7 003f 6be6 b73e 9679 ac3f
000000c0: b84d 5940 8fa6 4a3f dc26 853f 8c91 b23e
000000d0: 319c cb3f 444e 0c3f bd7f 2b3f 04c8 a73f
000000e0: ea99 e83e a426 343f ce07 9f3f 6da8 5f40
000000f0: 8f41 193f cea7 d03f f57a 673f 5a08 6f3f
00000100: 8967 be3f 1d15 093f 849e 9640 5540 233f
00000110: 7740 113f 4b1c ae3f 0edb e440 0f58 093f
00000120: 8a3a cb3e 8e71 5a3e 04e7 7c3f 8c7d c03f
00000130: fdc5 e13f af34 1440 3ea0 cf3f 6025 933f
00000140: 2449 2e40 2f56 973f b623 bc40 426e 403f
00000150: 7978 1c3f f2e4 0640 2ad5 a33f 1eca 453f
00000160: fd3a fe3f c305 213f e424 243f 5436 483f
00000170: bbea 273f 87e7 af3f d782 0e40 6092 5e40
00000180: 6831 2e40 c305 7e3f 6b90 933f b611 b83e
00000190: 5b80 153f 99ad d43f d9b2 893f 8dbe f03e
000001a0: ea92 f03f b6ac 513f 2790 0d40 aba1 433f
000001b0: 4a55 2040 9ce5 353f 421c a43f d09d 0b3f
000001c0: 96e4 2c3f e94d ba3e e2ed 2e40 4bc5 163f
000001d0: 3e50 963f 88c7 9a3f b526 183f ea4e c73f
000001e0: 3d50 4b3f 62d9 b03f 1e55 273e 51e6 4f3f
000001f0: 9582 2c3f 1a32 a43f be22 0641 8507 a240
2.026826 3.9499679 0.9503671 0.82142514 0.87144065 2.6149693 1.0162936 0.48227197
0.41868412 0.31329244 4.5613647 1.2490373 1.0592507 0.46315426 1.4823883 0.37890363
0.6268363 1.0500361 1.6461824 0.42986065 2.7146602 1.0792462 1.0359969 1.4101499
1.3911082 0.4209911 0.7676119 0.70521426 1.1923964 0.73233753 0.66144335 1.1741908
0.5452906 0.44328806 1.5127543 2.4101484 1.3323236 1.704882 0.67943245 1.5451667
0.6076732 1.6951725 0.828519 1.1273955 1.2467121 0.5035314 0.35917982 1.3474605
3.3953686 0.791604 1.0402484 0.34876668 1.5907041 0.54806924 0.6699179 1.3107915
0.45429927 0.7037146 1.2424257 3.494655 0.5986566 1.630121 0.9042199 0.9337212
1.4875346 0.5354784 4.70685 0.6377004 0.5673899 1.3602384 7.15174 0.5364999
0.396931 0.2133238 0.9879 1.5038314 1.7638546 2.3157156 1.6220777 1.1495781
2.7232141 1.1823176 5.8793592 0.7516824 0.61121327 2.1077237 1.2799428 0.7726153
1.9861752 0.62899417 0.6411879 0.782079 0.65592545 1.3742532 2.2267358 3.477684
2.7217655 0.9922754 1.1528448 0.35951012 0.5839898 1.6615478 1.0757705 0.4702038
1.8794835 0.8190416 2.2119234 0.7641856 2.5052056 0.7105348 1.2821124 0.5453768
0.67536294 0.36387566 2.7332692 0.58894795 1.1743238 1.2092142 0.5943406 1.5570958
0.7941931 1.381634 0.16341063 0.8121081 0.6738675 1.282779 8.383482 5.063418

bn1.running_var f4 [128]
00000000: d27e fd40 08a8 2541 7600 8240 ec7a 3340
00000010: 9295 3d40 3142 2741 8ca2 5c40 3c34 bc3f
00000020: 4005 b43f be01 963f ccc3 0c41 09f7 8740
00000030: eb11 7040 a98c 813f 0d19 4140 33d6 713f
00000040: ae7e 0d40 a51e 8f40 2a36 5f40 9fa9 ce3f
00000050: fea6 f940 6b02 6440 8b97 6240 29bc b340
00000060: dd51 ad40 f588 cd3f 3478 1040 fe3c 1840
00000070: 1c1d 6940 1d6e 4440 3f05 0a40 5c87 8e40
00000080: 5df8 0440 941d 853f 00a6 9040 82e0 d040
00000090: c590 b740 0069 d140 b052 1140 bda6 8840
000000a0: 9437 1540 84f3 b840 f802 3040 1927 8740
000000b0: de0e b640 3ddb e93f 8319 923f d879 b640
000000c0: b8d4 0d41 b1ed 4040 1ba1 5840 deaf 983f
000000d0: 1b43 e640 14aa 0040 e267 1440 a573 d440
000000e0: 0469 b13f d447 3040 8481 6640 7ed3 be40
000000f0: e2e3 0d40 0d08 9a40 63b6 7a40 0e87 4e40
00000100: 7c64 7a40 34fd 1140 7453 8e40 d35b 0140
00000110: 3550 dc3f 05be 8d40 56c0 1441 a476 c63f
00000120: 7140 853f b001 8d3f 826c 3e40 954e d240
00000130: 8953 1641 3f3b e840 29e4 0841 3860 8640
00000140: 02a7 dd40 30ad 4c40 896f 1f41 1399 3840
00000150: da8f af3f 8286 dc40 a070 7b40 5f6f f43f
00000160: 565b 0041 b16c fd3f 477c 3040 c03b 5340
00000170: de47 2e40 8de4 8540 3385 c540 a9f3 2741
00000180: 8963 3941 5b19 5940 7478 9040 01c4 d13f
00000190: 2cb1 e43f a060 6140 bf13 df3f 2ceb 0440
000001a0: 46c5 2441 00a0 4a40 3e54 4a41 2032 1140
000001b0: eda4 b640 e9c4 1840 7765 8440 9de5 e63f
000001c0: 3b99 2340 9ac4 643f 203e 0541 52bb ad3f
000001d0: 960b 8140 0156 6f40 dd75 2440 c377 a640
000001e0: e91b 2140 a27e dc40 ea6e 193f 49c5 4c40
000001f0: 38ee 1140 23d4 7e40 907c 7a41 48cb 8641
7.921731 10.353523 4.0625563 2.8043776 2.962254 10.45366 3.447421 1.4703441
1.4064102 1.1719282 8.797802 4.2489057 3.7510936 1.0121051 3.017154 0.9446747
2.210857 4.472491 3.487681 1.6145514 7.801635 3.5626476 3.5404994 5.616719
5.416243 1.6057421 2.2573366 2.3787227 3.6424017 3.0692208 2.1565702 4.4540234
2.077659 1.0399652 4.5202637 6.5274057 5.736422 6.5440674 2.2706718 4.270354
2.3315172 5.779726 2.7501812 4.2235227 5.689315 1.8270031 1.1414036 5.7023735
8.864433 3.0145075 3.384833 1.192867 7.1956916 2.0103807 2.3188405 6.639117
1.3860173 2.754384 3.601655 5.963317 2.2170339 4.8134828 3.917382 3.226993
3.912383 2.2810793 4.447687 2.0212295 1.7211977 4.4294457 9.296957 1.5504956
1.0410291 1.101614 2.9753728 6.5720925 9.395394 7.257232 8.555703 4.1992455
6.9266367 3.1980705 9.96473 2.884343 1.3715775 6.8914194 3.928749 1.9096488
8.022299 1.9798795 2.7575853 3.3005219 2.7231364 4.1841493 6.1725097 10.496987
11.586801 3.3921726 4.5147038 1.6387941 1.7866569 3.5215225 1.7427901 2.0768538
10.298162 3.1660156 12.645567 2.2686844 5.7076325 2.3870184 4.137386 1.8038822
2.5562274 0.8936249 8.327667 1.3572791 4.0326643 3.7396243 2.5696938 5.2021194
2.5173285 6.890458 0.59934866 3.1995413 2.2801647 3.9816978 15.655411 16.849258
