checkpoint_actor.pth (torch_old, 546867 bytes, 10 tensors)

fc1.weight f4 [400, 33]
0	0xbd73a388	-0.059482127
1	0xbd28fd40	-0.041257143
2	0xbdb0a78c	-0.08625707
3	0x3e4dec25	0.20109613
4	0xbdd0898c	-0.10182485
5	0xbdb4d2c4	-0.08829263
6	0xbe2b8dd5	-0.16753323
7	0xbddfda38	-0.10930294
8	0xbdbc485e	-0.091934904
9	0x3dce5ddb	0.10076495
10	0x3e0abcb7	0.13548551
11	0x3d176e29	0.03697029
12	0x3d4a8e86	0.049452327
13	0xbdcc6fa0	-0.09982228
14	0xbd20e083	-0.03927661
15	0xbbabe446	-0.005245718
16	0x3ea013f8	0.31265235
17	0xbdbafc5a	-0.091301635
18	0xbdc92e34	-0.09823266
19	0xbd084396	-0.03326758
20	0xbb6dbc3a	-0.0036275522
21	0xbcb761d6	-0.022385519
22	0x3d6b6b69	0.05747548
23	0x3dc7fb99	0.09764785
24	0xbaa5c8ab	-0.0012648305
25	0x3c2ace0b	0.010425101
26	0x3e1222d5	0.142711
27	0xbd1d56c8	-0.03841284
28	0x3d61b106	0.055100463
29	0xbca0c1e0	-0.019623697
30	0xbc4f577e	-0.012655137
31	0xbc319bf8	-0.0108404085
32	0xbcf9d458	-0.030496761
33	0x3e0ca067	0.13733064
34	0xbdd002ef	-0.101568095
35	0x3ce315a2	0.027720276
36	0x3e515443	0.204423
37	0xbd1fc5c4	-0.039006963
38	0xbd064ccb	-0.03278808
39	0xbe145a21	-0.14487506
40	0xbab3e0ae	-0.0013723576
41	0x3dc83a0a	0.09776695
42	0x3d80cb9c	0.062888354
43	0x3b94af74	0.004537517
44	0x3cb6873f	0.022281287
45	0x3df1956e	0.117960796
46	0x3c72070b	0.014772187
47	0xbc042a4a	-0.008066723
48	0xbdf7f86e	-0.12107931
49	0x3db731fd	0.089450814
50	0x3dbc8790	0.09205544
51	0xbdfd013c	-0.12353751
52	0xbe529b96	-0.20567164
53	0xbc6a6dc9	-0.014308401
54	0x3e1fe167	0.15613328
55	0x3c914cc5	0.017736802
56	0x3da27eba	0.079343274
57	0x3ce24b1c	0.027623706
58	0xbc6d313d	-0.014477071
59	0xbc87d1a1	-0.016579451
60	0xbd771cb3	-0.060330104
61	0x3dab213d	0.08355949
62	0x3cd5ed02	0.02611399
63	0x3d7431e0	0.059617877
64	0xbd1a121e	-0.037614934
65	0x3e152f32	0.14568785
66	0xbe015ac0	-0.12632275
67	0xbdc0173c	-0.093794316
68	0x3d69d50b	0.05708794
69	0xbe18c0d6	-0.14917311
70	0xbd117fd2	-0.03552229
71	0x3e6b2e27	0.22966824
72	0x3d72a29f	0.05923712
73	0xbd3a1efb	-0.0454397
74	0xbd11dde9	-0.03561202
75	0x3ca926d9	0.020648407
76	0x3d32b634	0.043630794
77	0xbdd957c9	-0.10612447
78	0x3d10c90c	0.035347983
79	0xbd7639d5	-0.060113747
80	0xbd262384	-0.040561214
81	0x3bcc8de6	0.0062425015
82	0xbdf35dde	-0.11883138
83	0xbda30099	-0.07959098
84	0xbdbbb53a	-0.091654256
85	0x3e2499df	0.16074322
86	0x3dcbf7dc	0.09959385
87	0xbcb9a313	-0.022660768
88	0xbdf548cb	-0.11976775
89	0xbccb23f4	-0.024797417
90	0x3cf7e446	0.030260216
91	0x3d161753	0.036643337
92	0x3da3c45c	0.07996437
93	0x3cfc0a51	0.030766638
94	0xbdcd8b24	-0.100363046
95	0x3d2a1033	0.041519355
96	0xbd2d0b43	-0.042247068
97	0xbb4b8430	-0.0031054132
98	0x3e08f1c0	0.1337347
99	0xbd92d1e0	-0.07168937
100	0xbd460ecc	-0.048353955
101	0xbcc4d81e	-0.024028834
102	0xbcb3e7c0	-0.021961093
103	0x3d6fe707	0.058569934
104	0x3ebaa092	0.3645063
105	0x3d84e14d	0.06488285
106	0xbdf18b7f	-0.11794185
107	0xbc472a52	-0.012156086
108	0x3cf679b9	0.030087339
109	0xba7761ad	-0.0009436857
110	0xbb8401f7	-0.0040285545
111	0x3db3e04c	0.087830156
112	0xbd15eae3	-0.03660096
113	0xbc9a135b	-0.018808058
114	0xbddc00cd	-0.1074234
115	0xbdec2358	-0.11530179
116	0x3d73f16f	0.05955642
117	0xbcd4374f	-0.02590528
118	0xb8c6e67a	-9.484305e-05
119	0xbc67090a	-0.014101276
120	0xbd89f556	-0.06736247
121	0x3e0ab335	0.13544925
122	0xbd10d226	-0.035356663
123	0xbcbdaa9f	-0.023152648
124	0x3dcbe565	0.09955863
125	0xbb8c15d6	-0.004275064
126	0x3bed12cc	0.007234907
127	0xbd97c4ef	-0.07410609
128	0x3cd5465a	0.026034523
129	0x3d56466f	0.052313264
130	0xb9549b00	-0.00020275638
131	0xbe77da04	-0.2420426
132	0x3d31d57f	0.043416496
133	0x3d427f98	0.047484964
134	0xbd9d2ecd	-0.07674942
135	0xbdb3a931	-0.08772505
136	0xbb87752e	-0.004133842
137	0xbbb7dd26	-0.0056110797
138	0x3c8cce90	0.01718834
139	0x3ca8face	0.020627405
140	0xbd238664	-0.039923087
141	0xbc3acbcb	-0.011401127
142	0x3d181394	0.037128046
143	0x3ce93216	0.028466266
144	0xbd92536b	-0.07144817
145	0x3d171475	0.036884744
146	0x3dcc18e6	0.099656865
147	0xbdef7f0e	-0.11694156
148	0xbdcbbf62	-0.09948613
149	0xbdae0a98	-0.08498114
150	0x3bdffefa	0.0068358155
151	0x3d9abbcd	0.075553514
152	0x3cfb6732	0.030688856
153	0x3d862448	0.06549889
154	0xbb0bd9c7	-0.0021339522
155	0x3d5703e9	0.052493963
156	0xbb01913d	-0.0019770407
157	0xbcbaa5cc	-0.022784136
158	0xbd1b4cc3	-0.037915003
159	0x3c77f4e2	0.015134068
160	0xbd1eb035	-0.038742263
161	0x3d30f1d5	0.04319938
162	0xbd7b3eee	-0.06133931
163	0xbcba4d13	-0.02274183
164	0x3e61de0d	0.22057362
165	0x3d254b45	0.040354986
166	0xbdbe0f98	-0.09280318
167	0x3d90b09a	0.07064934
168	0xbe0b7a50	-0.13620877
169	0xbe904a06	-0.28181475
170	0x3e32dc84	0.17466933
171	0xbea25922	-0.31708628
172	0xbd858066	-0.06518631
173	0xbc4f2571	-0.012643204
174	0xbc266657	-0.010156236
175	0x3d6a2ef3	0.05717368
176	0x3b340fee	0.0027475315
177	0xbc4faa28	-0.012674846
178	0x3e31fb4e	0.17381021
179	0xbda878a4	-0.082261354
180	0xbb99fa85	-0.0046990537
181	0x3d3b630e	0.045748763
182	0x3e79b575	0.24385627
183	0x3d4ab8e0	0.049492717
184	0xbc40c0e3	-0.011764738
185	0xbcb2208d	-0.021744037
186	0x3d6a9065	0.05726661
187	0xbda979f8	-0.08275217
188	0xbd9942d0	-0.074834466
189	0x3ca61164	0.020271964
190	0xbd78dfb9	-0.060760234
191	0xbcb2aba5	-0.021810362
192	0xbcc258d7	-0.023724003
193	0x3d00ccc1	0.03144527
194	0xbcc1e9ea	-0.02367111
195	0x3d86a5c0	0.06574583
196	0x3cd3329a	0.025780965
197	0x3ce3fdcc	0.02783098
198	0x3d84376d	0.06455884
199	0xbb8a7042	-0.004224808
200	0x3d2e5682	0.04256297
201	0xbe241561	-0.1602378
202	0x3daf88a7	0.08570986
203	0xbde1b666	-0.11021118
204	0xbd67dae2	-0.056605227
205	0x3d442911	0.047890726
206	0x3c3f974e	0.011693789
207	0x3cd3de25	0.025862763
208	0xbc20c8bd	-0.009813485
209	0x3d36d085	0.044632453
210	0xbe39dffd	-0.18151851
211	0x3cb81baa	0.022474129
212	0x3d01314c	0.031541154
213	0xba817c19	-0.0009878903
214	0x3e20f054	0.15716678
215	0xbd81b037	-0.063324384
216	0x3d824060	0.06359935
217	0xbe131cb0	-0.14366412
218	0xbd541818	-0.05178079
219	0xbd72f1ab	-0.059312504
220	0x3da0ae40	0.078457355
221	0xbd92b449	-0.07163293
222	0x3cdbe36a	0.026841838
223	0x3da1408c	0.078736395
224	0xb95c9e91	-0.00021039906
225	0xbc684af3	-0.014178026
226	0xbdaa7917	-0.08323877
227	0xbd1712fb	-0.036883336
228	0x3c0cb347	0.008587665
229	0xbb8a5b30	-0.004222296
230	0xbe978ab9	-0.29598024
231	0xbd973924	-0.073839456
232	0xbdbfcd99	-0.093653865
233	0xbc828d18	-0.01593642
234	0xbe53e745	-0.20693691
235	0x3c8d70ab	0.017265638
236	0xbdba96b3	-0.09110775
237	0x3dcfe5d4	0.10151258
238	0x3d909c0f	0.07061016
239	0xbc0b0d99	-0.008487129
240	0xbd6ee64f	-0.05832511
241	0xbd7c710a	-0.06163124
242	0xba811db3	-0.000985077
243	0xba34ba52	-0.0006894219
244	0xbb6a1654	-0.0035718875
245	0x3c859b7a	0.016309489
246	0xbd3590ba	-0.044327475
247	0x3cd8df8a	0.02647378
248	0xbdbff178	-0.093722284
249	0x3ea84f45	0.32872978
250	0x3cae8306	0.021302711
251	0xbcaf41fd	-0.02139377
252	0x3d737aa1	0.05944312
253	0xbd97553a	-0.073893026
254	0x3d825b3c	0.06365058
255	0xbdd89629	-0.10575516

fc1.bias f4 [400]
0	0xbd9d0211	-0.0766641
1	0xbce3025e	-0.02771109
2	0x3e2b5d82	0.16734889
3	0x3d888211	0.06665433
4	0xbe31ad69	-0.17351307
5	0xbe0b5901	-0.13608171
6	0xbde7629c	-0.11298105
7	0xbe02552a	-0.127278
8	0xbd431f98	-0.047637552
9	0xbd3bc29e	-0.0458399
10	0x3e39b74a	0.18136325
11	0xbc8b748f	-0.017023353
12	0x3dc4b7be	0.096053585
13	0xbad5e06f	-0.0016317497
14	0xbe340405	-0.17579658
15	0xbd4f64a5	-0.05063309
16	0xbd69a922	-0.057046063
17	0xbe17bc3a	-0.14817896
18	0xbe235839	-0.15951623
19	0x3dc90340	0.09815073
20	0xbe0dfba4	-0.13865525
21	0xbd2d69da	-0.042337276
22	0xbd04b379	-0.03239772
23	0xbdbe6771	-0.09297074
24	0xbd334653	-0.04376824
25	0xbdd0f6d5	-0.102033295
26	0xbdee00d9	-0.116212554
27	0x3e8b4c90	0.2720685
28	0x3e710514	0.23537093
29	0x3cc58853	0.024112856
30	0x3ccac688	0.02475287
31	0x3e0c9855	0.13729985
32	0x3e47dfc8	0.1951896
33	0xbdac7b04	-0.08421901
34	0x3d86b09d	0.06576655
35	0x3d9feac3	0.07808449
36	0xbd9ab98b	-0.07554921
37	0x3d98a7ec	0.074539036
38	0x3dbd99da	0.092578605
39	0x3d012c4e	0.031536393
40	0x3df14e4c	0.11782512
41	0x3d83fb55	0.06444422
42	0x3cf7f6d5	0.030269066
43	0x3e1915e9	0.14949764
44	0x3da375ef	0.079814784
45	0x3dec8c8d	0.115502454
46	0x3da80b32	0.0820526
47	0x3e386616	0.18007693
48	0x3e0904d1	0.13380744
49	0x3a2e5f72	0.00066517957
50	0x3df1d1f7	0.11807626
51	0x3e2e53e7	0.17024194
52	0x3dd12cb1	0.10213602
53	0x3e173d03	0.14769368
54	0xbd24613a	-0.040131785
55	0x3e540562	0.20705178
56	0x3cac6954	0.021046318
57	0xbe131734	-0.1436432
58	0x3cb61341	0.022225978
59	0x3db2cf69	0.087309666
60	0xbe218f73	-0.15777378
61	0x3cfe90b6	0.031074863
62	0x3e1fd72a	0.15609422
63	0xbd838f43	-0.064238094
64	0xbc2c7bd6	-0.010527572
65	0x3ce00ac4	0.027348883
66	0x3da25a66	0.079273984
67	0x3d349b38	0.04409334
68	0xbc3cd4ad	-0.011525315
69	0x3dcafaa0	0.09911084
70	0x3d673d13	0.05645473
71	0xbd1571c0	-0.036485434
72	0x3de1c240	0.11023378
73	0xbda2f4d8	-0.079568565
74	0x3e346279	0.1761569
75	0x3df0b39e	0.11753009
76	0xbd84a5ba	-0.06476922
77	0xbd5fc5d5	-0.054632027
78	0x3e3b3864	0.1828323
79	0x3d0db376	0.034594975
80	0xbd33388e	-0.043755107
81	0xbc033d5b	-0.008010234
82	0xbc57cd53	-0.013171512
83	0xbd7bdffd	-0.06149291
84	0x3d855a4c	0.065113634
85	0x3e81dfd4	0.2536608
86	0x3d1bc570	0.038030088
87	0x3e269f9e	0.16271827
88	0x3e6bdae3	0.23032717
89	0xbda06229	-0.078312226
90	0xbe33bfd4	-0.17553645
91	0x3d4fa1d7	0.050691452
92	0x3e049417	0.12947117
93	0xbbfc87e1	-0.0077066277
94	0xbc7583be	-0.014985023
95	0xbe7527b1	-0.23940922
96	0x3de130af	0.10995614
97	0x3e3a6dc8	0.1820594
98	0x3d90b7cf	0.07066309
99	0x3ddd06a6	0.10792284
100	0xbd6f1cc0	-0.058377028
101	0x3de0f00f	0.109832875
102	0xbd762d16	-0.06010159
103	0x3e1466cd	0.1449234
104	0x3db2d0ee	0.087312564
105	0x3e28a5f1	0.16469552
106	0x3e2e5e80	0.17028236
107	0xbb612c91	-0.003435884
108	0x3d1125a4	0.035436288
109	0xbd791f87	-0.060821082
110	0x3d66aa7d	0.056314934
111	0xbd5f0c04	-0.05445482
112	0xbddd5de6	-0.10808925
113	0xbdd9a1ef	-0.106265895
114	0x3e1e5587	0.15462314
115	0x3dd586de	0.104261145
116	0x3ba356ac	0.0049846973
117	0x3d10beb1	0.035338107
118	0xbde56431	-0.112007506
119	0xbe72499c	-0.23660892
120	0xbdbc4cca	-0.09194334
121	0xbdff5c0b	-0.12468728
122	0xbdf191a6	-0.11795358
123	0x3d2c430a	0.04205612
124	0xbcd73937	-0.0262724
125	0x3dc5c29b	0.09656259
126	0x3df9b805	0.12193302
127	0xbd1e42a2	-0.038637765
128	0x3dc79a18	0.09746188
129	0x3db14fb6	0.08657782
130	0xbe138c93	-0.14409094
131	0x3e309513	0.17244367
132	0x3e94462a	0.2895978
133	0x3e63bb34	0.22239381
134	0x39a1f3fe	0.000308901
135	0x3de8491b	0.11342069
136	0xbe3c2ad5	-0.18375714
137	0xbd333537	-0.04375192
138	0x3e2937a4	0.16525131
139	0x3db09722	0.08622576
140	0x3d63e109	0.055634532
141	0xbd30bec0	-0.043150663
142	0xbdb94073	-0.09045496
143	0x3e0d99eb	0.13828246
144	0xbe251959	-0.1612295
145	0x3d108ec0	0.035292387
146	0xbcee57dc	-0.029094629
147	0xbd02ef1a	-0.031966306
148	0xbd4c063a	-0.049810626
149	0x3cfcefa4	0.030875988
150	0xbd2b8236	-0.041872226
151	0xbc12e909	-0.008966693
152	0x3d964705	0.07337765
153	0xbe733fe4	-0.23754841
154	0xbc27166e	-0.010198219
155	0xbe3ad720	-0.18246126
156	0x3dfcc9b7	0.123431616
157	0xbdf21f33	-0.11822357
158	0x3cfb7c6b	0.030698976
159	0xbd486135	-0.04892083
160	0xbd9b840f	-0.075935476
161	0x3d809004	0.06277469
162	0x3e2ddb6d	0.16978236
163	0x3e04776f	0.12936185
164	0x3e108231	0.14112164
165	0x3b39c509	0.0028346202
166	0x3e102e36	0.14080128
167	0x3e504408	0.20338452
168	0x3d00a069	0.03140298
169	0xbcf325a5	-0.029681036
170	0x3c62c369	0.013840535
171	0xbe02df0e	-0.12780401
172	0x3c8d0f17	0.01721911
173	0x3cede3d6	0.029039305
174	0xbe24b706	-0.16085443
175	0x3de3b0c2	0.11117698
176	0xbde9b276	-0.11410992
177	0xbdb8a9a9	-0.09016735
178	0x3e06fd69	0.13182606
179	0x3d68b02f	0.056808647
180	0x3dc20078	0.09472746
181	0x3d974c5b	0.073876105
182	0xbe028287	-0.12745105
183	0xbe04c39c	-0.12965244
184	0xbd3adc81	-0.045620445
185	0xbda59731	-0.08085478
186	0xbd78d9c4	-0.060754552
187	0xbd73449a	-0.059391595
188	0x3e73deb9	0.2381543
189	0x3e0e04eb	0.13869064
190	0x3d42e636	0.047582828
191	0xbde325c2	-0.11091186
192	0xbd832d84	-0.06405166
193	0x3e747f99	0.238768
194	0x3d92d623	0.071697496
195	0xbb83a7ec	-0.0040178206
196	0xbd649ed1	-0.05581552
197	0xbe081071	-0.13287522
198	0x3c7b95a8	0.015355505
199	0xbce5500c	-0.02799227
200	0x3d117a87	0.03551724
201	0xbe24aa31	-0.16080548
202	0xbde0cd3d	-0.10976646
203	0xbe2da183	-0.16956143
204	0xbda3afb8	-0.079925
205	0x3d866b28	0.06563407
206	0x3dc746d0	0.09730303
207	0x3d46599d	0.048425306
208	0x3e4639e8	0.19358027
209	0x3dbb4046	0.091431186
210	0xbbc9a8ba	-0.006154147
211	0x3df56cfc	0.11983678
212	0x3d896c84	0.06710151
213	0xbe1f8369	-0.15577473
214	0x3e36011a	0.17773858
215	0xbdc284a1	-0.09497953
216	0xbd5efeac	-0.054442093
217	0xbc60b16f	-0.013714178
218	0xbd0e7684	-0.034780994
219	0x3dd7761d	0.10520575
220	0xbe056be2	-0.13029435
221	0xbdf7a995	-0.12092892
222	0xbdbde228	-0.092716515
223	0xbd90e68d	-0.07075224
224	0x3e7caecb	0.24676053
225	0x3d610bb5	0.054942805
226	0x3e254a22	0.1614156
227	0x3c6ff259	0.0146451825
228	0x3e298617	0.16555057
229	0x3ae57f94	0.0017509335
230	0x3d83db5e	0.06438325
231	0x3dd54ee6	0.10415439
232	0x3da01415	0.0781633
233	0xbda819f7	-0.082080774
234	0xbd242224	-0.04007162
235	0x3e3ac5fa	0.18239585
236	0xbd41fdb3	-0.047361087
237	0xbdbb294b	-0.091387354
238	0xbdd27a8f	-0.102772824
239	0x3d07dea4	0.03317131
240	0x3ddcb314	0.10776344
241	0xbd122bb2	-0.035686202
242	0x3d908852	0.07057251
243	0x3da8731f	0.082250826
244	0xbdcec0b9	-0.10095353
245	0x3da4ee50	0.08053267
246	0x3e51dc3b	0.20494168
247	0x3d9ff3ac	0.078101486
248	0xbd219224	-0.03944601
249	0xbdd90e68	-0.10598451
250	0x3d180c1d	0.037120927
251	0x3d596906	0.053078674
252	0xba2cb97a	-0.00065889175
253	0xbdca980d	-0.09892283
254	0x3e55efb0	0.20892215
255	0x3d32670b	0.0435553

fc2.weight f4 [300, 400]
0	0x3e32c3ee	0.17457554
1	0xbc1c8be6	-0.009554839
2	0xbcffecc2	-0.031240825
3	0xbd5a2339	-0.053256247
4	0xbc8ae8b0	-0.016956657
5	0x3e3b091d	0.18265195
6	0xbb6f3c42	-0.0036504422
7	0x3d953d27	0.072870545
8	0xbe2e2713	-0.17007093
9	0xbd32bd15	-0.043637354
10	0x3d29c101	0.04144383
11	0xbd9f87a5	-0.07789544
12	0x3e2a12a3	0.16608672
13	0x3d139d93	0.036038946
14	0xbd039118	-0.032120794
15	0x3db985ef	0.09058749
16	0x3da61d09	0.08111007
17	0x3de891fd	0.1135597
18	0xbdb7e7b9	-0.089797445
19	0xbcf96998	-0.030445859
20	0xbcea6835	-0.028614143
21	0x3db05d8c	0.08611593
22	0xbd36446f	-0.044498857
23	0x3da17d20	0.07885194
24	0x3cbe2301	0.02321005
25	0xbe0460d6	-0.12927565
26	0x3ebea4f2	0.37235218
27	0xbdb261de	-0.08710073
28	0x3e1d01cc	0.15332717
29	0xbd1cffca	-0.038329877
30	0x3d97e5b0	0.07416856
31	0x3e207310	0.15668893
32	0x3d889a2e	0.066700324
33	0xbdf84937	-0.121233396
34	0xbd237864	-0.039909735
35	0xbd82ccd6	-0.063867256
36	0x3bc1fdac	0.0059201326
37	0x3e8551be	0.26038927
38	0x3dca6d70	0.09884155
39	0x3dabd612	0.0839044
40	0x3d39dff5	0.045379598
41	0xbd2dae40	-0.042402506
42	0x3dec0ee6	0.11526279
43	0xbdcb4cb9	-0.09926743
44	0x3d248bf9	0.04017255
45	0x3e2978e2	0.1655002
46	0x3cf6158c	0.030039571
47	0xbdcfaea3	-0.10140731
48	0xbdf93b94	-0.12169567
49	0xbd35af47	-0.04435661
50	0xbc17454d	-0.009232831
51	0x3eb0a087	0.34497473
52	0x3d2d23d3	0.042270493
53	0x3dcb1187	0.099154525
54	0x3c35433d	0.011063394
55	0xbe077b14	-0.13230544
56	0x3e011e38	0.12609184
57	0x3d5b6f2a	0.05357281
58	0x3ba07dcf	0.00489781
59	0xbcc61339	-0.024179088
60	0x3defa1d3	0.117007874
61	0xbd33bf38	-0.043883532
62	0x3e11bbc7	0.14231788
63	0xbd9c51a6	-0.07632761
64	0xbca27d81	-0.019835236
65	0xbd82a489	-0.06379039
66	0x3c6d09c5	0.014467661
67	0x3d47869a	0.04871235
68	0x3e28ddcf	0.16490863
69	0x3daab856	0.083359405
70	0xbdcd0b55	-0.10011927
71	0x3e575cb9	0.21031465
72	0x3d88f481	0.066872604
73	0x3de1f0bd	0.11032245
74	0xbc420fac	-0.011844557
75	0x3d3846d7	0.044989433
76	0x3c1bb0da	0.009502614
77	0xbd14195b	-0.036156993
78	0xbd5561c9	-0.05209521
79	0x3d2e4783	0.042548668
80	0xbcc0e0fa	-0.023544777
81	0xbda0c3c0	-0.07849836
82	0x3ac80902	0.0015261474
83	0x3dd6d961	0.104906805
84	0xbdc4c531	-0.09607924
85	0x3c533946	0.012892073
86	0x3c219370	0.009861812
87	0x3c9cef4f	0.01915708
88	0xbda82cdc	-0.08211681
89	0x3da3ef6e	0.08004652
90	0xbc9d560c	-0.01920607
91	0xbdd8dcee	-0.10589014
92	0xbd9b822d	-0.075931884
93	0x3d899a0f	0.067188375
94	0x3d0c0527	0.0341846
95	0x3dc077dc	0.09397861
96	0xbdc8f6e1	-0.098127134
97	0xbd9b2817	-0.07576006
98	0x3cffe0fd	0.031235212
99	0xbc8131b0	-0.015770763
100	0x3c2b0522	0.0104382355
101	0x3cca1cdb	0.024671962
102	0xbd402519	-0.04691038
103	0x3cc28fe8	0.02375026
104	0xbd834b4c	-0.06410846
105	0xbbf99c4f	-0.0076175104
106	0x3cfecebd	0.03110444
107	0x3d00143e	0.031269304
108	0xbda97442	-0.082741275
109	0xbba875e5	-0.0051410072
110	0xbe4dae5c	-0.20086044
111	0xbe09c999	-0.1345581
112	0xbd8ae02e	-0.0678104
113	0x3d4bdf39	0.04977343
114	0xbdd987af	-0.10621583
115	0x3cc3b186	0.02388836
116	0xbcc25098	-0.02372007
117	0x3e139de4	0.14415699
118	0xbc653c2d	-0.013991398
119	0x3d4e76f0	0.050406396
120	0x3caba8f1	0.020954581
121	0x3de48288	0.11157709
122	0x3a6f76c8	0.0009134826
123	0x3bd04a71	0.0063565304
124	0x3d0764ed	0.033055235
125	0x3e05fd5d	0.13084932
126	0x3cb24e99	0.021765994
127	0x3e09f01d	0.13470502
128	0xbd7b7fe0	-0.061401248
129	0x3d9c461d	0.076305605
130	0x3c347a6e	0.011015518
131	0xbc50ffce	-0.012756301
132	0xbe18725a	-0.14887372
133	0xbd10fd5f	-0.035397884
134	0xbd46e328	-0.048556477
135	0xbd98abef	-0.07454669
136	0x3e4e8a8e	0.20170042
137	0x3e5b9e25	0.21447046
138	0xbce0b677	-0.027430756
139	0x3ca8da79	0.020611988
140	0xbdbd2ea6	-0.09237413
141	0x3e30b9b6	0.17258343
142	0xbbd32ce6	-0.0064445613
143	0x3e365e5a	0.1780943
144	0xbd7443fa	-0.05963514
145	0x3d87b6b3	0.06626644
146	0xbb5fc8a7	-0.0034146698
147	0xbd8a8fc3	-0.067657016
148	0xbe1980b7	-0.14990507
149	0xbd37152d	-0.04469793
150	0xbe04a131	-0.12952115
151	0x3b7f102e	0.0038919556
152	0xbceaf756	-0.028682392
153	0x3e0a8843	0.13528542
154	0xbdda4de5	-0.106593885
155	0xbde31a9f	-0.11089062
156	0xbb343d61	-0.0027502405
157	0x3d8cedc7	0.0688129
158	0xbdecf655	-0.115704216
159	0xbd022327	-0.031771805
160	0x3c445e73	0.011985409
161	0xbca993f3	-0.02070043
162	0x3dbdfb64	0.092764646
163	0x3c9132dd	0.017724449
164	0x3d92d787	0.07170015
165	0xbd82d377	-0.0638799
166	0xbc908b54	-0.017644562
167	0xbd640f79	-0.05567882
168	0xbe2e0aca	-0.16996303
169	0x3e09a490	0.13441682
170	0x3d99666a	0.07490237
171	0xbd580c17	-0.052745905
172	0xbcf8edfa	-0.030386914
173	0xbdac76c0	-0.08421087
174	0x3dff0ad5	0.12453238
175	0xbd4a14e1	-0.049336318
176	0xbad9d9aa	-0.0016620655
177	0x3e49d66e	0.19710705
178	0x3b470944	0.0030370513
179	0x3e2be7c4	0.1678763
180	0x3bceb9d3	0.006308773
181	0xbc4c8829	-0.012483635
182	0xbb0f0961	-0.0021825659
183	0x3d3819db	0.044946533
184	0xbd296b23	-0.04136194
185	0xbd2baab5	-0.041910846
186	0x3d87e57c	0.066355675
187	0x3bed3796	0.0072392924
188	0xbdb6aa78	-0.08919233
189	0x3e15951b	0.1460766
190	0xbe3036d8	-0.17208421
191	0x3e81baf0	0.25337934
192	0x3d84a8da	0.064775184
193	0xbd448bc2	-0.047984846
194	0xbd6316a3	-0.05544151
195	0xbd57b4c5	-0.05266263
196	0xbc382d7a	-0.011241311
197	0x3dd82bb4	0.10555211
198	0x3d27b95c	0.040948257
199	0x3e06973d	0.1314363
200	0x3c58d9f1	0.013235555
201	0x3d4b3e0d	0.049619723
202	0x3cbbfd75	0.022948006
203	0x3e4939ea	0.19650999
204	0xbc2b5695	-0.0104576545
205	0x3db24050	0.08703673
206	0x3d8f59a5	0.0699952
207	0x3c501935	0.012701322
208	0xbd14021f	-0.036134835
209	0x3c648515	0.013947745
210	0x3c0bbcc3	0.008528891
211	0x3ce37183	0.027764088
212	0x3da13d28	0.07872993
213	0x3c9fd2f1	0.019509764
214	0x3d8f127c	0.069859475
215	0x3e45e9c6	0.19327459
216	0xbe187de0	-0.14891768
217	0x3d7879c5	0.060663003
218	0x3a9bf4fa	0.001189857
219	0x3caf72ba	0.02141701
220	0xbd42cb49	-0.04755715
221	0xbc704345	-0.014664476
222	0x3d151a15	0.036401827
223	0xbdca5330	-0.09879148
224	0xbe432859	-0.1905836
225	0x3dba2a9d	0.09090159
226	0xbdcac789	-0.099013396
227	0x3d656c0b	0.05601124
228	0xbd493016	-0.049118124
229	0xbc64a9e4	-0.013956521
230	0x3d2c7bc5	0.042110223
231	0xbcf80e85	-0.030280361
232	0xbddd4cec	-0.10805687
233	0xbbf03a20	-0.007331148
234	0xbda0b074	-0.07846156
235	0xbcdb8113	-0.026794946
236	0x3d6b2b4b	0.057414334
237	0xbd9fb763	-0.0779865
238	0xbd9d3a6a	-0.07677157
239	0x3de087b6	0.10963385
240	0xbd23e8bc	-0.040016875
241	0xbd97163b	-0.07377287
242	0x3d882ade	0.06648801
243	0xbdb2e2b6	-0.08734648
244	0x3d4085be	0.047002546
245	0xbe242b62	-0.16032174
246	0xbd318c85	-0.0433469
247	0x3d94feac	0.07275137
248	0x3db0aa80	0.0862627
249	0x3da5606f	0.08075034
250	0x3db316d4	0.087445885
251	0x3dbd28ca	0.092362955
252	0xbdeb81e5	-0.11499385
253	0xbe237042	-0.15960792
254	0xbde2b7b6	-0.11070196
255	0x3df71aea	0.1206568

fc2.bias f4 [300]
0	0xbd629e44	-0.055326715
1	0xbb94653b	-0.004528669
2	0xbc3a0a4b	-0.011354993
3	0x3c243f09	0.010024794
4	0xbc8ee716	-0.017444175
5	0x3db429d5	0.08797041
6	0xbd0700a0	-0.03295958
7	0x3d88dd00	0.066827774
8	0x3d46f1ee	0.048570566
9	0x3d3b17f8	0.045677155
10	0xbd295d69	-0.04134885
11	0xbd835244	-0.06412175
12	0xbcde0e19	-0.027106332
13	0x3c1e1957	0.009649596
14	0x3d2e7b6f	0.042598184
15	0x3aac9d8f	0.0013169515
16	0xbd0fc212	-0.03509719
17	0x3cd0e00d	0.02549746
18	0x3d727d4d	0.059201527
19	0xbc8e8df3	-0.017401671
20	0x3c12de33	0.008964109
21	0x3da6a547	0.08136993
22	0xbce4f54e	-0.027949002
23	0x3ca75087	0.02042414
24	0xbca3fb0a	-0.020017166
25	0xbd7afc7e	-0.06127595
26	0x3cbe4578	0.023226485
27	0x3cd2e5fd	0.025744433
28	0x3d3328cb	0.043740075
29	0x3d8d9155	0.069124855
30	0x3c2a8756	0.010408243
31	0x3cc8c2c7	0.02450694
32	0x3d8a158d	0.06742392
33	0x3cb9e9e4	0.022694536
34	0xbd431b23	-0.0476333
35	0x3d5af881	0.053459648
36	0x3c64ee08	0.013972767
37	0xbcdcac73	-0.026937699
38	0x3bb78563	0.0056006177
39	0x3d5517af	0.05202454
40	0x3d082d1b	0.03324614
41	0xbc1d1f2a	-0.00958995
42	0xbd5176b5	-0.0511386
43	0x3c436f2c	0.011928361
44	0x3d828e5b	0.063748084
45	0x3d1acb87	0.037791755
46	0x3b99c252	0.0046923542
47	0xbd10453b	-0.035222273
48	0xbba60040	-0.005065948
49	0x3ad4d6d1	0.0016238337
50	0x3d8baf77	0.06820577
51	0x3cb8e41c	0.022569709
52	0xbd0d5d36	-0.03451272
53	0xbc8eb756	-0.017421406
54	0x3b8ba511	0.004261621
55	0xbdf2ec78	-0.11861509
56	0xbcbbf7ba	-0.022945274
57	0xbe3532a1	-0.17695095
58	0xbbf6777c	-0.007521568
59	0xbd70b6d8	-0.058768123
60	0x3d8fb5ea	0.07017119
61	0xbc418189	-0.011810669
62	0xbc20e767	-0.009820796
63	0xbcdb74bf	-0.026789067
64	0x3ca8346c	0.02053281
65	0x3d42665e	0.047460906
66	0x3d66a201	0.056306843
67	0x3c15c00e	0.009140028
68	0xbd843ac3	-0.064565204
69	0xbb57954c	-0.0032895384
70	0x3d44cd3f	0.0480473
71	0xbcb3c57f	-0.02194476
72	0x3c4be847	0.012445516
73	0xbd66fcc2	-0.056393392
74	0xbcb45092	-0.022011075
75	0xbd0e8075	-0.034790475
76	0xbd624fb5	-0.055251796
77	0x3d490967	0.049081232
78	0xbc07f605	-0.008298402
79	0xbcb6d473	-0.0223181
80	0xbc82ba8d	-0.015958095
81	0xbd299471	-0.04140133
82	0xbdbc0501	-0.09180642
83	0xbda9b831	-0.08287085
84	0xbbb710e5	-0.005586731
85	0x3d5fd4c4	0.05464627
86	0x3c7f284c	0.015573572
87	0xbc185c92	-0.009299414
88	0xbd1d73c8	-0.038440496
89	0x3db257c9	0.0870815
90	0x3cfc9e56	0.03083722
91	0xbcc138d3	-0.023586666
92	0x3b1b082c	0.0023655994
93	0xbab73f34	-0.0013980628
94	0x3d279077	0.040909257
95	0x3d7aa86f	0.061195787
96	0xbacb65cc	-0.0015518009
97	0xbb7d2195	-0.0038624753
98	0xbb41685f	-0.0029511673
99	0x3d98262d	0.074291565
100	0x3ba0be50	0.0049054995
101	0x3d0b8bf4	0.034069017
102	0x3b85c9cb	0.0040828935
103	0xbd3b64e8	-0.04575053
104	0xbd27aa2c	-0.040933773
105	0xbd0f9d48	-0.035062104
106	0xbb29a4ce	-0.0025885585
107	0xbbe1000d	-0.006866461
108	0x3d5e3a01	0.054254536
109	0xbd3ca9ea	-0.04606048
110	0x3d50c291	0.050966803
111	0x3ccc45d7	0.024935646
112	0x3d3fe8f9	0.04685304
113	0xbd946031	-0.072449096
114	0x3bcf7808	0.0063314475
115	0x3cada469	0.021196561
116	0x3d80fbd9	0.06298036
117	0x3d623d8c	0.055234477
118	0x3cfec31c	0.031098895
119	0x3d73606d	0.05941813
120	0x3cc01feb	0.02345272
121	0xbd49750a	-0.049183883
122	0x3d75c3ac	0.06000106
123	0x3d128c6f	0.03577846
124	0x3d8077c3	0.06272843
125	0xbc79751b	-0.015225674
126	0x3dd596a9	0.10429127
127	0x3c6dbc6a	0.014510253
128	0x3c9d44ff	0.019197939
129	0x3cd73f91	0.026275428
130	0x3d6a961e	0.05727207
131	0xbcf2b6e1	-0.02962822
132	0x3d21c62a	0.039495625
133	0xbd724ed3	-0.059157204
134	0x3ccfd66e	0.025370803
135	0x3cd976a1	0.026545824
136	0x3ccff3f2	0.025384877
137	0x3da4efcf	0.08053552
138	0x3b89554e	0.0041910773
139	0xbd46b185	-0.04850914
140	0xbaef89df	-0.0018275342
141	0xbd77190f	-0.060326632
142	0xbcadc756	-0.021213215
143	0x3c0b3b69	0.008498051
144	0x3d47abb7	0.048747744
145	0x3bd4850c	0.006485587
146	0x3d30fd59	0.04321036
147	0x3d52e7a5	0.051490445
148	0x3c02a21b	0.007973219
149	0x3c24d0cf	0.0100595495
150	0xbca624b9	-0.020281183
151	0x3d398301	0.04529095
152	0x3c27ca58	0.010241114
153	0x3d599245	0.05311801
154	0x379e9950	1.890646e-05
155	0x3da002aa	0.07813008
156	0xbc6ce42c	-0.014458697
157	0x3d04c21f	0.03241169
158	0xbd2f7b81	-0.042842392
159	0x3d794b1c	0.060862646
160	0x3c502b0a	0.012705574
161	0x3cb151e0	0.021645486
162	0xbda6d60f	-0.08146297
163	0xbbc13233	-0.005895877
164	0xbc0c1ce3	-0.008551809
165	0xbd2cb046	-0.042160295
166	0x3bf518c0	0.007479757
167	0x3d07bf3a	0.033141352
168	0xbceba1af	-0.02876362
169	0x3cd2d88b	0.025738021
170	0x3d3f9999	0.04677734
171	0xbd9727b5	-0.073806204
172	0xbce3f3d6	-0.027826231
173	0x3c31fd1f	0.010863571
174	0x3d2196e1	0.03945053
175	0xbc6e778b	-0.014554868
176	0x3c75bfb4	0.014999319
177	0xbd02bb35	-0.031916816
178	0xbc958f0e	-0.01825669
179	0xbcd422b2	-0.02589545
180	0x3d720c98	0.05909404
181	0xbd10f889	-0.03539327
182	0x3d2363e8	0.0398902
183	0xbd68b357	-0.056811657
184	0x3df922a9	0.12164814
185	0x3c56aa39	0.013102108
186	0x3d373ab4	0.044733718
187	0x3cf13ded	0.029448474
188	0x3cd0a4bd	0.025469178
189	0xbbe23a59	-0.0069039282
190	0xbcca42ce	-0.024690058
191	0x3d5b7652	0.053579636
192	0xbdaaaaac	-0.08333334
193	0xbd0bd0e0	-0.034134746
194	0x3d86d729	0.06584007
195	0x3ca18923	0.019718712
196	0xbd2c415e	-0.042054527
197	0xbc0bfc19	-0.0085439915
198	0xbe00b022	-0.1256719
199	0x3da65506	0.08121686
200	0x3d7e71ea	0.062120356
201	0xbd0fa2fe	-0.03506755
202	0xbc60a79e	-0.013711838
203	0xbca8521d	-0.020546967
204	0x3ce9e138	0.028549775
205	0x3d90b83c	0.0706639
206	0x3d8356bb	0.06413027
207	0xbcd9b009	-0.026573198
208	0xbd207377	-0.039172616
209	0x3cd3977e	0.025829073
210	0xbca41bfd	-0.020032877
211	0x3c7a081e	0.015260724
212	0xbda30e45	-0.07961706
213	0x3becb3e1	0.0072235917
214	0xbd1ab44f	-0.037769612
215	0x3d89c64d	0.06727276
216	0xbbbfd1cc	-0.005853867
217	0x3adcf6ae	0.0016858184
218	0x3d5e4453	0.054264378
219	0x3cd21edf	0.025649486
220	0xbcb2620f	-0.021775274
221	0xbca64cfb	-0.020300379
222	0x3c7d9580	0.015477538
223	0xbcede136	-0.029038053
224	0x3c155097	0.009113452
225	0x3d064d79	0.032788727
226	0x3c44aea6	0.01200453
227	0xbca625f1	-0.020281764
228	0xbda222d7	-0.079168014
229	0x3d98afc0	0.07455397
230	0x3b75b1b7	0.003748996
231	0xbcc0f506	-0.023554336
232	0xbbfe3836	-0.0077581657
233	0x3d327227	0.043565895
234	0x3e0d1388	0.13776982
235	0xbe2b4b09	-0.16727842
236	0xbd3a3aeb	-0.045466345
237	0x3cc8fdc2	0.024535064
238	0x3c5edb1c	0.013602044
239	0xbd38f8cc	-0.045159146
240	0x3d6db3a8	0.05803266
241	0x3d854dc0	0.0650897
242	0x3cdf8c0b	0.027288457
243	0xbd044469	-0.032291804
244	0x3da0d214	0.07852569
245	0xbd94d0a4	-0.072663575
246	0xbc18ef1c	-0.009334352
247	0xbb2566d8	-0.0025238302
248	0x3d17a232	0.037019916
249	0x3c90f1f7	0.017693503
250	0xbbf0a20d	-0.0073435367
251	0x3c724f4f	0.014789416
252	0x3d35ccbc	0.044384703
253	0x3d9a5763	0.07536199
254	0xbcc8186e	-0.024425711
255	0xbd137320	-0.035998464

fc3.weight f4 [4, 300]
0	0xbe2a7953	-0.16647844
1	0xbe8ad0b9	-0.27112368
2	0xbdda9ffb	-0.10675045
3	0x3e76ac08	0.24089062
4	0x3e058841	0.13040258
5	0x3dafb922	0.08580233
6	0x3e0b9a3c	0.13633054
7	0x3c00d845	0.007864063
8	0x3e092a85	0.13395126
9	0xbd16fbd4	-0.036861256
10	0xbd429b86	-0.0475116
11	0x3e93961b	0.2882546
12	0x3d17df20	0.037078023
13	0xbe6e7df2	-0.23290232
14	0xbe84294e	-0.25812763
15	0x3d63437d	0.055484284
16	0xbdf2986e	-0.1184548
17	0xbd1f2a4e	-0.038858704
18	0x3d4f3754	0.050589874
19	0xbdebce9a	-0.115140155
20	0xbda3f064	-0.08004835
21	0x3cae89b6	0.0213059
22	0x3d1574f2	0.03648848
23	0xbcc770e4	-0.024345823
24	0xbe765963	-0.24057536
25	0x3e348773	0.17629795
26	0x3d57932a	0.05263058
27	0x3de17d88	0.11010271
28	0xbd461b86	-0.048366092
29	0x3d788c31	0.060680572
30	0x3e5cd29e	0.21564719
31	0xbda3a940	-0.07991266
32	0x3ca82ac5	0.020528207
33	0xbce56336	-0.028001409
34	0xbd917dea	-0.07104094
35	0xbdbbf8dc	-0.091783255
36	0x3c757786	0.01498211
37	0xbd852d57	-0.065027885
38	0x3aba2507	0.0014201709
39	0xbe85ab47	-0.26107237
40	0x3dc7f9ac	0.09764418
41	0x3e3b0fc4	0.18267733
42	0xbdc413d2	-0.09574093
43	0xbdbf6e0b	-0.09347161
44	0x3d9cc551	0.076548226
45	0x3e3d8ada	0.18509999
46	0x3d09db05	0.03365614
47	0xbcebb480	-0.028772593
48	0xbda6a1ea	-0.081363514
49	0xbd1f1960	-0.03884256
50	0x3d27fd3f	0.041013
51	0x3ccf5d8d	0.025313163
52	0x3e545230	0.20734477
53	0xbacbf78d	-0.0015561447
54	0x3c32ad1a	0.010905528
55	0xbe11d47f	-0.14241217
56	0xbdcac740	-0.09901285
57	0xbe9832a3	-0.29726133
58	0x3d6fabcb	0.058513444
59	0xbcd7156b	-0.02625533
60	0xbe8f1a1b	-0.27949604
61	0xbdf283f3	-0.118415736
62	0xbe6143b6	-0.21998486
63	0xbde22f51	-0.11044181
64	0xbb96bc9d	-0.004600121
65	0xbd414ee5	-0.04719438
66	0x3cea1414	0.028574027
67	0x3d110422	0.035404332
68	0xbe2ed095	-0.17071755
69	0xbe18a325	-0.14905985
70	0x3e0f5774	0.13998204
71	0x3b8eaa28	0.0043537803
72	0xbdf49e25	-0.11944226
73	0xbe65bb6d	-0.22434779
74	0xbe16cb09	-0.1472589
75	0xbe33361e	-0.17501113
76	0xbda4122c	-0.080112785
77	0xbe3df067	-0.18548737
78	0xbe2310a1	-0.15924312
79	0xbe30faba	-0.17283145
80	0xbe5272bb	-0.20551579
81	0xbd91f31b	-0.07126447
82	0xbe9525e5	-0.29130474
83	0xbe98706d	-0.29773274
84	0xbdb88249	-0.09009225
85	0x3d57d14d	0.05268984
86	0xbbafe017	-0.0053672898
87	0x3e56009b	0.20898668
88	0x3e7aa787	0.24477969
89	0x3e18d8bf	0.14926432
90	0x3cf74b05	0.03018714
91	0x3cd41cf7	0.025892718
92	0xbdd7149b	-0.10501977
93	0x3da224fe	0.07917212
94	0xbcdcb5b2	-0.026942108
95	0xbe0cd3f1	-0.13752724
96	0x3e340349	0.17579378
97	0xbe544a7e	-0.20731542
98	0xbde82c81	-0.113366134
99	0xbe320455	-0.17384465
100	0xbd0bea44	-0.03415896
101	0xbe2cbe5c	-0.16869491
102	0xbe864a1c	-0.26228416
103	0x3c388cee	0.011264069
104	0xbe430f20	-0.19048738
105	0xbd284847	-0.041084554
106	0xbaded5b2	-0.0017000942
107	0xbd71fb70	-0.05907768
108	0x3cbeff09	0.02331497
109	0xbdbe3191	-0.09286798
110	0x3ba651d6	0.0050756736
111	0x3e5813e7	0.21101342
112	0xbd8600b0	-0.065431
113	0xbca3583a	-0.01993953
114	0x3d46290f	0.048379
115	0x3e02ae3b	0.12761776
116	0xbd3e2297	-0.046419706
117	0x3e6656b7	0.22494017
118	0xbd1e860a	-0.03870205
119	0xbdae0abf	-0.084981434
120	0x3dbff854	0.09373537
121	0xbe5e55a6	-0.2171236
122	0x3da0adea	0.078456715
123	0xbd455be3	-0.048183333
124	0x3e596797	0.21230923
125	0x3d5a27c5	0.053260583
126	0x3d464eb3	0.048414897
127	0xbe755225	-0.23957117
128	0xbdb38999	-0.08766479
129	0x3d2c59d8	0.04207787
130	0xbe9e325c	-0.30897796
131	0xbd986261	-0.07440639
132	0xbe7ced04	-0.2469979
133	0x3e11e6a5	0.1424814
134	0x3d3ce3a9	0.04611555
135	0xbce8521f	-0.02835947
136	0xbddf13cb	-0.10892447
137	0x3dddf412	0.10837568
138	0x3d67907f	0.056534287
139	0xbd321166	-0.043473624
140	0xbdd46fac	-0.10372862
141	0x3e6ed0af	0.23321794
142	0x3e66147f	0.22468756
143	0xbb7e421d	-0.003879673
144	0x3d951f71	0.072813876
145	0x3db005ff	0.08594894
146	0xb9f08e9a	-0.00045882614
147	0x3d0db173	0.034593057
148	0x3da1b7d5	0.07896391
149	0xbdb2796e	-0.08714567
150	0x3d6835a3	0.056691777
151	0xbc4e8631	-0.012605236
152	0x3e62b7a5	0.22140367
153	0x3dc2735f	0.094946615
154	0x3de3381e	0.11094688
155	0x3d28085b	0.041023593
156	0xbcdc6afb	-0.026906481
157	0x3dbf629e	0.093449816
158	0xbd59b44d	-0.053150464
159	0xbe3d84bb	-0.18507664
160	0xbbb04970	-0.005379848
161	0xbe1d2c78	-0.15348995
162	0xbe1160f3	-0.1419714
163	0xbd11b0b0	-0.035568893
164	0xbd3ad30e	-0.045611434
165	0x3c53e5bf	0.012933194
166	0xbd59cb66	-0.05317249
167	0xbde7e138	-0.11322254
168	0xbc92a121	-0.017899098
169	0xbe285945	-0.16440304
170	0xbc8eb38d	-0.0174196
171	0xbd85adba	-0.06527276
172	0x3e0d23bf	0.13783167
173	0xbd9f4e8c	-0.077786535
174	0x3b8ac11d	0.0042344467
175	0xbdace3ba	-0.08441873
176	0x3d4bc92e	0.049752407
177	0xbd5b4e67	-0.053541567
178	0xbda7129f	-0.081578486
179	0xbd0e9ec5	-0.034819383
180	0x3b714a1d	0.0036817857
181	0xbe18f583	-0.14937405
182	0xbd9a4068	-0.07531816
183	0x3dc9a023	0.09844997
184	0x3dd20045	0.10253958
185	0xbe4f9e82	-0.2027531
186	0xbe5f5cc3	-0.2181273
187	0xbdab74e2	-0.08371903
188	0xbe9df19d	-0.308484
189	0xbd1ff193	-0.039048743
190	0xbd852504	-0.06501201
191	0xbd98d6f9	-0.07462878
192	0xbd1577c0	-0.036491156
193	0xbddf3094	-0.108979374
194	0xbd1800c5	-0.03711011
195	0xbe59934e	-0.21247599
196	0xbb21c4f2	-0.002468404
197	0xbcc87f02	-0.024474625
198	0xbdb29cff	-0.08721351
199	0xbe9694d1	-0.29410413
200	0x3c484dd9	0.012225592
201	0xbd36fa6a	-0.044672407
202	0x3ce3e534	0.027819254
203	0xbd81af94	-0.06332317
204	0x3dc3e3a1	0.09564901
205	0x3e167487	0.14692889
206	0x3d98e37e	0.07465266
207	0xbe3234f9	-0.1740302
208	0xbe53229c	-0.20618671
209	0x3ddcd631	0.10783041
210	0xbe178bdb	-0.14799444
211	0xbded61ac	-0.11590895
212	0x3d2fe496	0.042942606
213	0xbc2eaac2	-0.010660829
214	0x3e597a20	0.21237993
215	0x3c98b63f	0.01864159
216	0x3e151778	0.14559734
217	0x3e2773c9	0.16352762
218	0xbd93d0ac	-0.072175354
219	0x3c903b1a	0.017606307
220	0xbdd65883	-0.10466101
221	0xbd4236cf	-0.04741555
222	0xbbc045f1	-0.0058677127
223	0x3cea7aa3	0.02862293
224	0x3e35d421	0.17756702
225	0x3d896f9c	0.06710741
226	0x3e1f714d	0.15570565
227	0xbe2d3547	-0.16914855
228	0xbe90e0b7	-0.28296444
229	0x3d8e3fac	0.06945738
230	0xbe616fed	-0.22015353
231	0x3d25ca90	0.04047638
232	0x3e4eaaf0	0.20182395
233	0xbe5542b7	-0.20826231
234	0x3de78e3f	0.11306428
235	0xbec05908	-0.37567925
236	0x3e0a7cf1	0.13524224
237	0x3d00c380	0.031436443
238	0xbce2e662	-0.027697746
239	0xbd568880	-0.05237627
240	0x3bd5a3df	0.006519779
241	0x3cdbd130	0.026833147
242	0xbcf7b003	-0.030235296
243	0xbe4c1b92	-0.19932392
244	0xbd619a9e	-0.055079095
245	0xbe0a2184	-0.13489348
246	0xbd87b3b5	-0.06626073
247	0x3e1f75f9	0.15572347
248	0xbe443054	-0.1915906
249	0xbd0ac7c9	-0.033881936
250	0x3c7f7c4e	0.015593601
251	0x3dadcace	0.084859475
252	0x3bce55d8	0.0062968545
253	0xbd908a3c	-0.07057616
254	0xbdc65d87	-0.09685808
255	0xbcb11169	-0.021614747

fc3.bias f4 [4]
0	0xba90a9da	-0.0011036948
1	0x3c243b5f	0.010023921
2	0x3c5775e4	0.013150666
3	0x3d6b6641	0.057470564

bn1.weight f4 [300]
0	0x3e222cd4	0.15837413
1	0x3f78fa2c	0.9725673
2	0x3e916796	0.28399342
3	0x3f5d2a43	0.8639261
4	0x3efbf018	0.49206614
5	0x3f253479	0.6453319
6	0x3d5c4d00	0.05378437
7	0x3f57be26	0.8427452
8	0x3c519ac0	0.012793243
9	0x3f0aa9f5	0.54165584
10	0x3cdbef20	0.026847422
11	0x3f3b547c	0.7317579
12	0x3ef39602	0.47575384
13	0x3ec4c98e	0.38435024
14	0x3e8cad00	0.2747574
15	0x3ed3532a	0.41274387
16	0x3d25ef40	0.04051137
17	0x3e89c9b0	0.26911688
18	0x3e058764	0.13039929
19	0x3cafb5e0	0.02144903
20	0x3f3cb505	0.73713714
21	0x3af1c000	0.0018444061
22	0x3f0ac058	0.54199743
23	0x3f4a143f	0.78937143
24	0x3f387569	0.72054154
25	0x3e284c80	0.16435432
26	0x3eb77e40	0.3583851
27	0x3ea10a98	0.31453395
28	0x3f48bf88	0.78417253
29	0x3f7f1f9d	0.99657613
30	0x3f2615e6	0.64877164
31	0x3e5b1c5c	0.21397537
32	0x3f689ca8	0.9086404
33	0x3dfb75a0	0.122782946
34	0x39248000	0.00015687943
35	0x3f1ca989	0.6119619
36	0x3f19f4ba	0.6013905
37	0x3f048faf	0.51781744
38	0x3ebb500c	0.36584508
39	0x3e8acc46	0.27108973
40	0x3f04907f	0.51782984
41	0x3eca3988	0.39497018
42	0x3e9a7b0c	0.30172002
43	0x3f50b8e2	0.8153211
44	0x3f12a3a7	0.57280964
45	0x3f46ab95	0.77605563
46	0x3f6b78a4	0.9198096
47	0x3e90c5ea	0.28275996
48	0x3d2e55e0	0.042562366
49	0x3dcf9260	0.10135341
50	0x3d9746d8	0.07386559
51	0x3eaa93d2	0.33315903
52	0x3f76519c	0.96218276
53	0x3da27868	0.07933122
54	0x3d4e8210	0.050417006
55	0x3dd33218	0.10312289
56	0x3f1c08bd	0.60950834
57	0x3ea0fe60	0.31444073
58	0x3eaee318	0.34157634
59	0x3f3c1ebc	0.73484397
60	0x3f36539c	0.7122133
61	0x3ec76056	0.38940686
62	0x3db49130	0.08816755
63	0x3f32ac2f	0.6979398
64	0x3ec58ec6	0.3858549
65	0x3f2ba18f	0.67043394
66	0x3f0b3837	0.5438265
67	0x3ed9e3ac	0.42556512
68	0x3edb72c6	0.42861003
69	0x3ed84fd6	0.4224841
70	0x3c3c4980	0.011492133
71	0x3e5c8c08	0.21537793
72	0x3f3357d6	0.700559
73	0x3ec5e1fe	0.3864898
74	0x3f1ea5a1	0.6197148
75	0x3d8658a8	0.065598786
76	0x3f5052bf	0.8137626
77	0x3eb0d1ae	0.34534973
78	0x3f326b5f	0.69695085
79	0x3dc1c6c0	0.09461737
80	0x3f78773d	0.97056943
81	0x3f6ec8bf	0.93275064
82	0x3f513e41	0.81735617
83	0x3f7b8e2b	0.98263806
84	0x3db37590	0.08762658
85	0x3d134f10	0.03596407
86	0x3f0f38a8	0.55945826
87	0x3f2ebb11	0.6825419
88	0x3eb51a90	0.35371828
89	0x3e588cd4	0.21147472
90	0x3eae78ba	0.34076482
91	0x3f4b1803	0.79333514
92	0x3e8c4c10	0.2740178
93	0x3e20ab60	0.15690374
94	0x3f3159e0	0.69277763
95	0x3e226bb4	0.15861398
96	0x3e69ad64	0.2282005
97	0x3f75ef5b	0.9606835
98	0x3e47268c	0.19448298
99	0x3f5eeac6	0.87076986
100	0x3f258675	0.6465829
101	0x3e624714	0.22097427
102	0x3ef5f8de	0.48041433
103	0x3e815b24	0.25264847
104	0x3da578f0	0.080797076
105	0x3ebc3792	0.36761147
106	0x3e59504c	0.21222037
107	0x3eaa10d8	0.33215976
108	0x3c7c7780	0.01540935
109	0x3d260d80	0.04054022
110	0x3f09a4f6	0.53767335
111	0x3d428c60	0.047497153
112	0x3f32db37	0.69865745
113	0x3f43792d	0.76356775
114	0x3e2d1cd8	0.16905534
115	0x3f2242a7	0.63382953
116	0x3f0d8696	0.55283487
117	0x3d4652a0	0.04841864
118	0x3e06bbe0	0.13157606
119	0x3e9eba28	0.310014
120	0x3f0e11ef	0.55496114
121	0x3ef30056	0.47461194
122	0x3e98c1b8	0.29835296
123	0x3e812414	0.25222838
124	0x3f5e7f5b	0.8691308
125	0x3e79dbb0	0.2440021
126	0x3e858658	0.2607906
127	0x3f232fc7	0.6374478
128	0x3effbda4	0.49949372
129	0x3eb39b36	0.35079354
130	0x3efd57ee	0.49481148
131	0x3f75974e	0.95934
132	0x3e612e38	0.21990287
133	0x3f716e28	0.9430871
134	0x3f07a490	0.5298548
135	0x3e1d51ec	0.15363282
136	0x3f5d2daf	0.8639783
137	0x3f458eea	0.77171195
138	0x3f056212	0.5210277
139	0x3f51749a	0.81818545
140	0x3ee6bd6a	0.45066386
141	0x3f5f3e08	0.8720403
142	0x3f5d8cc6	0.8654293
143	0x3f3ed2c5	0.7454036
144	0x3f425aaa	0.7591959
145	0x3eb5101e	0.3536386
146	0x3dd0e9d0	0.10200846
147	0x3edef2da	0.43544656
148	0x3f5c4f10	0.8605814
149	0x3e9d5690	0.30730104
150	0x3f7b2602	0.9810487
151	0x3f353038	0.707767
152	0x3dbe03d8	0.09278077
153	0x3ebee5c2	0.37284666
154	0x3f384c25	0.7199119
155	0x3f3b42fe	0.73149097
156	0x3e5bff78	0.21484172
157	0x3e3a2334	0.18177491
158	0x3f276b0d	0.6539772
159	0x3f2214f5	0.6331323
160	0x3af15c00	0.0018414259
161	0x3df67ba0	0.12035298
162	0x3de65578	0.112467706
163	0x3ecff2a0	0.40614796
164	0x3f351243	0.7073099
165	0x3f040c4e	0.51581275
166	0x3e0beab8	0.13663757
167	0x3e195364	0.14973217
168	0x3cbfbbc0	0.023404956
169	0x3f6f5903	0.93495196
170	0x3ead1c0c	0.3381046
171	0x3ea3f1d8	0.3202045
172	0x3dbb8460	0.09156108
173	0x3f29d311	0.66337687
174	0x3f68e710	0.90977573
175	0x3f39f86b	0.7264468
176	0x3f20067c	0.62509894
177	0x3e89c4f8	0.26908088
178	0x3dcfd438	0.101478994
179	0x3f447ee9	0.7675615
180	0x3ec9261a	0.39286882
181	0x3ea5f58a	0.32413894
182	0x3f7e7a4b	0.99405354
183	0x3ebb2fbc	0.36559856
184	0x3ca2f380	0.0198915
185	0x3f5eeceb	0.8708026
186	0x3f1591a6	0.58425367
187	0x3e276be8	0.16349757
188	0x3f120124	0.5703299
189	0x3f713f4e	0.9423722
190	0x3f549e46	0.83054006
191	0x3f2b71c6	0.6697048
192	0x3f3623fa	0.71148646
193	0x3e93107a	0.28723508
194	0x3f7818b5	0.969127
195	0x3f3ef1ce	0.74587715
196	0x3f025b1d	0.5092028
197	0x3d51aa00	0.051187515
198	0x3ece758c	0.40324056
199	0x3f137b6a	0.5761019
200	0x3ebf5ee4	0.37377083
201	0x3f3a0055	0.72656757
202	0x3d282f80	0.041060925
203	0x3f3c3778	0.7352214
204	0x3f2b17ec	0.66833377
205	0x3effed5a	0.49985772
206	0x3f214c75	0.6300729
207	0x3f44802d	0.7675808
208	0x3f3dcd2c	0.7414119
209	0x3dcf1130	0.101107
210	0x3f7ed102	0.9953767
211	0x3e75a59c	0.23988956
212	0x3ebf81ce	0.3740372
213	0x3ea2392a	0.31684238
214	0x3f14b647	0.58090633
215	0x3edd666c	0.43242204
216	0x3f4f2f80	0.80931854
217	0x3f5caf22	0.8620473
218	0x3f47be22	0.78024495
219	0x3ed47ae8	0.4150002
220	0x3d9071a8	0.07052928
221	0x3f73f226	0.95291364
222	0x3dae55d8	0.08512467
223	0x3f636e69	0.8884035
224	0x3c97b1a0	0.018517315
225	0x3f3d5d75	0.7397073
226	0x3f248c80	0.64276886
227	0x3d92cd88	0.07168108
228	0x3d52b3b0	0.051440895
229	0x3f1b045b	0.6055352
230	0x3df9a2b0	0.12189233
231	0x3e1087ac	0.14114255
232	0x3dd78230	0.10522878
233	0x3ed38b9e	0.41317457
234	0x3f3bd2df	0.7336864
235	0x3dab9648	0.08378273
236	0x3dc08338	0.09400028
237	0x3f0b550c	0.54426646
238	0x3e9d9986	0.30781192
239	0x3ee70896	0.45123738
240	0x3f04a70c	0.51817393
241	0x3f3ad7bf	0.7298545
242	0x3e0bbe24	0.13646752
243	0x3f0b7394	0.54473233
244	0x3e41afe8	0.18914759
245	0x3e03a10c	0.12854403
246	0x3f736101	0.9506989
247	0x3edbfa3c	0.4296435
248	0x3f4c0971	0.79701906
249	0x3f4d35a3	0.8015997
250	0x3cff9260	0.031197727
251	0x3f2a83d7	0.6660742
252	0x3f732c65	0.94989616
253	0x3ee4b51e	0.4466943
254	0x3f59d029	0.8508325
255	0x3f798511	0.9746867

bn1.bias f4 [300]
0	0x00000000	0.0
1	0x00000000	0.0
2	0x00000000	0.0
3	0x00000000	0.0
4	0x00000000	0.0
5	0x00000000	0.0
6	0x00000000	0.0
7	0x00000000	0.0
8	0x00000000	0.0
9	0x00000000	0.0
10	0x00000000	0.0
11	0x00000000	0.0
12	0x00000000	0.0
13	0x00000000	0.0
14	0x00000000	0.0
15	0x00000000	0.0
16	0x00000000	0.0
17	0x00000000	0.0
18	0x00000000	0.0
19	0x00000000	0.0
20	0x00000000	0.0
21	0x00000000	0.0
22	0x00000000	0.0
23	0x00000000	0.0
24	0x00000000	0.0
25	0x00000000	0.0
26	0x00000000	0.0
27	0x00000000	0.0
28	0x00000000	0.0
29	0x00000000	0.0
30	0x00000000	0.0
31	0x00000000	0.0
32	0x00000000	0.0
33	0x00000000	0.0
34	0x00000000	0.0
35	0x00000000	0.0
36	0x00000000	0.0
37	0x00000000	0.0
38	0x00000000	0.0
39	0x00000000	0.0
40	0x00000000	0.0
41	0x00000000	0.0
42	0x00000000	0.0
43	0x00000000	0.0
44	0x00000000	0.0
45	0x00000000	0.0
46	0x00000000	0.0
47	0x00000000	0.0
48	0x00000000	0.0
49	0x00000000	0.0
50	0x00000000	0.0
51	0x00000000	0.0
52	0x00000000	0.0
53	0x00000000	0.0
54	0x00000000	0.0
55	0x00000000	0.0
56	0x00000000	0.0
57	0x00000000	0.0
58	0x00000000	0.0
59	0x00000000	0.0
60	0x00000000	0.0
61	0x00000000	0.0
62	0x00000000	0.0
63	0x00000000	0.0
64	0x00000000	0.0
65	0x00000000	0.0
66	0x00000000	0.0
67	0x00000000	0.0
68	0x00000000	0.0
69	0x00000000	0.0
70	0x00000000	0.0
71	0x00000000	0.0
72	0x00000000	0.0
73	0x00000000	0.0
74	0x00000000	0.0
75	0x00000000	0.0
76	0x00000000	0.0
77	0x00000000	0.0
78	0x00000000	0.0
79	0x00000000	0.0
80	0x00000000	0.0
81	0x00000000	0.0
82	0x00000000	0.0
83	0x00000000	0.0
84	0x00000000	0.0
85	0x00000000	0.0
86	0x00000000	0.0
87	0x00000000	0.0
88	0x00000000	0.0
89	0x00000000	0.0
90	0x00000000	0.0
91	0x00000000	0.0
92	0x00000000	0.0
93	0x00000000	0.0
94	0x00000000	0.0
95	0x00000000	0.0
96	0x00000000	0.0
97	0x00000000	0.0
98	0x00000000	0.0
99	0x00000000	0.0
100	0x00000000	0.0
101	0x00000000	0.0
102	0x00000000	0.0
103	0x00000000	0.0
104	0x00000000	0.0
105	0x00000000	0.0
106	0x00000000	0.0
107	0x00000000	0.0
108	0x00000000	0.0
109	0x00000000	0.0
110	0x00000000	0.0
111	0x00000000	0.0
112	0x00000000	0.0
113	0x00000000	0.0
114	0x00000000	0.0
115	0x00000000	0.0
116	0x00000000	0.0
117	0x00000000	0.0
118	0x00000000	0.0
119	0x00000000	0.0
120	0x00000000	0.0
121	0x00000000	0.0
122	0x00000000	0.0
123	0x00000000	0.0
124	0x00000000	0.0
125	0x00000000	0.0
126	0x00000000	0.0
127	0x00000000	0.0
128	0x00000000	0.0
129	0x00000000	0.0
130	0x00000000	0.0
131	0x00000000	0.0
132	0x00000000	0.0
133	0x00000000	0.0
134	0x00000000	0.0
135	0x00000000	0.0
136	0x00000000	0.0
137	0x00000000	0.0
138	0x00000000	0.0
139	0x00000000	0.0
140	0x00000000	0.0
141	0x00000000	0.0
142	0x00000000	0.0
143	0x00000000	0.0
144	0x00000000	0.0
145	0x00000000	0.0
146	0x00000000	0.0
147	0x00000000	0.0
148	0x00000000	0.0
149	0x00000000	0.0
150	0x00000000	0.0
151	0x00000000	0.0
152	0x00000000	0.0
153	0x00000000	0.0
154	0x00000000	0.0
155	0x00000000	0.0
156	0x00000000	0.0
157	0x00000000	0.0
158	0x00000000	0.0
159	0x00000000	0.0
160	0x00000000	0.0
161	0x00000000	0.0
162	0x00000000	0.0
163	0x00000000	0.0
164	0x00000000	0.0
165	0x00000000	0.0
166	0x00000000	0.0
167	0x00000000	0.0
168	0x00000000	0.0
169	0x00000000	0.0
170	0x00000000	0.0
171	0x00000000	0.0
172	0x00000000	0.0
173	0x00000000	0.0
174	0x00000000	0.0
175	0x00000000	0.0
176	0x00000000	0.0
177	0x00000000	0.0
178	0x00000000	0.0
179	0x00000000	0.0
180	0x00000000	0.0
181	0x00000000	0.0
182	0x00000000	0.0
183	0x00000000	0.0
184	0x00000000	0.0
185	0x00000000	0.0
186	0x00000000	0.0
187	0x00000000	0.0
188	0x00000000	0.0
189	0x00000000	0.0
190	0x00000000	0.0
191	0x00000000	0.0
192	0x00000000	0.0
193	0x00000000	0.0
194	0x00000000	0.0
195	0x00000000	0.0
196	0x00000000	0.0
197	0x00000000	0.0
198	0x00000000	0.0
199	0x00000000	0.0
200	0x00000000	0.0
201	0x00000000	0.0
202	0x00000000	0.0
203	0x00000000	0.0
204	0x00000000	0.0
205	0x00000000	0.0
206	0x00000000	0.0
207	0x00000000	0.0
208	0x00000000	0.0
209	0x00000000	0.0
210	0x00000000	0.0
211	0x00000000	0.0
212	0x00000000	0.0
213	0x00000000	0.0
214	0x00000000	0.0
215	0x00000000	0.0
216	0x00000000	0.0
217	0x00000000	0.0
218	0x00000000	0.0
219	0x00000000	0.0
220	0x00000000	0.0
221	0x00000000	0.0
222	0x00000000	0.0
223	0x00000000	0.0
224	0x00000000	0.0
225	0x00000000	0.0
226	0x00000000	0.0
227	0x00000000	0.0
228	0x00000000	0.0
229	0x00000000	0.0
230	0x00000000	0.0
231	0x00000000	0.0
232	0x00000000	0.0
233	0x00000000	0.0
234	0x00000000	0.0
235	0x00000000	0.0
236	0x00000000	0.0
237	0x00000000	0.0
238	0x00000000	0.0
239	0x00000000	0.0
240	0x00000000	0.0
241	0x00000000	0.0
242	0x00000000	0.0
243	0x00000000	0.0
244	0x00000000	0.0
245	0x00000000	0.0
246	0x00000000	0.0
247	0x00000000	0.0
248	0x00000000	0.0
249	0x00000000	0.0
250	0x00000000	0.0
251	0x00000000	0.0
252	0x00000000	0.0
253	0x00000000	0.0
254	0x00000000	0.0
255	0x00000000	0.0
