checkpoint_critic.pth (torch_old, 10057 bytes, 5 tensors)

fcs1.weight f4 [24, 33]
0	0xbfb3e0dd	-1.4052998
1	0xbf053ed0	-0.5204897
2	0x3e12ad1c	0.14323848
3	0x3de14acd	0.11000595
4	0xbfac8c8c	-1.3480392
5	0xbf8f08a0	-1.1174507
6	0x3e4872bb	0.19575016
7	0xbf96f344	-1.1792989
8	0xbbd8fdd1	-0.006622054
9	0xbf67dda4	-0.9057257
10	0xbdfafc95	-0.122552074
11	0x3e87a1af	0.26490542
12	0xbe1117ec	-0.14169282
13	0xbe68cb3e	-0.2273378
14	0x3e4bb0bd	0.19891639
15	0x3e869c0c	0.2629093
16	0xbf45e0dd	-0.7729624
17	0x3f788b85	0.9708789
18	0x3f7f0f9b	0.9963319
19	0x3c93ecaa	0.018057186
20	0xbfaaf60b	-1.3356336
21	0x3f43cfba	0.7648884
22	0xbc425261	-0.011860461
23	0x3e166589	0.1468717
24	0xbd1b9a3a	-0.03798888
25	0x3a8763a7	0.0010329381
26	0xbeb1a233	-0.3469406
27	0x3f864907	1.0491036
28	0xbe2ff9b6	-0.17185101
29	0xbe42d26d	-0.19025584
30	0xbf6b3cb2	-0.9188949
31	0xbde4e1c3	-0.11175873
32	0xbea97d5a	-0.33103448
33	0x3e9737a9	0.29534653
34	0x3e9b082f	0.3027968
35	0x3dac6f7d	0.08419702
36	0xbea74aa8	-0.32674146
37	0xbda4ca5c	-0.080464095
38	0x3e1a94c9	0.1509582
39	0x3f198729	0.59971863
40	0xbf2ac031	-0.6669951
41	0x3e425151	0.18976332
42	0xbf1f1205	-0.6213687
43	0x3e82dba9	0.25558212
44	0xbce703d4	-0.028200068
45	0xbe622a0e	-0.22086355
46	0xbe853500	-0.26016998
47	0xbd81503b	-0.06314131
48	0xbd93ceb1	-0.07217158
49	0xbe947046	-0.28991908
50	0xbfcd16d3	-1.602259
51	0xbf2f56a5	-0.68491584
52	0xbf78bd1e	-0.9716357
53	0xbf5fbc37	-0.8739657
54	0x3ddbf515	0.10740105
55	0x3e319339	0.17341317
56	0xbe22d359	-0.15900935
57	0xbd0db441	-0.03459573
58	0xbd1139d6	-0.035455547
59	0x3dfd968f	0.123822324
60	0x3f2bc0ec	0.6709125
61	0x3eaad275	0.3336369
62	0xbcb51a78	-0.022107348
63	0xbf52f464	-0.8240416
64	0x3e36c70a	0.17849365
65	0x3f9cd909	1.2253734
66	0x3c1ab546	0.009442633
67	0xbf80338a	-1.0015728
68	0xbe9c5249	-0.3053153
69	0x3f3fac68	0.74872446
70	0xbe96cd00	-0.29453278
71	0xbf6ab78c	-0.9168632
72	0x3f01dac3	0.5072443
73	0xbfde443c	-1.7364573
74	0x3f33c012	0.7021495
75	0xbf4ed61a	-0.80795443
76	0xbdeba282	-0.11505605
77	0xbefa49c3	-0.488844
78	0xbe7bc97a	-0.24588576
79	0x3f174f7c	0.5910566
80	0x3d288a17	0.041147318
81	0x3decf36f	0.11569869
82	0xbd52669c	-0.051367387
83	0x3f770b7d	0.96501905
84	0x3ed9e3a9	0.42556503
85	0x3f0c5561	0.5481778
86	0xbf8c50b9	-1.0962135
87	0xbee42a43	-0.44563493
88	0xbef093e5	-0.46987835
89	0xbf209e34	-0.627414
90	0xbd817687	-0.063214354
91	0x3e96f2a8	0.29482007
92	0x3f76d033	0.96411437
93	0x4027d14c	2.6221495
94	0xbf856398	-1.0421019
95	0x3dbba228	0.09161788
96	0xc0337040	-2.8037262
97	0x3c240f70	0.010013446
98	0x401e45ca	2.4730096
99	0xbdb56130	-0.08856428
100	0x3efde760	0.49590588
101	0xbadc642a	-0.0016814519
102	0x3f0c4121	0.5478688
103	0xbdf9b394	-0.12192455
104	0x3e6ff696	0.23433909
105	0xbf03cec8	-0.514874
106	0xbfa46980	-1.2844696
107	0x3f348574	0.70516133
108	0xbf14c4ec	-0.5811298
109	0xbe56b831	-0.20968701
110	0xbe2feb8c	-0.17179698
111	0xbf137f34	-0.5761597
112	0xbe858021	-0.26074317
113	0x3ecc2981	0.39875415
114	0xbe53918c	-0.2066099
115	0x3eeb35c5	0.4593946
116	0x3f05d74e	0.52281654
117	0xbf05d954	-0.5228474
118	0x3eb8d02d	0.36096326
119	0xbf3dee3d	-0.7419165
120	0x3fb5026b	1.4141363
121	0xbfbb8a6d	-1.4651619
122	0xbe70ed83	-0.23528104
123	0x3c1c8192	0.009552376
124	0x3a7ce69c	0.00096474006
125	0xbeb81b63	-0.35958394
126	0xbda1a97e	-0.07893656
127	0xbd9a0865	-0.075211324
128	0xbd22146c	-0.039570257
129	0x3d564d74	0.05231996
130	0xbe4a8a7b	-0.19779389
131	0xbeacf978	-0.3378408
132	0x3e9a0c3e	0.30087465
133	0x3eafc206	0.34327716
134	0x3da523a1	0.08063436
135	0xbf38e7dc	-0.7222879
136	0x3d84b363	0.06479528
137	0x3f07710d	0.52906877
138	0xbe01be1d	-0.12670179
139	0x3f48b3e0	0.7839947
140	0xbf064995	-0.5245603
141	0x3f0b5031	0.5441924
142	0xbe12c639	-0.14333428
143	0x3def8ae4	0.11696413
144	0x3db77f93	0.0895988
145	0x3e1ff688	0.15621388
146	0x3e542f8c	0.20721263
147	0xbe092e68	-0.13396609
148	0xbb8737ba	-0.004126516
149	0x3de30ea6	0.11086778
150	0xbf159103	-0.58424395
151	0x3e14f773	0.1454752
152	0x3ebd9c17	0.3703315
153	0x3e3da104	0.18518454
154	0x3e9b7a89	0.30366924
155	0x3e1431ba	0.14472094
156	0x3dacca26	0.08436994
157	0xbdae1736	-0.08500521
158	0x3ed14528	0.40873075
159	0xbf6861d9	-0.90774304
160	0x3edfa5eb	0.43681273
161	0xbe319962	-0.17343667
162	0x3f67b2bf	0.9050712
163	0x3c8c8e48	0.017157689
164	0xc1808988	-16.067154
165	0x3ea6094d	0.3242897
166	0xbd4ae6ea	-0.049536623
167	0x3d181a43	0.03713442
168	0xbf3fa1d5	-0.7485631
169	0xbe41da0c	-0.18930835
170	0xbdfa4633	-0.12220421
171	0x3f3441d3	0.7041294
172	0xbfb4ed66	-1.4134948
173	0xbe832281	-0.25612262
174	0xbf2e5138	-0.6809268
175	0x3db56a27	0.088581376
176	0xbcc200c7	-0.023682011
177	0x3e8d261a	0.27568132
178	0x3eaabd42	0.33347517
179	0x3e1bc5f5	0.15212233
180	0xbe5fc461	-0.21852256
181	0xbf664245	-0.8994487
182	0x3f6bb858	0.9207816
183	0xbf67c4c2	-0.90534604
184	0x3e8af84d	0.27142563
185	0xbfa43fce	-1.2831972
186	0x3dcdeffb	0.10055538
187	0xbe34e675	-0.17666037
188	0xbe1cb92a	-0.1530501
189	0xbdd8dd23	-0.105890535
190	0xbadd25ba	-0.0016872205
191	0xbec40cb4	-0.38290942
192	0x40129015	2.290044
193	0xbeb9fd3d	-0.36326018
194	0x3db01350	0.085974336
195	0xc01e3451	-2.4719431
196	0xbd99df0a	-0.075132445
197	0x40c1d7e9	6.057606
198	0x3fa811d8	1.3130445
199	0xbf3079b8	-0.6893573
200	0x3c4681a9	0.012115874
201	0xbe2af7ef	-0.16696142
202	0xbf1d62c3	-0.61478823
203	0x3f430a3c	0.7618749
204	0x3eb846cc	0.35991514
205	0x3e122596	0.1427215
206	0x3e1cf2e9	0.15327038
207	0x3d82a576	0.063792154
208	0x3e49be4c	0.19701499
209	0x3eb116f0	0.34587812
210	0x3e977b35	0.29586187
211	0x3e215731	0.15755917
212	0xbf0c651d	-0.54841787
213	0xbe830188	-0.25587106
214	0xbe09d2a7	-0.13459264
215	0xbeadece2	-0.3396979
216	0xbef6093a	-0.48053914
217	0xbda67ded	-0.08129487
218	0xbdcc7d43	-0.09984829
219	0x3f6939b3	0.9110367
220	0xbe6e11b9	-0.23248948
221	0x3f129567	0.5725922
222	0x3f253f1d	0.6454943
223	0xbedc7307	-0.4305651
224	0xbee27da9	-0.44236496
225	0xbf9995b6	-1.1998813
226	0x3f84d0d9	1.0376235
227	0xbe36231b	-0.17786829
228	0x3f72f0c1	0.9489861
229	0x3db3b558	0.08774823
230	0x3fabece1	1.3431665
231	0xbe44314f	-0.19159435
232	0x3dad5721	0.08463884
233	0xbecf38d1	-0.40473035
234	0x3edf3db5	0.43601766
235	0x3fa2bd09	1.2713939
236	0x3f0529da	0.52016985
237	0xbf287418	-0.65802145
238	0xbf854d95	-1.0414301
239	0x3f71c743	0.94444674
240	0xbf3e7a1f	-0.7440509
241	0xbe1e4a59	-0.15458049
242	0xbc5b07c4	-0.013368551
243	0xbee6f6bb	-0.45110115
244	0xbe9a29d5	-0.3011004
245	0x3e3fe524	0.18739754
246	0x3e1d847e	0.15382573
247	0x3eeed1f0	0.46644545
248	0x3fe4b5da	1.7867997
249	0xbc10efc7	-0.00884623
250	0x3c1536b0	0.009107277
251	0xbf9bd25f	-1.2173575
252	0xbe9e0abc	-0.30867565
253	0xbf2e8e7b	-0.6818616
254	0xbe9cb390	-0.30605745
255	0xbd1bbc86	-0.038021587

fcs1.bias f4 [24]
0	0xbf5481a4	-0.83010316
1	0xbf2e77f4	-0.68151784
2	0xc02b769b	-2.679114
3	0xbd730cc2	-0.05933834
4	0x3f312421	0.69195753
5	0xc020c3a1	-2.5119402
6	0x3f8dd89c	1.1081729
7	0xbf3e71c5	-0.7439235
8	0xbf1ce2a5	-0.6128333
9	0xbc9715a2	-0.018442933
10	0xbf566d98	-0.83760977
11	0xbe76da5c	-0.24106735
12	0xbf14f8b1	-0.5819197
13	0xc0394a57	-2.8951623
14	0xc00becfc	-2.1863394
15	0xbf1775c7	-0.5916409
16	0xbfc03e0c	-1.5018935
17	0xbf433df5	-0.76266414
18	0xbf558f66	-0.83421934
19	0xbf6adb47	-0.9174084
20	0xc00223d1	-2.033436
21	0xc005ee91	-2.092686
22	0xbf2d6c7c	-0.6774366
23	0xbf1cfae7	-0.61320347

fc2.weight f4 [48, 28]
0	0xbd868482	-0.065682426
1	0xbdb4252b	-0.08796152
2	0x3e502b08	0.20328915
3	0xbf382aa1	-0.71940047
4	0xbed3d7e3	-0.41375646
5	0xbf337a2e	-0.70108306
6	0xbf15efa9	-0.5856882
7	0xbf5a9b58	-0.85393286
8	0xbd8f9b99	-0.070121
9	0xbe886f8f	-0.26647612
10	0x3ee336c8	0.44377732
11	0xbe446998	-0.19180906
12	0xbf416533	-0.7554504
13	0xbe7c2cc8	-0.24626458
14	0xbe21c6ca	-0.15798488
15	0xbd3165de	-0.04331004
16	0xbeeffa83	-0.46870813
17	0x3e520350	0.20509076
18	0x3f0c7e2b	0.5488002
19	0xbe6285b2	-0.22121313
20	0x3d352d2b	0.04423253
21	0xbf97731c	-1.1832004
22	0x3ef7a6e3	0.48369512
23	0xbece9651	-0.40349057
24	0xbe16fa59	-0.14743938
25	0xbea42292	-0.32057625
26	0xbde84e73	-0.11343088
27	0xbf374ef3	-0.7160484
28	0xbe39da30	-0.18149638
29	0xbe1ad7f0	-0.15121436
30	0xbde88d16	-0.11355035
31	0xbaba148d	-0.0014196798
32	0xbb9dfd64	-0.0048214663
33	0xbc944057	-0.018097086
34	0x3bc4e058	0.006008189
35	0xbd50dcdb	-0.050991874
36	0xbcd05140	-0.025429368
37	0xbd7e5776	-0.062095128
38	0xbdd9a9cb	-0.106280886
39	0xbe158bd0	-0.14604115
40	0xbcbeb12b	-0.02327784
41	0xbd8b208a	-0.06793316
42	0x3c10aada	0.008829797
43	0xbd6f96ec	-0.05849354
44	0xbd9bd23c	-0.076084584
45	0xbdd0d35b	-0.10196563
46	0xbdaee71e	-0.08540176
47	0xbe8b364a	-0.27189857
48	0xbc61ce46	-0.01378209
49	0xbd6ceb11	-0.057841364
50	0x3ca8285b	0.020527055
51	0xbe1a90a4	-0.15094239
52	0xbe8dfb13	-0.27730617
53	0xbcfad3b7	-0.030618532
54	0xbdabb788	-0.08384615
55	0x3d1c3931	0.03814048
56	0xbdb7e77c	-0.08979699
57	0xbeac9d2e	-0.3371367
58	0xbe09d3a7	-0.13459645
59	0xbc18b0a3	-0.009319457
60	0xbdcd1d16	-0.10015313
61	0xbe3301f1	-0.1748121
62	0xbe6101e9	-0.21973385
63	0xbe6c1fde	-0.23059031
64	0xbd6c898d	-0.057748366
65	0xbe8c14f8	-0.27359748
66	0xbe24a943	-0.16080193
67	0xbbc4f2c1	-0.006010384
68	0x3da35a22	0.07976176
69	0xbde08459	-0.10962743
70	0xbd2fb0af	-0.042893108
71	0x3d028dce	0.031873517
72	0xbe981e05	-0.29710403
73	0xbd0eb008	-0.034835845
74	0xbed9e5e1	-0.42558196
75	0xbc461cbb	-0.012091811
76	0xbdff9de2	-0.12481286
77	0xbe7f2e7d	-0.24920078
78	0xbdaeca7b	-0.08534714
79	0xbc6ba07b	-0.014381523
80	0xbda474cb	-0.08030089
81	0xbdcea0b7	-0.10089248
82	0xbdeffa7c	-0.11717698
83	0xbb44c7e2	-0.0030026366
84	0x3d544aef	0.051829275
85	0xbd6289c7	-0.055307176
86	0xbe338946	-0.17532834
87	0xbe073a00	-0.13205719
88	0xbdc6c49e	-0.097054705
89	0xbea0ad6a	-0.31382304
90	0xbe2243d9	-0.15846194
91	0xbec0379e	-0.37542433
92	0xbd80fd26	-0.06298284
93	0xbda11773	-0.07865801
94	0x3d003349	0.03129891
95	0xbd304937	-0.043038573
96	0xbd7d9a3e	-0.061914675
97	0xbe275311	-0.16340281
98	0x3c860303	0.016358858
99	0x3d415bfd	0.047206867
100	0xbd2a1151	-0.04152042
101	0xbdc5dca0	-0.096612215
102	0x3d841401	0.06449128
103	0xbe229c47	-0.15879928
104	0x3bc7cdf0	0.0060975477
105	0xbdabfca9	-0.083978005
106	0xbdff51a5	-0.12466744
107	0xbe005118	-0.12530935
108	0xbe1df81a	-0.15426674
109	0xbdb876ea	-0.09007056
110	0xbe3daa22	-0.18521932
111	0xbc49e98e	-0.01232375
112	0xbc769a73	-0.015051472
113	0xbe345bff	-0.17613219
114	0xbc82f539	-0.015986072
115	0xbcadcd22	-0.021215979
116	0xbd0ea8af	-0.034828838
117	0xbc991a66	-0.018689346
118	0xbdb7d604	-0.08976367
119	0xbdd24366	-0.102667615
120	0x3d1ce2a9	0.038302097
121	0xbdd1f131	-0.10251082
122	0xbdcc6d15	-0.09981743
123	0xbcb7cbb4	-0.022436
124	0xbd1f2234	-0.038850978
125	0x3cf71d6c	0.030165397
126	0xbe1849ae	-0.14871857
127	0x3c6591a9	0.014011779
128	0xbb6bc449	-0.003597515
129	0x3b4e1d46	0.0031450554
130	0xbe210fe8	-0.15728724
131	0xbd6c3c74	-0.05767484
132	0x3d1e3a39	0.038629744
133	0xbe1d558a	-0.15364662
134	0x3c66f9ef	0.014097675
135	0xbd8a56df	-0.067548506
136	0xbc8f1432	-0.017465685
137	0xbde30224	-0.11084393
138	0xbe173330	-0.1476562
139	0xbe3e5299	-0.18586196
140	0xbe229505	-0.15877159
141	0xbb908ecf	-0.0044115554
142	0xbe292d69	-0.16521229
143	0x3d2d9250	0.042375863
144	0x3b5ed4cc	0.0034001349
145	0x3c08e6a2	0.008355768
146	0xbd605bdd	-0.054775108
147	0xbdda2aea	-0.106527165
148	0x3d2da543	0.042393934
149	0xbd24b761	-0.040213946
150	0xbde37ac3	-0.11107399
151	0xbe07e2ad	-0.13270064
152	0xbc1ecbb2	-0.009692119
153	0xbdd95a0d	-0.10612879
154	0xbea5cc18	-0.32382274
155	0xbe2a715a	-0.16644803
156	0xbe652b24	-0.22379738
157	0xbdef2df5	-0.116786875
158	0xbe15b75b	-0.14620726
159	0xbda1db63	-0.07903173
160	0x3cd3d88f	0.0258601
161	0x3c6725e6	0.014108157
162	0x3d91e641	0.071239956
163	0xbe68730b	-0.22700135
164	0xbe90a38f	-0.28249785
165	0xbe0e546f	-0.13899396
166	0xbdc7ad82	-0.09749891
167	0xbd88a5f8	-0.06672281
168	0xbd837b00	-0.06419945
169	0x3bdcf4e7	0.006743062
170	0xbce32af2	-0.027730439
171	0xbd90f2b9	-0.07077546
172	0xbd4c40c8	-0.049866468
173	0xbdd1814d	-0.1022974
174	0xbe1945f5	-0.14968093
175	0xbe5f3a46	-0.21799573
176	0xbdf72123	-0.12066867
177	0xbd5c809a	-0.05383358
178	0xbc9ab6b6	-0.018885951
179	0x3d7a7a4c	0.061151788
180	0xbcdce370	-0.02696392
181	0xbad3069b	-0.0016099991
182	0xbdc31b42	-0.095266834
183	0x3b82410a	0.0039750384
184	0xbdbc9073	-0.09207239
185	0xbbf63ac3	-0.007514329
186	0xbe075d8c	-0.13219279
187	0xbdadcb2b	-0.08486017
188	0xbc354548	-0.011063881
189	0xbbcd8ddf	-0.006273016
190	0xbd9e9720	-0.077436686
191	0xbe50eb08	-0.20402157
192	0xbe25c064	-0.16186672
193	0xbd17bd68	-0.037045866
194	0xbd5023c8	-0.050815374
195	0xbd4754e4	-0.048664942
196	0xbdea180b	-0.11430367
197	0xbe3a8c77	-0.18217646
198	0x3c58631b	0.013207222
199	0xbce015f9	-0.027354227
200	0xbd2ecc9e	-0.042675607
201	0x3d15096c	0.03638594
202	0xbe35aa8f	-0.17740844
203	0xbd8a2fbb	-0.06747385
204	0xbe15753f	-0.14595507
205	0xbb8163ac	-0.0039486494
206	0x3be9b8d1	0.0071326275
207	0xbdfe0d9c	-0.124049395
208	0xbe24935b	-0.16071837
209	0xbe017d08	-0.12645352
210	0xbdafa914	-0.08577171
211	0x3d32f65b	0.043691974
212	0xbdf99fdf	-0.12188696
213	0xbe671f75	-0.22570594
214	0xbdacff5d	-0.08447144
215	0xbcc8945d	-0.024484808
216	0x3bdcf9ed	0.0067436607
217	0xbe0938cb	-0.13400571
218	0xbdce2ed7	-0.10067528
219	0xbe7161a8	-0.23572409
220	0xbdce0063	-0.100586675
221	0xbdf6dc54	-0.12053743
222	0xbe0335de	-0.12813517
223	0xbe0ecd32	-0.13945463
224	0xbe8555f5	-0.26042143
225	0xbe3d5078	-0.18487728
226	0xbdee471b	-0.11634656
227	0xbdbd7491	-0.09250749
228	0xbdfb245e	-0.12262796
229	0xbdb95a81	-0.090504654
230	0xbce41ac6	-0.027844798
231	0xbdc7496e	-0.097308025
232	0xbda0b29b	-0.07846566
233	0xbe277b32	-0.16355589
234	0x3d0ce49a	0.0343977
235	0xbe120afa	-0.14262
236	0xbdc7b2da	-0.0975091
237	0xbe0ada27	-0.13559781
238	0xbe2cc0b0	-0.1687038
239	0x3e57f563	0.21089701
240	0xbf1a377c	-0.6024091
241	0xbd47cd21	-0.04877961
242	0x3c6e8fd2	0.014560657
243	0xbd419c27	-0.04726806
244	0xbd3037cb	-0.04302196
245	0xbd8dd648	-0.069256365
246	0xbe0b6ae5	-0.13614996
247	0xbc7d4df1	-0.015460477
248	0xbe43cceb	-0.19121139
249	0xbb4e31a3	-0.0031462691
250	0x3cf3f71a	0.029780913
251	0xbe53cd0b	-0.20683686
252	0xbe802fe6	-0.25036544
253	0xbe0f425b	-0.13990156
254	0xbe211dfa	-0.15734091
255	0xbd90d7bc	-0.07072398

fc2.bias f4 [48]
0	0xbb562c7c	-0.0032680323
1	0xbe078eb0	-0.13238025
2	0xbe644897	-0.22293316
3	0xbdeae6eb	-0.11469825
4	0xbe970f1d	-0.29503718
5	0xbe49fb15	-0.19724686
6	0xbdb8770c	-0.090070814
7	0xbe1cec28	-0.15324461
8	0xbe838afa	-0.25691968
9	0xbddeab10	-0.10872471
10	0xbe6bc83b	-0.230256
11	0xbe641031	-0.22271802
12	0xbc36f629	-0.011167088
13	0xbba1d476	-0.0049386574
14	0xbddb876b	-0.10719188
15	0x3bf4952a	0.007464071
16	0x3c8e31fa	0.017357815
17	0xbe455700	-0.19271469
18	0xbe7a2397	-0.24427639
19	0xbe1be31e	-0.15223357
20	0xbd8a235b	-0.06745025
21	0xbe917ff4	-0.28417933
22	0xbd8a2da5	-0.06746987
23	0xbe7fd68d	-0.24984188
24	0xbe8c04b8	-0.2734735
25	0x3c962cf0	0.018331975
26	0xbdfbfa44	-0.12303594
27	0x3e12a604	0.14321142
28	0xbdd4037f	-0.10352229
29	0xbe6ac657	-0.22927223
30	0xbe69f9fa	-0.22849265
31	0xbdb83136	-0.08993761
32	0xbe2eb91b	-0.170628
33	0xbe32feda	-0.1748003
34	0x3e171485	0.14753921
35	0xbd4ec792	-0.050483294
36	0xbe074c1c	-0.13212627
37	0xbe8b11ae	-0.27161926
38	0x3dd10f41	0.102079876
39	0xbe8bccc1	-0.27304652
40	0xbdc4a2f8	-0.09601396
41	0xbe8c777a	-0.27434903
42	0xbd69ddfa	-0.05709646
43	0xbd3c6805	-0.04599764
44	0xbe895bfe	-0.26827997
45	0x3c8ef576	0.01745103
46	0xbea5ae2a	-0.3235944
47	0xbe22808b	-0.15869348

fc3.weight f4 [1, 48]
0	0xbd57792e	-0.0526058
1	0x3bd2983f	0.0064268406
2	0x3b41367c	0.0029481938
3	0xbc3c1ae5	-0.0114810215
4	0xb978bd09	-0.00023721544
5	0xbc886de8	-0.01665397
6	0x3b3cd9ef	0.0028816422
7	0x3c5be699	0.013421678
8	0x3c9d0899	0.019169139
9	0xb906e493	-0.00012864386
10	0xbc6b45d2	-0.014359908
11	0xbc3774a0	-0.011197239
12	0xbb1efec5	-0.0024260741
13	0x3d6a9395	0.05726965
14	0xbb064da8	-0.0020493064
15	0x3ca60f97	0.020271106
16	0x3c46357e	0.0120977145
17	0x3ce8fedb	0.028441837
18	0xbc78c8c7	-0.015184588
19	0x3c7b29b4	0.015329767
20	0xbc02da2e	-0.007986588
21	0x3c7e3ee0	0.01551792
22	0xbad39b25	-0.0016144259
23	0x3bc7accc	0.006093597
24	0x3c562d51	0.013072328
25	0xbc0a5c7f	-0.008444904
26	0x3c974fa2	0.01847059
27	0x3c893089	0.016746776
28	0x3c058873	0.008150208
29	0x3ca6fdcb	0.02038469
30	0xbc5c0f11	-0.0134313265
31	0x3c951a25	0.018200943
32	0x3c74466a	0.014909366
33	0x3d10ff13	0.035399508
34	0xbd8afe63	-0.06786802
35	0x3bcafb4d	0.006194508
36	0xbc890ebe	-0.016730662
37	0xbc6bf0ed	-0.014400703
38	0xbc6e5c09	-0.01454831
39	0x3cab0eac	0.02088102
40	0x3c67215d	0.0141070755
41	0x3b4c29af	0.0031152775
42	0x3bbbf43e	0.005735903
43	0xbc041d4f	-0.008063628
44	0xbcc080c6	-0.023498904
45	0x3c81a4bc	0.015825622
46	0xbc52bb91	-0.012862102
47	0xbb4ea8b1	-0.0031533653
